2ARO_Knapsack/post train NN data/20 instance 50 scenarios/old (keep)/model_weights_20_instance_50_scen.pth (torch, 59406 bytes, 13 tensors)

embedding_instance.weight f4 [64, 102]
000000 2e af 19 3f b6 1a a9 3e c5 1e 25 3e 7a cb a6 3e
       0.6003293 0.3302819 0.16125019 0.32577115
000010 ee 5c 58 3f b1 42 a9 3e af 71 99 bf 1c 8f 62 bf
       0.845168 0.33058694 -1.1987818 -0.8849962
000020 87 62 3d bf 38 5e 2e 3f 0c 9f 3b 3f 88 6c 0d bf
       -0.73978466 0.68112516 0.7328956 -0.5524373
000030 92 e3 9a 3e 59 e8 a9 3e a3 47 75 3c 44 ff 2f 3e
       0.30251747 0.3318508 0.014970693 0.1718722
000040 14 f3 ec be 56 03 6e bf 56 dd 06 be 11 2a 5e bf
       -0.46279204 -0.9297384 -0.1317037 -0.8678294
000050 98 52 0c 3f f5 7a d4 3e c2 43 e3 be 57 0d 62 3c
       0.5481353 0.4150006 -0.44387633 0.013797126
000060 06 fd 36 3f bd f1 26 3f 3b 34 6b bf 6c 59 67 bf
       0.71479833 0.65212613 -0.9187657 -0.9037082
000070 98 7e 15 bf 3a 5c bd 3e 74 f6 42 3e ed 59 a6 3e
       -0.5839629 0.36984426 0.19039327 0.32490483
000080 98 2f a8 3f 88 75 69 3f fd 85 b3 be 25 30 8a bd
       1.3139524 0.91194963 -0.35063162 -0.06747464
000090 be b3 dd bc bc 6f 23 bf e0 f7 16 be 27 bb 0a bf
       -0.027063247 -0.6384237 -0.14742994 -0.5419182
0000a0 be 44 86 be f0 4d f6 3e bb 7a b0 3e b1 85 34 bf
       -0.2622432 0.48106337 0.34468636 -0.70516497
0000b0 7e 1d d3 be af 67 14 3f 03 71 0f 3f 3f d3 cf 3e
       -0.41233438 0.5797071 0.5603182 0.40590855
0000c0 78 7a 63 bf a9 95 96 3e 3f f1 f5 be 27 d8 09 3e
       -0.8885875 0.29411057 -0.4803562 0.13461362
0000d0 33 01 7a 3d 97 76 3a bf a4 52 e5 3e 93 29 bc 3f
       0.0610363 -0.72837204 0.44789612 1.4700187
0000e0 54 38 78 3e 4d 81 b7 3d a2 b5 fc be 68 7d 48 3f
       0.24240237 0.08960209 -0.49357325 0.78316355
0000f0 88 f9 16 be 9e d3 4c be db 5b 85 3e 8a 90 b4 3e
       -0.14743626 -0.200026 0.26046643 0.35266525
000100 05 8f d5 bf 1c 78 62 3f a5 ef a9 3e de db 9f bf
       -1.6684271 0.8846452 0.33190647 -1.2488973
000110 7a aa 2a bf c1 1f 7b be 1c 94 4d 3d 51 3d 2f 3e
       -0.66666377 -0.24523832 0.050190076 0.17113234
000120 41 e2 96 3f 54 bb c6 be b0 e5 24 bf 3a 0a ad 3f
       1.1787797 -0.38814795 -0.64412975 1.3518746
000130 9a 4f 7c 3f ae 5d 1e 3e ee 1e db 3e ef 42 86 3f
       0.9855896 0.15465423 0.42797035 1.0489177
000140 26 80 6e be 46 68 ee be 56 4a 15 bf c5 d0 c5 bf
       -0.23291072 -0.4656393 -0.5831655 -1.5454336
000150 36 a7 b9 be 48 31 6b bf 00 8a 3c bf a8 11 b2 3f
       -0.36260384 -0.9187207 -0.7364807 1.3911638
000160 d1 25 30 bf 0e a1 54 3e eb a1 ae bb c5 a0 9b 3f
       -0.68807703 0.20764562 -0.0053293607 1.2158438
000170 39 48 98 3e 8d 76 ac 3d 9b 63 2d 3f b9 d2 2e bf
       0.29742602 0.08421049 0.6773011 -0.6829029
000180 1a bd 68 be 4d 73 85 3d 00 6f f4 be 13 3e e3 3d
       -0.22728387 0.065161325 -0.47740936 0.11095824
000190 c1 9c d3 be c2 e7 0d 3f 2d e2 31 3d b1 95 69 be
       -0.4133053 0.5543176 0.04342859 -0.22811009
0001a0 8a b9 1b 3f ff 61 b3 bf 50 3f 0a bf 13 07 f8 bd
       0.60829985 -1.4014281 -0.5400286 -0.12110724
0001b0 b6 47 15 3e e1 1e 89 bf 0f 4e 2e bf 19 ef 01 3d
       0.14578137 -1.0712548 -0.6808786 0.031722162
0001c0 03 b7 4a bf 6d f5 ca 3e 2f d5 c2 bd 43 9a 81 3e
       -0.79185504 0.3964037 -0.09513318 0.25313005
0001d0 ff 98 f8 be d1 3a e2 3e ad 92 02 3f 79 a8 3a bf
       -0.48554227 0.44185498 0.5100506 -0.7291332
0001e0 15 86 a2 be c1 8f 78 be 9a 20 88 3e 02 08 c4 bc
       -0.3174292 -0.24273588 0.26587373 -0.0239296
0001f0 a2 58 57 be b4 45 2b bf 00 e0 ba 3e 9f 52 b4 3e
       -0.21029904 -0.66903234 0.36499023 0.35219285
000200 b1 c4 9a 3f e3 93 64 bf b6 98 9c be e4 2d 94 be
       1.2091275 -0.8928816 -0.3058526 -0.28941262
000210 7f e5 d1 be 76 d2 b9 be 35 dc d6 3b c5 06 d2 bc
       -0.40995404 -0.3629338 0.0065570124 -0.025637994
000220 ad bb 64 bf 49 1a 08 3f fa be b0 be dd 12 8c 3e
       -0.8934887 0.5316511 -0.34520704 0.27358142
000230 be 19 95 bd ec ea d5 be 53 11 35 3f 5b c4 ef be
       -0.072803006 -0.41780794 0.7072956 -0.46829495
000240 80 d7 25 3f 39 e8 25 3f 40 53 ad 3e a0 9d 6d 3f
       0.6478195 0.6480747 0.33852577 0.9281864
000250 11 b7 8e bc de 24 be bd f5 0d a4 3f b5 b7 72 3d
       -0.017421277 -0.092843756 1.2816759 0.059257228
000260 c2 be 3e 3f e4 44 84 3e 25 cd 20 bf 99 b5 21 bf
       0.74509823 0.2583381 -0.62813026 -0.6316772
000270 8b a1 1d 3e 0c bb 12 3e 4f 75 10 be 9c 17 46 3e
       0.15393655 0.14329165 -0.1410725 0.19344944
000280 8f 14 79 3f 96 b7 4d 3f 94 23 9a bf 29 bc 85 3f
       0.97296995 0.80358255 -1.2042108 1.0448047
000290 d2 5f 21 3f 61 e2 8f be 63 a4 2d 3f 69 33 8a be
       0.63036835 -0.281024 0.6782896 -0.26992348
0002a0 75 57 11 bf d2 96 1c be 2c 14 e5 3e bf 31 a2 3f
       -0.56774074 -0.15291908 0.44741952 1.2671431
0002b0 e8 82 ce bf 48 49 aa be 87 64 82 3f 71 47 dd bd
       -1.61337 -0.33259034 1.0186929 -0.10804642
0002c0 bf dc 8a 3f 30 39 4e bf 6a 47 a1 3f 5c a2 b8 bf
       1.0848616 -0.8055601 1.2599919 -1.4424548
0002d0 ca 73 68 bf 97 f2 b8 3f 39 1d 1d 3e d2 8d 28 bf
       -0.9080168 1.4449033 0.15343179 -0.658414
0002e0 00 41 59 3d 9f cd 6f 3f a7 aa 57 bf 11 71 35 bf
       0.053040504 0.9367313 -0.8424477 -0.7087565
0002f0 a2 6a db 3f af dc 81 3e f6 0b 64 3f e9 0f 86 3d
       1.7141917 0.2536368 0.8908075 0.06546003
000300 7b f7 81 3f e7 ea 21 bf de 32 4c be 02 4e 67 bf
       1.015365 -0.6324906 -0.1994128 -0.90353405
000310 07 45 d8 be a4 8e 08 3f 28 bc 37 3f c9 db 4f 3e
       -0.42240164 0.5334265 0.7177148 0.20298685
000320 1c a1 0a bf 3a b1 63 3e d0 61 06 3f 4f d7 4c 3a
       -0.54152083 0.22235575 0.52493 0.0007814066
000330 fd 36 ec bd b4 9b 28 bd 05 87 75 3e 0c e8 c7 bc
       -0.11533926 -0.041164115 0.23977287 -0.02440264
000340 27 8d f0 3e 8c 99 b1 be 1a f7 ce 3e 3a d2 6b be
       0.4698269 -0.3468746 0.404229 -0.23029414
000350 e8 a3 8a 3e 7d 55 d6 3e 74 c1 08 bd dc 47 59 3e
       0.27078176 0.41862097 -0.033387616 0.21218818
000360 46 a0 02 bf 35 67 69 3d b8 c8 bc 3e 88 2c 03 3f
       -0.5102581 0.05698319 0.36871886 0.51239824
000370 d6 73 08 bf 6c bd e9 be fc be 2e be e2 00 c4 bd
       -0.5330175 -0.4565233 -0.17065042 -0.09570481
000380 83 e4 9f be 95 7e ed 3d 82 18 7e 3d 87 62 af bd
       -0.31229028 0.11596409 0.06203509 -0.085637145
000390 c1 47 c0 3e f1 d4 e4 3d 59 c5 79 3e 7e bf a5 bd
       0.37554744 0.11173428 0.24391688 -0.08093165
0003a0 5e 21 00 be dc 91 5a be ed a2 91 3d f0 26 ae 3e
       -0.12512729 -0.21344703 0.07111154 0.34014082
0003b0 41 31 0e 3f d9 94 06 3f dd 65 de 3d 31 35 10 be
       0.55543905 0.52570873 0.10859273 -0.14082791
0003c0 62 9e 25 be 01 2e 61 3d 0f 3c 95 be f1 4f 6c 3e
       -0.161737 0.054975513 -0.29147384 0.2307737
0003d0 15 f1 65 3f c8 ec 33 bf d9 4a 64 3f 4b 04 56 be
       0.89820987 -0.70283175 0.8917671 -0.20900075
0003e0 93 ca f5 be ef 27 df be e4 01 4d be 2e 47 4c 3f
       -0.48006114 -0.43585154 -0.20020252 0.7979611
0003f0 9e 8f a8 be 64 b8 c8 3e 5f 2c 1c 3e cd 35 f2 3e
       -0.3292207 0.3920318 0.15251301 0.47306672

embedding_instance.bias f4 [64]
000000 46 68 1e 3e e7 6b da 3d 12 d9 63 bf cc 94 41 bf
       0.15469465 0.10665112 -0.890031 -0.7561767
000010 d6 31 65 bc 31 42 10 bc 96 61 00 bc 7d 9c 1e ba
       -0.013988933 -0.008804844 -0.007835766 -0.000605054
000020 7d be 6c 3f 7d 49 f8 3e f9 c9 a6 bf 40 cf 80 bf
       0.9247816 0.48493567 -1.3030387 -1.0063248
000030 2c 3d f5 be d3 e1 a6 3b b7 08 36 be 9b b6 81 3b
       -0.47898233 0.0050928383 -0.17776762 0.003958536
000040 3d a0 a8 3f 01 9d ad 3b c4 89 cd be 96 56 f6 3e
       1.3173901 0.0052982573 -0.4014417 0.48112935
000050 9a 10 c9 bb 75 7a d0 bb f6 d7 be bc 61 85 e0 3e
       -0.0061360123 -0.0063622543 -0.023296338 0.4385176
000060 56 de d4 bb 70 86 2f bf cd 6f 66 3b 3e 9a ac bb
       -0.006496231 -0.6856451 0.0035161853 -0.0052674105
000070 36 46 69 3f 57 03 e6 3b 95 8a ca 3e 22 b9 58 b9
       0.9112276 0.007019441 0.39558855 -0.00020668333
000080 46 32 37 3b 6b ed 8a 3f c7 d4 97 bb 7d e1 72 bf
       0.002795355 1.0853704 -0.0046335193 -0.9487532
000090 cc 58 c3 ba b5 f4 e5 bc c1 c9 99 bb b5 1c ab 3a
       -0.0014903783 -0.028070787 -0.0046932404 0.001305482
0000a0 fd 1e 4b 3c 28 77 b5 b6 ea 6c 76 bf f2 2f 03 3e
       0.012397525 -5.408092e-06 -0.9625994 0.12811258
0000b0 b3 38 35 bf ed 26 54 bc 6a 20 c5 be f7 9f 04 3f
       -0.7078964 -0.012948734 -0.38501292 0.51806587
0000c0 4d 5a 68 bf 26 81 4f bf 80 13 1d bd 04 4d 20 3f
       -0.9076279 -0.8105644 -0.038348675 0.62617517
0000d0 be 6d b0 bb fd d9 ba be 1f 61 9a be 1f e4 76 3b
       -0.005384176 -0.36494437 -0.30152223 0.0037672592
0000e0 ba 1b 7d 3e 0a cc 0b bf d8 1b 03 3f a7 2f 61 3f
       0.24717608 -0.54608214 0.5121436 0.87963337
0000f0 ed 98 a7 39 78 cc 6d bc c0 cc bc 3a d0 31 96 3f
       0.0003196666 -0.014514081 0.0014404282 1.1733952

embedding_X.weight f4 [10, 20]
000000 5f 29 b4 3e d4 d8 89 3f 5e 26 13 3f 10 b4 a4 be
       0.35187814 1.0769296 0.5748042 -0.32168627
000010 22 85 ba 3d c8 fa 6a bf 73 36 21 be 7d 06 aa 3e
       0.09107424 -0.9178891 -0.15743427 0.33208075
000020 9e 68 8d 3e 91 32 d3 be 07 16 27 3f f1 fd 57 bf
       0.2761888 -0.41249517 0.65267986 -0.8437186
000030 a9 94 7c be 27 76 8f 3e 5b 8b 4e 3f 71 91 af 3e
       -0.24666084 0.2801983 0.8068139 0.3429065
000040 fe 23 e7 3d 1a 2e db be c1 14 88 3f bc 98 c9 be
       0.11286162 -0.4280861 1.0631334 -0.3937434
000050 27 a8 96 be 3a b9 a9 3e 63 09 84 3f 8c b5 d5 3f
       -0.29425165 0.3314913 1.0315365 1.6696029
000060 10 99 48 3f e7 0e d8 be 26 ae 34 bd 07 5b 35 bd
       0.78358555 -0.4219887 -0.044111393 -0.044276264
000070 9e bb b1 3f b0 3d 9d bf 14 c1 64 bd fc 66 ed 3e
       1.3885381 -1.228445 -0.055848196 0.46367633
000080 04 dc ec be cc c3 68 bf 3f b2 5a 3f df af 42 3d
       -0.4626161 -0.9092376 0.8542823 0.047531005
000090 09 d6 39 bf 70 54 e6 be 06 6e 77 bf 7e 24 47 3f
       -0.72592217 -0.44986296 -0.9665226 0.7779006
0000a0 2a 97 74 3f d7 85 fc 3e 78 0e 6b bd 65 c4 29 3f
       0.9554316 0.49320862 -0.057386845 0.663153
0000b0 35 fe 8e 3d 7b 65 a4 be b4 6e 11 3e 08 bb 1d bf
       0.0698208 -0.32108673 0.14202386 -0.6161351
0000c0 f1 6e f4 be 6f 02 d2 bc a5 5d 25 be f1 75 57 3f
       -0.47740892 -0.025635926 -0.16149004 0.8416434
0000d0 7c 70 3c 3f f0 d2 17 be 59 c7 29 be ef 6e f1 3e
       0.7360914 -0.1482656 -0.16579951 0.47154948
0000e0 6b 68 3a 3a 03 8f 1d bd 79 b5 3c 3f 64 de ac be
       0.00071108964 -0.038466465 0.73714405 -0.3376342
0000f0 85 40 af be b6 0c 14 bf 3f 79 b5 3e 39 cf f3 3d
       -0.34228912 -0.57831895 0.35444066 0.11904759
000100 6c 8b 2b bf 7c 6a aa 3d 6b e2 19 be b1 49 0f bf
       -0.67009616 0.083210915 -0.15027778 -0.5597182
000110 df a4 04 bf 36 59 80 3e 1f 4b 81 be 4d c5 8c be
       -0.51814073 0.25068063 -0.25252625 -0.2749428
000120 c3 6e 1b bf f3 dd df be 81 79 56 3d ca 61 04 3f
       -0.60715884 -0.4372402 0.05236197 0.51711714
000130 1b 2b 1f bf 49 ee 9a 3e 1b b8 10 be b0 f0 47 bf
       -0.6217515 0.30259922 -0.1413273 -0.78101635
000140 31 07 cd 3e 92 37 00 bf 0e 65 ad be 2d 7d 9e 3c
       0.4004455 -0.50084794 -0.3386616 0.019346798
000150 de d9 10 3e 32 35 50 3e 51 be 37 be 6e 16 cb be
       0.1414561 0.20332792 -0.17943694 -0.3966555
000160 2e 1e 49 3f ac e3 ae 3e 0a 36 74 bd 36 e0 6c be
       0.78561676 0.34158075 -0.05962185 -0.23132405
000170 60 91 b3 be b6 9c 08 3f 38 8c 88 3f f0 ec 19 3f
       -0.3507185 0.5336412 1.0667791 0.6012716
000180 61 0e bd bd f0 54 79 3f f1 21 25 3d 2e 5b 1f 3f
       -0.09231258 0.9739523 0.040315572 0.62248504
000190 51 01 02 3d b2 8e ae be 8a 4b e2 be 5f 71 56 3f
       0.031739537 -0.34093243 -0.44198257 0.8376674
0001a0 a0 21 67 bf 8f 31 b6 be fc 44 e8 3e 2d 2a 3f 3f
       -0.9028568 -0.35584685 0.4536513 0.7467373
0001b0 bb d3 59 be 3e ff 81 3e 11 32 53 3f 3e e7 70 bf
       -0.21272175 0.25390047 0.8249827 -0.9410285
0001c0 90 e6 50 3f aa a3 6a 3d 0d e7 95 3e b4 19 d7 3e
       0.8160181 0.05728499 0.2927784 0.42011797
0001d0 b9 83 9f bf 38 41 87 3e fd 99 51 be 3e c9 4c 3f
       -1.2462074 0.26416945 -0.20468898 0.7999457
0001e0 21 e3 60 3e fd 93 0d bf 95 19 82 be b6 23 0d be
       0.21961643 -0.5530394 -0.25410143 -0.13783154
0001f0 9d aa 57 bd ae 8f 2b 3e e4 be 06 3f 67 05 d3 bd
       -0.052652944 0.16754028 0.52635026 -0.10303765
000200 98 54 d6 be 0a fc d6 be 3b 33 19 bf ee 55 ed be
       -0.41861415 -0.41989166 -0.59843796 -0.46354622
000210 a9 de e2 be c1 e9 a4 be 75 2b ba be 8d 73 85 bf
       -0.443105 -0.3220959 -0.3636128 -1.0425888
000220 8f a4 e9 3d 61 aa 65 bd 80 23 4f 3e d7 ab ab 3e
       0.1140834 -0.05607069 0.20228386 0.3352954
000230 2c 32 44 3f 63 79 10 3f b2 45 ef 3e b3 a1 7d be
       0.76639056 0.5643522 0.4673286 -0.24768715
000240 35 21 d7 3d a7 c3 99 3e 0a 9c b5 3e 11 15 1a 3f
       0.105043806 0.30032083 0.3547061 0.60188395
000250 4e fb 1a be cf 8b 84 3e 6c 13 d9 be 7f 11 a7 bd
       -0.15134928 0.25887915 -0.4239763 -0.08157634
000260 4b b9 b7 be bf d5 eb be 4c 67 24 bf 96 b7 25 3f
       -0.35883555 -0.46061513 -0.6422012 0.64733255
000270 99 ef 1f bd 5d 09 77 3f 0f d2 c4 3e b1 3a 80 3e
       -0.039046858 0.9649866 0.38441512 0.25044778
000280 09 a4 17 3c c1 ec 2d 3f 45 25 b6 bd 05 be 76 bf
       0.009255418 0.6793938 -0.08893827 -0.96383697
000290 03 fd bf 3e b1 59 28 bf 22 76 c3 bd 11 2c 3b bf
       0.3749772 -0.6576186 -0.095440164 -0.73114115
0002a0 b2 cd 44 be e3 e7 0c bf 37 03 f7 3e 0d e1 a9 3e
       -0.19219092 -0.5504133 0.4824464 0.33179513
0002b0 0e a9 ac 3e 85 de 2b bf e1 25 15 bf fe a0 6c be
       0.33722728 -0.6713641 -0.58260924 -0.23108289
0002c0 38 1c 0f bf 6d 7c 7f 3c d5 8a 1f bf 1b 45 6d 3e
       -0.55902433 0.01559363 -0.62321216 0.23170893
0002d0 f8 08 bb bd 53 74 f8 3c b8 20 6c 3f 56 09 e2 3d
       -0.0913257 0.030328905 0.92237425 0.11036937
0002e0 41 ab 0b 3f c2 6c 4f 3f 7b da 96 3f 24 af 8d bd
       0.5455819 0.81025326 1.1785425 -0.06918171
0002f0 a9 89 6c be 2d e1 b6 3e c1 3a 79 3f 1b 95 e6 3e
       -0.23099388 0.3571867 0.97355276 0.45035633
000300 cb 13 e8 3e b0 0b 74 3e 5a d4 39 bc 76 c2 bc be
       0.453276 0.23832583 -0.011342132 -0.36867112
000310 50 f8 a1 3e 5d 02 8e 3e 47 1b a7 bd 19 ff 10 3e
       0.3163476 0.27736178 -0.081594996 0.14159812

embedding_X.bias f4 [10]
000000 88 d3 94 bf 80 1b 87 bf 92 f4 c9 bf c7 d3 e4 3f
       -1.1627054 -1.0555267 -1.5777762 1.7877129
000010 4b 8f bf bf c9 cf 31 bf ab 74 c9 3f f5 e7 c0 bf
       -1.4965605 -0.6945768 1.5738729 -1.5070788
000020 1c 89 d0 3f 20 31 f3 bf
       1.6291842 -1.8999367

embedding_uncern.weight f4 [10, 20]
000000 f7 c8 0a be 97 d4 db 3e 7e 3b ca be d4 7f ed 3e
       -0.13553225 0.4293563 -0.39498514 0.46386588
000010 ad fc ff 3e bb c5 2a bf 96 95 6c bf 46 a1 0e be
       0.49997464 -0.6670796 -0.9241575 -0.13928708
000020 cc 09 02 3f 2e 63 27 3e a9 93 17 3d d4 b7 fe bd
       0.507962 0.16346428 0.037006054 -0.12437406
000030 b2 bc 17 3e b6 30 2a bf d0 b5 9f 3f 77 b8 fe be
       0.14818075 -0.66480577 1.247736 -0.4975011
000040 31 11 1c 3e 49 de 03 bf 55 04 97 3f 1b 4c 5e 3e
       0.15240933 -0.51511055 1.1798197 0.2170872
000050 f6 0e 2e 3f 6a 47 68 3f d4 86 86 3d 20 5b ad be
       0.6799158 0.9073397 0.06568685 -0.33858585
000060 5b e5 62 3f 69 be dc 3e 60 4f c2 be 07 50 9b bd
       0.8863122 0.4311402 -0.37951183 -0.075836234
000070 45 87 2b bd ad 8e b4 3e d7 58 ec 3f 17 a6 7b bf
       -0.04187705 0.35265103 1.8464612 -0.9830031
000080 38 83 76 3e 4f f9 e2 be a5 bb 28 bf e0 11 5f 3f
       0.24073493 -0.44330832 -0.6591132 0.8713665
000090 51 4b 20 be b6 02 27 bf 9d 7f 91 3e cd 57 91 be
       -0.15653731 -0.6523851 0.28417674 -0.283873
0000a0 0e e8 83 3e a9 32 46 bf d7 0c 51 3e 57 67 de be
       0.2576298 -0.7742105 0.20415054 -0.43438217
0000b0 3f 83 84 3f 81 68 78 3f 4c e9 d3 be 6b 53 26 3e
       1.0352553 0.9703446 -0.4138893 0.16242759
0000c0 85 43 a6 3e b1 81 27 be 41 cc c0 3e 07 d5 08 3f
       0.32473388 -0.16358067 0.37655833 0.53450054
0000d0 36 b3 0f be c5 ff c5 be b1 7d 29 bf 70 29 18 bf
       -0.14033207 -0.386717 -0.66207415 -0.5943823
0000e0 0d 6a 1a bf 7a 05 8e 3e 1c c1 02 be bd cf d2 3e
       -0.6031807 0.27738553 -0.12768978 0.41174117
0000f0 67 63 be 3d a3 d4 56 3f f4 f8 1d bf 3c cb 6a bf
       0.09296303 0.8391821 -0.61708 -0.9171636
000100 79 0a e8 bb 4c b8 8b 3e a6 a8 72 bd 5f 35 00 3c
       -0.0070813266 0.27289045 -0.059242867 0.007825225
000110 e6 43 57 3f 67 4f 57 bf c1 57 3e 3e 77 29 de 3e
       0.8408798 -0.84105533 0.18588163 0.4339101
000120 89 e6 f3 bd 27 0d 0a bf 7a ca 3f bf 79 39 9a be
       -0.119092055 -0.5392632 -0.7491833 -0.30121973
000130 db 26 5d 3f 7a 71 a0 3e 71 61 30 3d 69 c0 a1 3d
       0.86387414 0.31336576 0.043061677 0.078980274
000140 76 ce 5c bf 6c f6 09 3e 33 20 7d 3d 96 20 84 bc
       -0.86252534 0.13472909 0.061798286 -0.01612882
000150 1b 24 08 3f b9 b2 54 bf d0 2c 22 3f d5 60 9f be
       0.5318009 -0.8308521 0.6334963 -0.31128564
000160 b1 c9 56 3f 45 4d e8 be 5c 1b e8 be d4 6f 2d bf
       0.83901507 -0.45371452 -0.45333374 -0.6774876
000170 c3 da 90 bd 4d 73 4b bf aa 08 7e bf 7b 8e 07 3d
       -0.070729755 -0.7947281 -0.9923197 0.033094864
000180 e8 78 27 bf d5 cc 83 bf 44 dd 61 be ab 72 0a be
       -0.65418863 -1.0296885 -0.22057062 -0.13520305
000190 a1 34 1f bf df 87 60 3e f8 e5 ae 3d d3 14 56 bf
       -0.6218968 0.2192683 0.08539957 -0.83625525
0001a0 83 52 52 be 37 a7 95 3d d0 87 e7 be fb b6 9c 3c
       -0.20539288 0.07307284 -0.45220804 0.01913022
0001b0 9e c3 bb bf 9b c5 91 be f6 79 15 bf f0 3d 8f 3f
       -1.4669073 -0.28471074 -0.5838922 1.1190777
0001c0 12 22 14 be 51 92 02 3e 3f e3 0e 3e 27 85 8b be
       -0.14466122 0.12751128 0.13953875 -0.27250025
0001d0 d0 19 ad bd af ad 39 bf 6a 98 c8 bd 05 45 80 bf
       -0.08452189 -0.72530645 -0.09794696 -1.0021063
0001e0 b7 12 4f be 8d 77 55 be 63 3a 72 be 8b 86 82 3f
       -0.20221983 -0.20846386 -0.23655085 1.0197309
0001f0 94 9a a5 3e 56 cf 0f 3f a5 29 3d bf af b0 56 bf
       0.32344496 0.56175745 -0.7389167 -0.8386335
000200 b6 6a d5 3c 92 87 3b bf b1 9f 9b 3e 17 5a 64 be
       0.02605186 -0.7325374 0.30395272 -0.22299992
000210 3d 6b fa be 0e 4d f3 3e dd f9 0d bf 14 9f c7 3d
       -0.4890994 0.47519726 -0.55459386 0.097471386
000220 2b 76 a3 3e 3e 33 40 3f 0f 82 8b be f6 d2 6d be
       0.31926093 0.7507819 -0.27247664 -0.23225006
000230 4f c9 10 3f 01 7e 66 bf 75 33 26 bf ef 5b 7b bf
       0.5655717 -0.90036017 -0.6492227 -0.98187155
000240 be df a9 bf c3 02 21 bf 5e 26 69 be b6 ed 62 bd
       -1.3271406 -0.6289484 -0.22768542 -0.05540248
000250 fc 61 82 be ba b6 8d 3e 5b f4 92 be 68 14 60 bf
       -0.2546538 0.27678472 -0.28702053 -0.8753114
000260 cf 73 d0 be 48 c3 38 bf 0b c8 c3 3e cc d3 e1 be
       -0.40713355 -0.72172976 0.38238558 -0.441069
000270 34 a3 d9 be d8 0a d6 3d 6d 6a a7 be 7d f6 cf 3e
       -0.42507327 0.10451287 -0.32698384 0.40617743
000280 72 5c 3a be 32 90 b6 be c5 7f 45 3c b6 d6 1c bf
       -0.18199328 -0.35656887 0.012054388 -0.6126512
000290 1d 25 bc 3e 35 69 88 bd 37 b2 93 3d d2 bc 6f bc
       0.36747065 -0.06660692 0.07211726 -0.014632421
0002a0 a6 94 b5 3d b1 b7 de be 41 97 01 3f d9 d5 24 bf
       0.08866243 -0.4349952 0.5062142 -0.64388806
0002b0 e8 7b a2 be 52 a0 cd 3f 88 b0 08 3d 5f ec 87 be
       -0.31735158 1.6064551 0.03337148 -0.26547524
0002c0 95 7d 38 3f f9 a7 bd bf bc 6f 59 be c7 24 ac 3e
       0.7206662 -1.4816886 -0.2123403 0.3362181
0002d0 29 5f 8e 3e 91 06 1b 3d 42 04 96 bc 65 4b 4e 3f
       0.27806976 0.03784806 -0.018312577 0.8058379
0002e0 d8 06 79 3d 96 70 46 be 57 4f 21 be 74 d5 63 3f
       0.060797542 -0.19378886 -0.15752922 0.8899758
0002f0 c4 a3 36 3e 7a ba 97 3e 44 63 28 bf 39 e0 93 bd
       0.17835909 0.29634458 -0.6577647 -0.072205015
000300 cb a7 a7 3f dc a7 ee 3e f0 f4 0d bf ad da de be
       1.3098081 0.46612442 -0.5545187 -0.4352621
000310 db b5 36 3f 44 2a 65 3d 9f 8a 05 3c 7f ac 5a bc
       0.7137124 0.05594851 0.008150726 -0.01334679

embedding_uncern.bias f4 [10]
000000 b0 ef 74 bd 9e 0f 78 be 1c 39 05 3c b7 d8 04 3d
       -0.059798896 -0.24224707 0.008131292 0.032433238
000010 eb 16 49 bf 08 93 54 bf 14 26 22 bf 54 7c 6a bf
       -0.78550595 -0.8303685 -0.6333935 -0.9159596
000020 2d db cf 3c f8 c8 d7 be
       0.025373066 -0.42145514

fc1.weight f4 [54, 84]
000000 a4 4d 11 3f 74 d5 20 3e bb ef 95 be 3f 61 f3 be
       0.56759095 0.15706426 -0.29284462 -0.4753513
000010 93 3a 9b 3a 8e 3f 5b 3a 10 93 c5 3a 67 5f 8c ba
       0.0011843018 0.00083636574 0.0015073735 -0.0010709584
000020 d3 4e 73 3f 15 dd f9 be f9 de cf 3e 9a db 4a 3e
       0.9504215 -0.48801485 0.40599802 0.19810334
000030 42 1d 1a 3f a7 a1 10 b9 02 87 08 3e 40 ab 13 3b
       0.60200894 -0.0001379313 0.13332751 0.0022532493
000040 95 53 b7 3e d6 51 ed ba 0f 48 43 3e f1 dc 25 3e
       0.35805956 -0.0018106054 0.19070457 0.16197564
000050 c6 b8 4f 39 25 fb 57 ba 66 13 13 bb a7 52 b0 bd
       0.00019809892 -0.00082390226 -0.0022441982 -0.08609515
000060 1b 32 62 3a 6d 5d 89 be 7d 2d 33 bb 84 0b fa ba
       0.0008628682 -0.2682909 -0.0027340346 -0.0019076918
000070 14 f4 6a bf 1b 64 85 3a 88 62 93 be ea 95 47 3a
       -0.91778684 0.0010176928 -0.2878611 0.00076135865
000080 2a ea d2 3a 91 02 ad 3c c2 35 6a ba d1 97 9a 3d
       0.0016091515 0.021119388 -0.0008934402 0.07548488
000090 8b 8b e6 39 df 9f 11 b8 35 22 03 38 6d 61 ff ba
       0.00043972986 -3.4719586e-05 3.126469e-05 -0.0019483991
0000a0 04 39 77 b8 58 52 13 38 d8 0b 16 3d 26 ac be be
       -5.894249e-05 3.512422e-05 0.03663239 -0.37240714
0000b0 35 83 9b 3e 0a 6a 30 38 42 5d e6 bb aa 91 01 3f
       0.3037354 4.2060426e-05 -0.00703016 0.5061289
0000c0 fb 29 08 bf bf 99 98 3e 8b 7d 3b be 96 24 ea be
       -0.5318906 0.298048 -0.1830961 -0.45731038
0000d0 a5 12 af b8 b7 fc 57 be c7 ae cc 3d e5 06 46 bb
       -8.348123e-05 -0.21092497 0.09994274 -0.0030216512
0000e0 ac 41 bb 3e bc fb b0 bd 3e 2f 23 be 14 c5 a5 be
       0.3657354 -0.086417645 -0.1593599 -0.3237692
0000f0 e5 a9 a3 ba 93 b3 9f ba 02 da c4 b9 44 d4 37 3f
       -0.0012486546 -0.0012184255 -0.00037546462 0.71808267
000100 00 79 0b 3f 3c bd 94 3f 46 7b 1e bf 24 5c a7 3f
       0.54481506 1.162025 -0.6190685 1.3074994
000110 bc 9e f2 be 98 7d 5d 3f 5e 1d 6c 3e 9f 2c bd bf
       -0.4738673 0.86519766 0.23058078 -1.4779242
000120 55 35 a3 bf 68 d7 0e bf f0 ff 04 3e b6 8c 08 be
       -1.2750651 -0.55797434 0.12988257 -0.13334927
000130 bc 3f c7 3e 51 14 86 3d eb 10 7e be af ce ec bc
       0.38915813 0.06546844 -0.24811141 -0.028907148
000140 68 73 52 be 51 e1 2a bf d1 a1 d5 be e8 69 08 3e
       -0.20551836 -0.66750056 -0.4172502 0.1332165
000150 1c 31 6c 3e 16 6c b5 be 72 2c da 3e 7a ef 9c bd
       0.23065609 -0.35434026 0.42612034 -0.07662864
000160 70 25 b3 3b 5a 49 36 3c b1 4e 6b 3a cf f6 52 bb
       0.0054671094 0.011125887 0.00089762645 -0.0032190566
000170 f3 70 7a bf 7b 4a ba 3e 1a 7f 68 3d 89 53 26 3f
       -0.97828597 0.3638495 0.05676184 0.64971215
000180 ce 71 b8 3d c1 45 b1 ba 02 08 2e 3e ab eb 81 3b
       0.090060815 -0.0013524817 0.16995242 0.0039648614
000190 81 ee ba 3d b5 76 42 3b c3 3e 98 be 9a 0e bb bd
       0.09127522 0.0029672806 -0.29735383 -0.091336444
0001a0 78 04 e6 bb 2e ec 10 bc cd 95 52 b9 30 d7 11 be
       -0.0070195757 -0.008845372 -0.00020082966 -0.14242244
0001b0 65 18 d7 b9 ba af 51 be b2 b7 3c 3c 2c d1 08 bc
       -0.0004102617 -0.2047719 0.011518406 -0.008350652
0001c0 fe 7d 1c 3f d1 d0 39 3c ac ee c8 be c0 57 28 3c
       0.6112975 0.01134129 -0.39244592 0.0102748275
0001d0 ad 40 54 3c 98 31 57 3e 15 06 0c 3b 2a 8d 7e be
       0.012954873 0.21015012 0.002136593 -0.24858537
0001e0 a0 cc f1 3b d6 c8 4b 3b de b1 82 3b 34 34 4c bb
       0.0073791295 0.003109505 0.0039884886 -0.0031159045
0001f0 c7 81 13 3b 4f 72 a2 38 4a c8 12 3f d0 57 ee 3c
       0.0022507773 7.7460536e-05 0.57336867 0.029094607
000200 68 68 2f 3d 26 da 83 3b c1 a9 8b 3d 62 2c b1 3e
       0.04282418 0.004023808 0.06819487 0.34604174
000210 c8 50 6b be 77 a5 b8 3e 4d f6 cb bf 6d 9c ba 3e
       -0.22980034 0.3606374 -1.593454 0.36447468
000220 19 cf 14 bc 98 f2 09 3f 74 44 12 3d cb 38 66 3a
       -0.009082579 0.53885794 0.035709813 0.00087822665
000230 1d c5 eb 3c d1 d5 29 3f 91 25 21 3f cf 29 e1 be
       0.028780514 0.6634188 0.62947947 -0.4397721
000240 74 59 e5 bb 98 92 2c 39 8b 77 18 3a 88 38 14 3e
       -0.006999189 0.00016457809 0.0005816153 0.1447469
000250 f0 4b b9 3d c9 3a 40 3d 6a 92 ce bd 32 9f fc be
       0.09047687 0.046931062 -0.1008652 -0.49340206
000260 fe 39 3f 3d 2f 16 fc 3d 96 cc c7 be fa 52 9c 3e
       0.046686165 0.12308919 -0.39023274 0.30532056
000270 0e d0 c5 3b 87 21 64 3e da 42 a0 bf e9 81 6f c0
       0.006036765 0.22278415 -1.2520401 -3.742304
000280 46 5f ed be f6 40 dd bf c5 74 23 bf c6 75 ec 3f
       -0.4636175 -1.728545 -0.6385005 1.8473442
000290 eb a7 02 3e 93 b1 64 3f 72 a7 92 3e c2 a9 ca be
       0.12759368 0.89333457 0.28643376 -0.3958264
0002a0 55 a9 8d 3e 60 b4 78 be 7e 1f 43 3e 92 66 81 bd
       0.27668253 -0.24287558 0.19054982 -0.06318392
0002b0 98 82 0b bb 85 46 36 3b 1b 36 fc 3b bd e7 f6 bb
       -0.0021287557 0.002781303 0.0076968796 -0.0075349496
0002c0 dd 29 2a bf ed b1 74 be cb 57 5c bf fc 45 3e be
       -0.6647013 -0.23895998 -0.8607146 -0.18581384
0002d0 2a c0 26 3f 77 c3 4a ba d7 13 e8 bd 93 3c 90 39
       0.6513697 -0.0007734815 -0.11331909 0.00027510952
0002e0 4b a5 b5 3e 57 68 81 bb 55 2e e9 be 54 65 ae bc
       0.3547767 -0.003949206 -0.4554316 -0.021288551
0002f0 ae 2a 03 bc 81 6e 88 b9 b8 a8 56 bc 70 37 02 3e
       -0.008005781 -0.00026022273 -0.013101749 0.1271646
000300 9a 3e dc 3a 10 e6 66 3e 8f 21 60 bb ef 8e 79 3b
       0.0016803325 0.225487 -0.003419969 0.003807958
000310 e0 bd 0c 3f 83 5a 5d 3b 2f 47 2c bf 99 32 a5 ba
       0.54977226 0.0033775873 -0.6729612 -0.001260358
000320 b9 4a 03 bb 2e 45 e0 3e d5 a2 de 3b 29 55 fe bb
       -0.0020033552 0.4380278 0.0067943134 -0.0077616167
000330 d2 4a 6e 3b ff 1f ed 3b a4 1e 16 3b 72 dc e7 ba
       0.0036360514 0.0072364802 0.0022906447 -0.0017689599
000340 71 23 03 3c 9d b1 06 3a 1b fe 19 3f 22 28 a0 3e
       0.008004055 0.0005138161 0.6015336 0.3128062
000350 5e d1 ff be 0f 62 ea b8 e6 a2 20 3d cf 4b 76 3e
       -0.49964422 -0.00011176254 0.039217852 0.24052356
000360 a4 da aa bd 52 10 5a 3d 54 6c 7b be 96 f9 17 3e
       -0.08342484 0.05323822 -0.24553043 0.14841303
000370 50 23 29 ba 9a 36 2b bf cb 79 a6 be 64 9d 06 bc
       -0.00064521004 -0.6688019 -0.32514796 -0.008216236
000380 92 6d 43 3c 14 f1 9a bf 12 bc 18 bf 70 9a 70 3e
       0.011927979 -1.2104821 -0.5966197 0.23496413
000390 30 98 18 bc de dc 6e 3b a6 15 9f bb 12 c6 26 3e
       -0.009313628 0.0036447565 -0.0048548756 0.16286495
0003a0 0c d1 c7 bc 2e e6 1b be 1e 93 d2 3d f4 74 b4 be
       -0.024391674 -0.15224525 0.102819666 -0.35245478
0003b0 80 0d 69 3e 74 fc 08 3e b1 d2 94 be be 4c 81 3e
       0.22759056 0.13377553 -0.29066995 0.25253862
0003c0 d4 6f 42 be 83 54 81 bc dd 54 83 bf dc 86 b3 3e
       -0.18987972 -0.015787369 -1.0260273 0.35063827
0003d0 93 63 16 bf 27 34 b0 be 6d f9 bc 3f dd 80 b0 3e
       -0.5874569 -0.3441479 1.4763619 0.34473315
0003e0 8f ec 19 40 33 14 4b bf 70 09 f3 3f 96 aa cc bf
       2.4050634 -0.79327697 1.8987255 -1.5989559
0003f0 4d 3f 08 be 4b 27 9d bf 8d fd c1 bb 18 72 eb 3e
       -0.13305397 -1.2277616 -0.005920118 0.45985484

fc1.bias f4 [54]
000000 d4 f2 8a 3f fa b3 36 bf c6 ad 24 be d4 2a 36 bf
       1.0855355 -0.7136837 -0.16081914 -0.711591
000010 9c e5 1a be 54 d8 16 bf 02 83 9b bf 30 90 9a bf
       -0.15126652 -0.5892384 -1.2149355 -1.2075253
000020 38 0c fc be 88 df 41 3e 74 b0 8e bf 3e e6 59 be
       -0.49228072 0.18932927 -1.1147599 -0.21279237
000030 b7 61 64 bf b5 65 2a 3f 56 47 19 bf d3 3e 0e bf
       -0.892116 0.6656144 -0.59874475 -0.5556461
000040 2a 48 c0 bf 1d 30 06 3d 55 36 57 3e 46 93 76 bf
       -1.5022023 0.03276073 0.2101682 -0.9631847
000050 37 f8 7d 3e c2 55 b2 3f c2 5a 5f be 13 71 29 be
       0.24801718 1.3932421 -0.21811965 -0.1654704
000060 ef 41 8d 3f 7e e5 7b bf 02 d6 f2 bd 8f a1 6a be
       1.1035746 -0.9839705 -0.11857225 -0.22913192
000070 43 15 1a bf 99 81 8b bf c1 f6 a9 3f 5e 56 12 bf
       -0.6018869 -1.0898925 1.3278428 -0.57163036
000080 49 c5 48 bf 75 a1 ac 3f b8 59 48 be 81 aa 3e bf
       -0.78426033 1.3486773 -0.19565475 -0.7447892
000090 2b c3 39 be 30 47 52 3e 43 ce d4 3e 2f 72 8c bf
       -0.18140857 0.20534968 0.41563615 -1.0972346
0000a0 f6 af 06 bf ed f0 5d 3f b3 79 1d 3f 46 8b 2a bd
       -0.52612245 0.8669575 0.61513823 -0.041636728
0000b0 a4 85 44 be d2 68 25 bf f4 f4 8b be e6 11 30 3e
       -0.19191605 -0.6461307 -0.27335322 0.17194328
0000c0 01 4b d4 bd 46 c3 c8 3f 33 1e ad bf e5 d5 14 bf
       -0.10365868 1.5684593 -1.3524841 -0.5813888
0000d0 c8 f0 3c bd 8e ec 5d bf
       -0.046128064 -0.8668908

fc2.weight f4 [32, 54]
000000 07 c6 a9 bd 87 2a d0 bc 4e fd 6b 3e 94 88 a0 3d
       -0.08289724 -0.025410904 0.23045847 0.0783855
000010 20 74 f8 ba 36 0a af be a7 a0 fb 3e e4 97 5e 3f
       -0.0018955506 -0.34187478 0.49146006 0.86950517
000020 66 81 e2 3e d9 1c 96 be fb 94 26 3f 4b 84 e8 bc
       0.44239348 -0.29318884 0.65071076 -0.028383395
000030 cc 5a 0b 3f e7 24 86 3e 18 b4 25 3e 92 7d 10 3e
       0.5443542 0.2620003 0.16181982 0.14110401
000040 da 24 8e bf 33 0e 67 be 35 02 e9 be 6b ed 5b bd
       -1.1104996 -0.2256401 -0.45509496 -0.053693216
000050 c0 21 5e 3e 6b 24 5c 3e ab 9f 1b 3e f3 d9 0f be
       0.21692562 0.21498267 0.15197627 -0.14047985
000060 e3 2c da 3c 63 05 78 3e e8 db 0d be 4e 2a a0 3e
       0.026632732 0.24220805 -0.13853419 0.31282276
000070 1f 15 eb be e2 d4 89 3f ef ee d5 3e e1 a8 3e 3e
       -0.45914552 1.0768092 0.41783854 0.1861911
000080 95 85 ce bd 95 00 30 bc c6 4d 05 3e 2b bb 08 3f
       -0.100840725 -0.010742326 0.1301795 0.53410596
000090 69 99 bd bf aa df c8 ba f1 83 b6 bd 4d a2 f1 3d
       -1.4812442 -0.0015325446 -0.089118846 0.117985345
0000a0 4b 9c cf 3f d2 b3 57 be 92 d1 06 be c7 6a 43 3e
       1.6219572 -0.2106469 -0.13165882 0.19083701
0000b0 70 9d 91 be 41 dc 15 bf 8d 24 10 bf 23 1b 88 3d
       -0.28440428 -0.58539206 -0.5630577 0.06645801
0000c0 f4 ba d9 3c 41 65 02 bd ac a9 19 3f 53 da 55 bf
       0.026578404 -0.031834844 0.60024524 -0.8353626
0000d0 46 cf 88 3c 96 cc 5b bf 5a b0 4c be 41 38 e5 3d
       0.016700398 -0.8585905 -0.19989148 0.1119237
0000e0 74 db e6 3e 7e 0f 7d bf fa 87 0e 3e 00 ce 3d 3f
       0.45089304 -0.98851764 0.13919058 0.74142456
0000f0 48 9b bb 3e 88 92 d3 bf 32 80 46 3f 77 dd bf 3e
       0.36641908 -1.6529093 0.7753936 0.37473652
000100 22 97 a6 bf 6b 84 ad bd 6a 59 63 3e d6 1a e4 3d
       -1.3014872 -0.08472522 0.22202078 0.11137931
000110 25 d8 4e 3f 3e ef 14 be 8e 8f 59 bf 29 bf db 3d
       0.8079856 -0.14544389 -0.8498467 0.1072982
000120 77 ef 4e 3d d6 fa 0f bf 36 ac 67 bf c6 c4 64 bf
       0.05052134 -0.5624212 -0.9049715 -0.8936275
000130 0e f0 f0 be d2 49 ce 3d 36 04 28 bf 74 7e 37 3f
       -0.47058147 0.10072674 -0.65631425 0.7167733
000140 89 21 9c bf 07 89 91 3e f2 df bc 3e 06 0e 39 3f
       -1.2197734 0.28424856 0.36889607 0.72287023
000150 7b f6 0e 3d 56 7d 01 3e e7 84 9d bf d4 71 53 bf
       0.03490303 0.12645468 -1.2306184 -0.8259556
000160 04 8a 4d 3d 15 e1 2f bf 77 af 8e be bd 87 08 3f
       0.05018045 -0.6870282 -0.27868244 0.5333212
000170 e8 da 79 3d ce 47 95 bf be 6f 8a bf 12 91 e9 3e
       0.06099978 -1.1662538 -1.0815351 0.45618492
000180 0b 7c 43 c0 a6 52 a8 3d 64 ff 02 be 46 37 58 be
       -3.054446 0.08218889 -0.12792736 -0.21114835
000190 32 b8 29 3f e9 f9 b8 3e 17 34 0a be f5 f4 d9 be
       0.66296685 0.36128166 -0.13496433 -0.425697
0001a0 95 c9 63 bf 76 af d0 3f 77 a3 97 bd 83 52 89 bd
       -0.88979465 1.6303546 -0.07404225 -0.06705191
0001b0 18 54 ba 3e b3 64 56 be 2f b8 0d bf 67 db 88 bf
       0.36392283 -0.20936851 -0.55359167 -1.0691956
0001c0 d4 62 08 bf 35 7c 3b bd 7a 04 3c be 40 84 fc be
       -0.532758 -0.04577275 -0.18361083 -0.4931965
0001d0 99 f7 4e be 74 38 5f bc 8c 0d 9c be 43 7c f9 bc
       -0.20211639 -0.013624299 -0.30479085 -0.03045476
0001e0 75 f8 07 bf d2 af 17 3e a9 90 a1 3e 89 c6 68 bf
       -0.5311349 0.14813164 0.3155568 -0.9092794
0001f0 96 93 b8 bf 38 73 78 3e fb 29 47 3e fd 86 fd bb
       -1.442004 0.24262702 0.19449608 -0.007737039
000200 30 eb 18 3f cb d0 82 be 88 7e 83 bf 57 f0 22 be
       0.5973387 -0.2554992 -1.0272989 -0.15911995
000210 a7 c4 bf 3e e1 6c be bc f4 50 65 3e 97 64 21 be
       0.3745472 -0.023245277 0.22394162 -0.15761028
000220 d8 10 ad 3e 1a ad c3 be 63 f4 5b 3e 4d 28 e2 be
       0.33801913 -0.38218004 0.21479945 -0.44171372
000230 a6 6d ab be c2 40 59 bd 34 5c ed 3d 89 81 fa be
       -0.33482093 -0.053040273 0.11589852 -0.48926952
000240 f5 c5 03 bf ad 05 a6 3f 84 92 6c bf 51 ad 7a 3e
       -0.51473933 1.2970482 -0.92411065 0.24480177
000250 dd ce 13 3e 3e 70 16 3e 56 48 8f 3e 4b ed e3 bd
       0.14434381 0.14691254 0.27984875 -0.111292444
000260 79 3d be bd dd d8 60 be 44 8f 65 3f e1 ce 3f 3e
       -0.09289069 -0.21957727 0.8967173 0.18731262
000270 98 c6 90 3d a6 9e 0f 3e 7e 12 0d bf b0 c6 c9 3e
       0.07069129 0.14025363 -0.5510634 0.394094
000280 ee c8 0d 3d 04 b0 5f bd 2a cf 20 3f df 64 68 be
       0.03461545 -0.05461122 0.6281611 -0.2269473
000290 d2 7d f5 be f6 e8 9d be c7 90 dd 3e 5f 49 f9 3e
       -0.47947556 -0.30841798 0.4327452 0.4868879
0002a0 75 d2 c2 be 96 0d 72 3e ee 4d 0c 3f b8 dc 11 3f
       -0.3805119 0.23637995 0.5480641 0.56977415
0002b0 bd 9b 24 bf f4 88 76 bd 44 4c 47 be df 5e b7 3e
       -0.6430014 -0.060189202 -0.19462687 0.35814568
0002c0 aa 49 87 be 1d 6c 84 be 52 ab 14 bf 78 9c 91 be
       -0.2642339 -0.25863734 -0.58073914 -0.2843969
0002d0 a7 66 50 bd b0 fe 9c be 68 ef 98 be db bd c6 3e
       -0.050879147 -0.3066306 -0.29870152 0.38816723
0002e0 5c f9 09 bf 5a bc 9f 3d 93 de d5 3e 8a c3 f4 be
       -0.5389612 0.07799597 0.41771373 -0.47805434
0002f0 00 33 62 bf db 35 79 3e 61 a9 1b 3f bf f4 94 3f
       -0.8835907 0.2433695 0.60805327 1.163719
000300 da d0 90 be 73 2d eb 3e 4c 23 19 be 35 7b 19 3e
       -0.2828434 0.45933113 -0.14954871 0.14988406
000310 2f 11 d3 3d 7d fd d9 3e fb 1c 4c 3f 7c 67 25 3f
       0.10306012 0.4257621 0.7973172 0.6461103
000320 9c 5a 81 3e d4 e3 8c 3e 36 c6 65 3f 3a b1 96 be
       0.25264442 0.2751757 0.8975557 -0.29432088
000330 57 f3 52 3e 72 14 1e 3e 91 58 58 3d d6 27 53 3f
       0.2060064 0.15437487 0.05281884 0.8248266
000340 d4 b1 eb be ff 1f 9e 3e 32 c4 16 3c 77 fe d9 3b
       -0.4603411 0.30883786 0.00920205 0.006652649
000350 22 23 15 c0 2f 6e c4 3f d1 49 8d 3d 90 80 e2 3e
       -2.3302693 1.5346125 0.06898845 0.4423871
000360 f0 d5 ce bd bb 1f e8 3c 44 3f 6c bb b4 1f 94 bd
       -0.10099399 0.028335443 -0.0036048451 -0.072326094
000370 a2 c4 01 be 3a 5d d4 bd 6e 4d eb bd c9 b4 6e bc
       -0.12672666 -0.10369344 -0.11489378 -0.01456947
000380 30 a4 5d 3c 8c f1 6b bd c1 be 1a 3c 98 44 b9 3d
       0.013527915 -0.057603404 0.009444893 0.09046286
000390 70 cc bd 3c 9b 84 a9 bd 41 f8 de bd 4b 42 d8 bd
       0.023168772 -0.082772456 -0.108871944 -0.105595194
0003a0 8f 48 08 bd 3a fb 97 bc 73 46 2d 3c 4e 0a 29 bd
       -0.033272322 -0.018552411 0.010575878 -0.041269593
0003b0 09 2b df 3c 96 b6 a8 3d 6e 5c 29 bd 07 20 3e bd
       0.0272422 0.082379505 -0.041347913 -0.046417262
0003c0 1a 78 ac bd 07 23 84 bd 4e 5b 1a 3c 27 9a e8 3d
       -0.08421345 -0.064519934 0.009421183 0.11357527
0003d0 b3 cb ce bd 50 cc da 3d 83 21 05 be f8 fe d0 3c
       -0.10097446 0.10683501 -0.13001065 0.025512204
0003e0 39 2c a1 3d 0f de da bd c1 51 60 3d f0 2f c8 3d
       0.07869763 -0.106868856 0.054765467 0.09774768
0003f0 40 d3 80 bc 56 40 06 bd f2 b2 8a bd f2 b5 69 3d
       -0.015725732 -0.0327762 -0.06772412 0.057058282

fc2.bias f4 [32]
000000 a9 c6 37 c0 98 84 bb bf 69 8f 5e c0 45 84 83 c0
       -2.8715003 -1.4649839 -3.477503 -4.109896
000010 cd 7e 82 bd 00 e3 e4 3f 02 47 dc be ac b2 f6 3c
       -0.063718416 1.7881775 -0.43022925 0.030114494
000020 8d 1b f8 bf 9a df 92 bf ba a0 15 be 12 d8 24 3f
       -1.9383408 -1.1474488 -0.14612094 0.643922
000030 c7 59 a9 3f ba 40 2b be 47 94 33 be 0a 03 08 bf
       1.3230523 -0.1672391 -0.17537032 -0.5312964
000040 6a 58 a0 3d 2d b6 77 40 d4 de 6b bd e8 3b 2f 3f
       0.07829364 3.8704941 -0.057585552 0.68450785
000050 29 26 67 c0 4a 3a 66 3e fe 6d 6b 3f 54 52 87 bd
       -3.611704 0.22483173 0.9196471 -0.066075
000060 1c 08 ff 3f a6 f8 52 40 df 81 80 be 89 55 71 3f
       1.992435 3.2964263 -0.25099084 0.9427114
000070 0d c6 8c bd 80 14 c5 3e 7e 00 c9 be 6e d6 ab bf
       -0.06873713 0.38492203 -0.39258188 -1.3424814

fc3.weight f4 [8, 32]
000000 a1 94 ea bc d8 e6 bb bd 8f f0 ad bd 49 cc 1b bd
       -0.028635325 -0.09174889 -0.084931485 -0.03803662
000010 a1 b4 87 bd f9 7c 9c 3d 6b 30 ba bd 85 1c b5 bd
       -0.06626249 0.07641024 -0.09091266 -0.0884333
000020 92 9c d4 bd 3d cc b3 bd 97 a8 96 bd 95 0b cf 3d
       -0.10381426 -0.0877919 -0.07356375 0.10109631
000030 d7 af de 3d 91 c5 c7 3c 63 2f 0a 3e 6a dc e8 bd
       0.108733825 0.0243862 0.13494639 -0.11370166
000040 8b 89 31 3d 12 95 01 3e f9 db 26 bd 8b f1 db bd
       0.04334406 0.12654522 -0.040737126 -0.1073943
000050 ce 90 b8 bd 32 f5 a7 bd 1f 2b 3e 3d d7 3b 0c be
       -0.09011994 -0.08201064 0.046427842 -0.13694702
000060 ac 25 b6 3d c2 68 fd 3d 84 ca 6c 3c 96 e0 33 3e
       0.08893904 0.123734966 0.01445258 0.17566141
000070 e1 d5 98 3e d8 04 a5 3c 05 58 0a bd f6 7a b4 3d
       0.29850677 0.020143911 -0.03377535 0.088125154
000080 52 95 ae 3d aa 04 1b 3e b1 13 81 bd a6 9b 83 be
       0.08524574 0.15138498 -0.06302584 -0.25704688
000090 a3 07 18 be 94 3f 97 be e4 00 8f be b6 9f e3 3d
       -0.14846663 -0.29540694 -0.27930367 0.11114447
0000a0 85 92 98 be 17 3e 43 bd 4a 32 b8 3d b0 6f 6a 3d
       -0.29799286 -0.047666635 0.08993967 0.05723542
0000b0 8e d8 46 3e 8b 6f af 3d 99 6c e3 3b 8a ab e0 3c
       0.19418547 0.08566197 0.006940436 0.027425546
0000c0 cb c2 a1 3d af 1d 1b bd 18 20 97 3d 4f a9 86 bc
       0.07898482 -0.037870105 0.07379168 -0.016438155
0000d0 2c 93 92 bf ac 53 cb 3d ff 18 09 bd 11 06 00 3e
       -1.1451163 0.099280685 -0.033471104 0.12502314
0000e0 14 9a d6 bc e3 3b 92 3d 06 4e f7 3d ee 45 a3 bd
       -0.026196517 0.07140329 0.12075429 -0.079723224
0000f0 93 e1 f8 bc f3 a1 71 be db bd bd bc 6c 1d 28 3b
       -0.030381 -0.23596935 -0.02316182 0.0025652302
000100 76 a1 3a 3d 99 2a f7 3c 8d b9 a7 be ee 70 0e bf
       0.045564137 0.03017168 -0.32758752 -0.5564107
000110 5a c7 f0 3d 93 ce b1 bd 47 b4 06 3e 58 98 08 3e
       0.11756773 -0.08681979 0.13154708 0.13339365
000120 27 b4 44 bc 91 0d d1 bd 97 5b 15 be 1b ce 51 be
       -0.012005842 -0.10207666 -0.1458572 -0.20488779
000130 ec a0 16 be 83 ff 1d bd 51 39 6f 3e 56 22 e9 bd
       -0.14709824 -0.038573753 0.23361708 -0.11383502
000140 81 42 54 3d 98 08 ae bd 3a 55 06 3d 91 ab f6 bd
       0.051821236 -0.08497733 0.032796122 -0.120444424
000150 28 e0 89 bd 99 49 15 bf 45 8d 06 be 0b 74 01 be
       -0.067322075 -0.58315426 -0.13139828 -0.12641923
000160 88 66 7a 3e d6 29 b4 be 11 6f 9f bd a4 a5 59 3c
       0.24453175 -0.35188168 -0.07784856 0.013284121
000170 a2 a6 d5 3d b8 eb a1 be d2 b2 83 be 8b 85 67 bc
       0.10432173 -0.31625152 -0.25722367 -0.01413096
000180 21 91 15 be c0 a5 f5 3b b3 d1 92 bf 39 4f 98 bd
       -0.14606144 0.0074965656 -1.1470245 -0.074369855
000190 f3 e3 1c 3e 97 15 a2 be 7d 9d f5 3c bd fe 52 3c
       0.1532133 -0.31657097 0.029982323 0.012878117
0001a0 ae 88 3f 3e ea 1c da bd ff 1a 19 be fe 0f 79 bd
       0.18704483 -0.10650046 -0.14951704 -0.060806267
0001b0 79 80 65 3d 51 1e 48 be 91 15 22 3e 13 08 12 3d
       0.056030724 -0.19542815 0.1582854 0.03565223
0001c0 c0 23 84 bd f3 8f 17 bd 2f ae e4 3c 20 2f c7 3d
       -0.06452131 -0.037002515 0.027915088 0.09725785
0001d0 57 22 34 bf 58 6e 51 3e d4 c0 c6 bd 5c 49 c0 bd
       -0.703649 0.20452249 -0.09704748 -0.09388992
0001e0 02 16 3d 3c db ee 72 3e a4 41 04 be 9b bf 9e bc
       0.011540892 0.23723929 -0.12915665 -0.019378474
0001f0 51 1c 1e bd 9e 92 0a c0 30 b6 02 be 02 96 0c be
       -0.038601223 -2.1651988 -0.12764812 -0.13729098
000200 2d 7d 99 be ff 57 a3 bf 4b 6e 00 c0 2c 81 db bd
       -0.29978314 -1.2761229 -2.0067317 -0.10717997
000210 0b d1 0a be 6a a5 b5 bd 71 1c 7d bc c7 c4 5b 3c
       -0.13556306 -0.08869441 -0.0154486755 0.013413615
000220 e4 e3 07 be 7b 57 51 be 72 9e a6 3d 18 f8 8d be
       -0.13270527 -0.20443527 0.0813569 -0.27728343
000230 05 fa 81 be ed aa 71 3e 5e 62 f5 bb b0 79 7a be
       -0.25386062 0.2360036 -0.007488533 -0.24460483
000240 ea 25 ed bd ea 66 83 3e b4 b7 de 3d c7 d3 54 bd
       -0.11579497 0.25664455 0.10874882 -0.05195978
000250 9e 67 4a bf 5b fb 94 be e2 f7 8f be 4e c2 0f be
       -0.7906436 -0.2909802 -0.28118807 -0.14038965
000260 db 09 b8 3e 2e f7 9b 3e 48 33 c7 3e 09 38 8a be
       0.3594502 0.3046202 0.38906312 -0.26995876
000270 56 7e f8 bd 72 cb 08 bf c8 81 98 be c7 f7 af be
       -0.12133472 -0.5343543 -0.29786515 -0.34368727
000280 fe 83 8e be 71 08 56 be 56 db e9 3d d5 87 96 be
       -0.27835077 -0.20901658 0.11418788 -0.29400507
000290 a1 cd 05 3e 11 0a 93 bd c5 4d ee bc c0 8b 27 3d
       0.13066722 -0.071796544 -0.029089818 0.04090476
0002a0 b1 0b 25 bf 5c 90 a7 be 49 b6 be 3d 73 ad a7 3b
       -0.64470965 -0.32727325 0.09312112 0.0051171123
0002b0 bc 6b 10 bf 1d 5b ee bd 5b c6 06 3e f5 50 d8 be
       -0.5641439 -0.11638472 0.13161604 -0.42249265
0002c0 07 7f 7e bb 85 72 2c be a7 5b 75 bd b7 c4 eb bc
       -0.0038833038 -0.1684056 -0.05990186 -0.028780324
0002d0 7e 63 14 3e dc 38 eb 3d 17 1a fe bd 9c c2 b7 3d
       0.14491078 0.114854544 -0.1240732 0.08972666
0002e0 1b a0 a1 3e 28 a3 28 3c d5 80 38 bd 71 2f 7f be
       0.31567463 0.010292806 -0.04504474 -0.24920441
0002f0 cd 0a 02 be a9 fa ee 3d 7b 73 5d bd 84 9c 2e 3d
       -0.12699433 0.116689034 -0.05406521 0.042629734
000300 61 e4 53 bf 16 09 00 bf 83 8d 86 bf 06 88 7e be
       -0.82770354 -0.50013864 -1.0511936 -0.24856576
000310 0d 55 1a 3e 45 cc 9c bf 98 19 33 bf 49 69 8e bd
       0.15071507 -1.2249838 -0.6996093 -0.06953675
000320 4b cb ae 3e ad 8d 9e be 91 ec 0b 3e 81 48 64 bd
       0.34139475 -0.30967465 0.13664462 -0.055733208
000330 ac 24 45 3e 7b fb d2 be 22 25 d1 be 02 c6 09 bf
       0.1925227 -0.4120749 -0.40848643 -0.5381776
000340 6b 9a d3 ba 7f 08 e7 bd 77 a0 78 bd b9 d6 50 3e
       -0.0016144043 -0.112809174 -0.060699906 0.2039441
000350 90 cd ed 3e 8a bd b8 be 3e c6 e6 3a ea 71 4e bd
       0.46445894 -0.36082107 0.0017606688 -0.050401606
000360 29 b7 35 3e e8 3d 2e 3d f0 64 13 3f 52 66 29 be
       0.17745651 0.042539507 0.57575893 -0.16542938
000370 47 b3 10 be e7 c6 3d 3d 5b c4 1a 3e d1 c2 97 3e
       -0.14130889 0.046332266 0.15113966 0.2964082
000380 57 3b 84 bf 3b 8b 91 be da 74 2a bf 0b f2 ba be
       -1.0330609 -0.28426537 -0.6658455 -0.3651279
000390 db c8 cb bd 0e a3 6f 3d 95 f1 b9 bd ee 84 4d bd
       -0.099504195 0.05850511 -0.09079281 -0.0501756
0003a0 7d 37 b5 bc 2b 3a cc be 6d bd c2 3d ae 69 19 be
       -0.022121185 -0.3988813 0.09508786 -0.1498172
0003b0 7f ba 14 be 8e 8a 01 be 0e 3f 6f 3d 59 d0 5d 3d
       -0.14524268 -0.1265051 0.058409743 0.054153774
0003c0 ae 53 96 3d 6a 97 0f 3d c0 9e 14 bd 14 66 6d bc
       0.073401794 0.03505651 -0.03628421 -0.014489669
0003d0 f4 8f cb bd e5 bb 43 be 90 0b 2f be 6a d6 02 bb
       -0.09939566 -0.19114645 -0.17094254 -0.0019964227
0003e0 f2 98 19 ba 68 e2 bc bc 8c 86 c1 3d 2b 3a 1d 3d
       -0.00058592774 -0.023057178 0.09449491 0.03838555
0003f0 ee d2 b3 bd 98 88 a4 ba 39 62 50 be 52 c5 69 bd
       -0.08780466 -0.0012552915 -0.20349969 -0.057072945

fc3.bias f4 [8]
000000 f8 48 09 3f 03 41 9f 3d 0e cd 90 be c6 bf 0c 3f
       0.53626966 0.07776072 -0.28281444 0.54980123
000010 3c 42 7e 3f 24 3e 04 bf 96 2b 83 3f 48 bf c0 3e
       0.99319816 -0.5165732 1.0247676 0.37645936

fc4.weight f4 [1, 8]
000000 12 90 33 3d a4 80 f8 bc 9f 1e bf bb 84 01 56 bd
       0.043838568 -0.030334778 -0.0058325077 -0.05224754
000010 5b b4 96 bc c7 88 d6 3c 4d 00 56 3c f6 49 b6 bc
       -0.018396547 0.026188267 0.013061595 -0.022252064
