2ARO_Knapsack/post train NN data/20 instance 50 scenarios improved/model_weights_20_instance_50_scen.pth (torch, 575900 bytes, 17 tensors)

embedding_instance.weight f4 [228, 102]
00000000: 5d47 5d3f 6336 a83e f8dd 91be ab50 013f
00000010: da9c 0bbf f67a 1fbe fe94 9ebe 5d7c a63d
00000020: c338 063f 3ff7 02bf 3de8 51bf 05a4 a5bf
00000030: 158a 8fbe 74fb 963e ac0a b0be f63a 23bf
00000040: 27f6 fe3d 89df d5be 78c0 fbbe a6b8 cdbe
00000050: f8fc d93e 024f 6e3e 3dcc 01bf adf5 2e3f
00000060: 1ca9 40bf 8ec7 1f3e c8ae c6be 1f5e a93d
00000070: eaf8 2b3f 7477 48bf 1971 05bf 7656 97bf
00000080: e90f 81bd 2022 7c3d bf1a 62be 40da 05bf
00000090: ee49 ecbd 068a 2cbd 9b31 1abf 001a 03bf
000000a0: 2883 26bf 36c8 aa3e f528 bb3f f30d 053f
000000b0: 1751 3e3e d21e 60be 74d5 8abe 48e2 2f3f
000000c0: 8c5d 813f 702e 37c0 abf3 613f 0420 013f
000000d0: 8000 c5be d085 8c3f 5a39 993f f28f 923f
000000e0: cbc4 cabe 4cef b23e 393c 1bbe dd62 d53f
000000f0: 66e1 843e 7966 cb3c cd09 843e a938 503f
00000100: 5ac0 29bf a514 9dbf 7d94 febe 775b 90bd
00000110: f600 2a3f c2f0 a8bf 4fbe 1d3f eadb 92bf
00000120: cfc5 2a3f a765 dfbe 0f8e 5abf 8bdf 2c3f
00000130: 9249 14be 4b2d 51bc ec12 503e a4e6 e43e
00000140: 6d7a 0f3f eba9 b3bf b0b3 0dbf ee07 02bf
00000150: 97b2 843f 01d9 b8bf 8954 41bf 23ba 443f
00000160: bf50 e83e 2a9b 763f f554 18bf bac3 a7bd
00000170: da1c d33e 85dd 80be 9a6b 303f ca27 a7be
00000180: 0ee5 933e 7d47 8dbd f5e9 e1bd 0938 683e
00000190: 2683 983f d92e 3f3f f0cb cabe 7b9b ad3e
000001a0: 916e a2bd b299 6b3d 3db1 2dbf 28af b4be
000001b0: 44b9 053f 615d e6be c6a7 78bc 9e8d b3be
000001c0: 111e 3fbf 7efc ab3d 6d76 233f 0685 7abf
000001d0: 3520 423e 72e1 073e e45f 41bc 6bd1 22bf
000001e0: 59b1 093f 02e4 843e 74b3 0abf ecb5 443e
000001f0: 8253 db3e aff5 38be d5e2 1ebe 2c58 efbc
00000200: 87c5 3e3e 98e1 183e 2c63 603e 0b1a 87be
00000210: c0c6 3f3d 6287 673e 9b76 563d a577 bdbe
00000220: 543a 223d 28fa 23be 49a8 823e 1e49 40bf
00000230: c283 89bc 2f69 023f d302 d33c 031c c23f
00000240: f828 e13e 136f 64bf 289f 0c40 eb46 913f
00000250: 520b 923f dad9 853f 97d8 2e3f 4ee9 02bf
00000260: 9b39 5ebf 5d0f 84be 1529 283f 5073 66bf
00000270: c6bf d8be 6521 f13e 97cb 673f 971b a23f
00000280: be7b afbe 0397 a53f 0830 cfbd ed75 433e
00000290: 4295 1ebe 4a15 693d 36fd 943e 5dbe a03f
000002a0: a523 09be 726a bc3e 3a75 31bf f855 a83e
000002b0: f2c7 07be 4b29 e63e 0957 d6be 56c8 993f
000002c0: 4d6e 5bbf d0fd f0bf 3e98 0f3c 7a4c 2c3e
000002d0: 3647 2fbd f955 103f 0be7 40be 14d9 6fbe
000002e0: eb65 053f a22c 8abe f9af 23be acc6 903e
000002f0: 1f51 81be 2361 b4be ccec 963c 6bc7 07bf
00000300: 5b60 f93e 632d ad3f 3604 d53d 1e90 0ebf
00000310: 99da d7be 8a57 1bbf 862a b4bf 07c1 5bbd
00000320: 2bfc edbf 76cb 4a3f 5ff3 253e 0327 e9bc
00000330: b772 863d 6b31 71bd 629d bb3d f565 fabd
00000340: a965 ebbb f5ff ab3d 9e2b 8abd 53b1 0cbc
00000350: 6b1d e6bd 4e7d b03c b797 a3bc 1f94 c93c
00000360: 248e b83d e7ba 39bd 33a6 703c a9b2 aebc
00000370: 8132 fb3b 73f8 3dbd f3f4 64bb f05e d43c
00000380: 1bad a4bd 1338 b13d de9e 6abd 6264 d33d
00000390: 1a41 863c 0290 a1bc ef88 3d3d 85b4 7bbd
000003a0: 8e0e e53d efa5 11bd bdd1 d33b 428d 2f3d
000003b0: 2d5d a4bd 3aee 863d e226 2d3d 54f3 72bb
000003c0: 06a2 313c 80e0 20bd 9d54 42bc 1358 54bd
000003d0: 65ac 46bb 946f acbc 1037 bbbc 3ea9 95bc
000003e0: f878 1ebc b907 dcbc a115 c83c d4b1 803c
000003f0: 4e51 933b afdb 193c 6269 b73c b92b 2cbd
0.86437017 0.32853994 -0.2848966 0.50513715 -0.5453621 -0.1557425 -0.30973047 0.08129189
0.5243036 -0.5115852 -0.8199499 -1.294068 -0.28035036 0.29488719 -0.34383142 -0.6376184
0.124492936 -0.41772106 -0.4917028 -0.40179938 0.42575812 0.23272327 -0.5070227 0.6834362
-0.7525804 0.15603468 -0.38805223 0.08269905 0.6717669 -0.7830727 -0.521257 -1.1823261
-0.06301863 0.06155598 -0.22080515 -0.5228615 -0.115375385 -0.042123817 -0.6023194 -0.5121155
-0.6504388 0.33355874 1.4621874 0.5197441 0.18585621 -0.21886757 -0.27115977 0.6870465
1.0106673 -2.8622093 0.8826243 0.50439477 -0.38476944 1.0978336 1.1970627 1.1450179
-0.39603266 0.34948194 -0.15159692 1.6670796 0.25953215 0.024829136 0.25788727 0.81336457
-0.6630913 -1.2271925 -0.49722663 -0.070486955 0.66407716 -1.3198473 0.6161851 -1.1473362
0.6670808 -0.43632242 -0.85373014 0.675286 -0.1448119 -0.012767146 0.20319718 0.44707215
0.5604618 -1.403623 -0.55352306 -0.5079335 1.0367001 -1.4441224 -0.75519615 0.7684652
0.45374104 0.9633051 -0.59504634 -0.08191629 0.4123295 -0.25169006 0.68914187 -0.32647544
0.28885692 -0.06898401 -0.11030952 0.22677626 1.1915023 0.7468086 -0.39608717 0.33907685
-0.07931245 0.057519622 -0.6784857 -0.35289884 0.5223582 -0.44993117 -0.015176719 -0.35068983
-0.7465525 0.083977684 0.6385258 -0.9785923 0.18957599 0.13269594 -0.011802647 -0.63600796
0.53786236 0.25955206 -0.54180074 0.19210023 0.4283715 -0.18062471 -0.15516217 -0.029216848
0.18630038 0.14929807 0.21912831 -0.26387057 0.046820402 0.22610238 0.052359205 -0.37005344
0.039606407 -0.16013396 0.25519016 -0.7511157 -0.01678646 0.5094175 0.025758183 1.5164798
0.4397657 -0.89231986 2.1972141 1.1349767 1.1409705 1.0457108 0.6829924 -0.51137245
-0.8680665 -0.2579297 0.65687686 -0.900197 -0.42333812 0.4709579 0.9054503 1.266467
-0.34274095 1.293671 -0.10116583 0.19087954 -0.15486625 0.05690507 0.29099435 1.2558094
-0.13392504 0.3679996 -0.693195 0.3287809 -0.13259867 0.4495338 -0.41863278 1.2014263
-0.8571518 -1.8827457 0.008764325 0.16826048 -0.04279252 0.56381184 -0.18838136 -0.23422652
0.5210864 -0.26987177 -0.15985097 0.28276575 -0.25257203 -0.3523036 0.01842346 -0.5303866
0.48706326 1.3529476 0.10401194 -0.55688655 -0.42158964 -0.6068045 -1.4075477 -0.053650882
-1.859258 0.79216707 0.1620612 -0.028460985 0.06564849 -0.05888502 0.09160878 -0.12226478
-0.0071837497 0.08398429 -0.067466006 -0.008587199 -0.1123608 0.021544125 -0.019969804 0.024606762
0.09011486 -0.04534426 0.0146880625 -0.021325426 0.0076659326 -0.046379518 -0.003493604 0.025924176
-0.0804083 0.086532734 -0.057280414 0.10321881 0.016388465 -0.019721989 0.04627317 -0.061451454
0.11184417 -0.035558637 0.0064642117 0.042859323 -0.08025584 0.06588407 0.04227341 -0.0037071304
0.010841852 -0.0392766 -0.011860994 -0.051841807 -0.0030315157 -0.021049298 -0.022853404 -0.018269178
-0.009672396 -0.026859151 0.024424376 0.015709795 0.0044957763 0.009390756 0.022389118 -0.042033885

embedding_instance.bias f4 [228]
00000000: 2be3 323f d8ae 643e aa1c 353c 52b1 c4bc
00000010: 5e2a 06bf 942e 07bd 63c3 b53e 21a8 993d
00000020: 3765 ffbd 51f2 d43e 0338 8f3f f3a9 3d3d
00000030: b333 22bf 87e8 bc3d 786f 873f 386f 8e3f
00000040: b47c 393f 057b a1bf 1a79 92bc 320f 75bd
00000050: 41da d83c 7c06 8cbd 6dd4 85bf 2ce5 053c
00000060: de6c 893f e501 bd3e 85e2 623f 386e 293d
00000070: 4e0d 76bc a1f8 c73e cc04 373e 5cee a5bb
00000080: 0908 ae3c a76e 8bbd 3190 70bb 70da debb
00000090: 1559 b9bb b40f 893f 3dd0 22bd 7417 563c
000000a0: 36a6 693d 5252 77bf 11fb 5fbf bf04 2a3f
000000b0: a3c7 963d db9d 293e b308 b7bd bda1 5a3f
000000c0: 5326 d23d ca0a bfbe e45e 46bd cef9 21bd
000000d0: 3431 543c d4d2 96bc 8680 bdbc 4001 ca3c
000000e0: 5484 6dbc 35b3 693e 1ae7 4a3a dade 18be
000000f0: 8762 85bc e57b 93bf 6978 76bd 7afc dabd
00000100: 3f83 ddbd 59e5 a93e 69a8 a8bd b023 8bbd
00000110: 6de8 213f cbb1 31bf 884d 6a3c 3dd2 af3e
00000120: b36e 913b 6ce2 afba 1d53 4c3c 33fd 933f
00000130: 7207 063f 35ac a73d 5457 c6bc 940b 56bf
00000140: 2e2d f6bd 7e7b c1bc db58 f33c ca38 1d3c
00000150: 20ce 733f 7abf 0d3f d73f d23e 7570 c7bc
00000160: 2af7 993f f537 7ebc 7215 923e 136f 82bf
00000170: 3168 27bc 7e0c 883f 3979 ff3c 802b 18bd
00000180: d6cc dc3e 577c 923d 69d5 733d 95f5 b43c
00000190: 2aba dd3d 5e29 073f ea5c d2bf b6d8 f53d
000001a0: 29d7 633d 26d0 cabe 5d2c 083f 71a5 a63d
000001b0: f521 10bf dc1a 32bb e63a b13d 1d82 983e
000001c0: a3ae 9fbd 44c5 923c 960a 2abe cc84 f8bc
000001d0: 6541 2cbc 19a6 6ebe 6c49 9f3c 7164 963d
000001e0: 23c2 783d a5a9 8d3d cc6c f8bc b59b 113d
000001f0: e771 28bf 4bbe 69be b9cf d1be 2d6d 8d3f
00000200: 05fd a03f 64c7 7bbd 4a62 4cbd 5016 843d
00000210: 3b2c c83d d8d8 f03c 2984 61bc 801a 42bd
00000220: cb62 8a3e 43a4 d93d 8fdf a93f 5181 2dbf
00000230: 5ee2 ae3d c7c9 5b3f 8b1b 9dbd 6a66 e4bd
00000240: 9918 3bbf 1d6c e43e d8c0 3b3d 9f94 3a3d
00000250: 332b 6a3b 7b86 813f 42f2 223e 6d12 2dbd
00000260: 5f9d bbbd 0de6 273f f724 963d 7bf5 f13c
00000270: a56e e0be 9da0 0e3e 5d4f 223f f424 0fbd
00000280: e26e 2cbd 9046 a7bd b2f1 75bd 7580 bf3e
00000290: d2c1 93bc b60f 8cbd ebe7 e2bc 356a c93e
000002a0: 60f0 f53e c5f4 9b3d 7f39 2fbd 4376 1d3d
000002b0: 75f2 88bc 874e 003f d618 de3b 3a24 823d
000002c0: 81a3 9bbf 5b9a ea3e 3b3c b53d 7cac a73d
000002d0: 1875 573b c454 9a3d c280 1b3d 4a67 adbd
000002e0: d246 4abf 819d 84bd b5df 82bd 4590 3fbe
000002f0: e706 d73d 3190 52bd 4b96 0d3e 483f 9abf
00000300: d1f6 043c bff0 42bc f1e3 4e3f 9171 1fbd
00000310: 98be 6b3f ec8d 66bf f95c d5bd 7230 8cbc
00000320: 862c 89bf 1da2 223f 4227 43bc 2a19 41bf
00000330: 1867 493f f8ff bfbe c325 7f3f 2ecb d83d
00000340: befa 933b 7686 5c3e 86f0 2fbf cc1e 9c3e
00000350: 672f a43f 5262 d2bd b4c0 1e3e 291e 133d
00000360: da2b 65bd c04d 0bbd f576 cf3b 56bc 823f
00000370: 1573 9ebc 45d5 923c 03bc cfbd 1f99 00bc
00000380: 0189 36bc 7a98 563d 5017 873d 62af bf3c
0.6987788 0.22332323 0.011054197 -0.024010334 -0.524084 -0.033003405 0.3550063 0.07502771
-0.12470477 0.41591123 1.1188968 0.046304654 -0.63360137 0.092240386 1.0580893 1.1127691
0.72455907 -1.2615668 -0.017880011 -0.059828945 0.02647126 -0.06837174 -1.0455452 0.008172315
1.0736349 0.36915508 0.8862689 0.04136488 -0.0150178205 0.39056876 0.17872924 -0.005063815
0.021244066 -0.06808215 -0.0036707039 -0.006800942 -0.0056563714 1.0707917 -0.039749373 0.013067115
0.057043277 -0.96609986 -0.8749247 0.6641349 0.073622964 0.16564123 -0.08937206 0.85403043
0.10261216 -0.3731292 -0.04843034 -0.039544873 0.012951184 -0.018411078 -0.023132574 0.0246588
-0.0144968815 0.22822268 0.00077401253 -0.14928761 -0.016282333 -1.1522185 -0.060173426 -0.10692687
-0.10816049 0.3318279 -0.08235247 -0.06793916 0.6324528 -0.69411916 0.014300711 0.34340087
0.004438245 -0.0013418919 0.012470988 1.1561645 0.5235511 0.08187143 -0.024211563 -0.83611417
-0.12020336 -0.023618456 0.029705456 0.009596059 0.95236397 0.55370295 0.4106433 -0.024345616
1.2028553 -0.015516271 0.28531986 -1.0190147 -0.010217712 1.0628812 0.031185733 -0.03715086
0.43125027 0.07152622 0.059529696 0.022089759 0.108265236 0.52797496 -1.6434605 0.12004225
0.055625115 -0.3961193 0.53192693 0.08137024 -0.56301814 -0.0027176654 0.08653812 0.2978677
-0.07796981 0.01791633 -0.166056 -0.03033676 -0.010513638 -0.23305549 0.01944419 0.073433764
0.06073202 0.06917123 -0.030325316 0.035548884 -0.657988 -0.22826497 -0.40978792 1.1048943
1.2577215 -0.06146945 -0.049898423 0.06449568 0.09774061 0.029400274 -0.01376442 -0.047388554
0.27028498 0.106270336 1.327135 -0.67775446 0.0853927 0.8585476 -0.07671269 -0.111523464
-0.7308441 0.44613734 0.045838207 0.045551892 0.0035731315 1.0119165 0.15912727 -0.0422539
-0.091608755 0.65585405 0.07331269 0.029536 -0.43834415 0.13928457 0.6340235 -0.03494735
-0.042097934 -0.081677556 -0.06004495 0.37402692 -0.018036757 -0.06838934 -0.027698478 0.39338842
0.48034954 0.076150455 -0.042779442 0.03844286 -0.016717175 0.50119823 0.006777863 0.06354566
-1.2159272 0.4582089 0.08849379 0.08187196 0.003287619 0.07535699 0.03796459 -0.084669665
-0.79014313 -0.06475354 -0.06390325 -0.18707378 0.104993634 -0.051407043 0.13826863 -1.2050562
0.008115486 -0.011898219 0.8081656 -0.038926665 0.920877 -0.90060306 -0.10418124 -0.017112944
-1.0716712 0.63528615 -0.011911215 -0.7542902 0.78672934 -0.37499976 0.99666995 0.105856284
0.004515975 0.21535668 -0.68726385 0.30492246 1.2826966 -0.10272659 0.15503198 0.035917435
-0.055950023 -0.034009695 0.0063313195 1.0213726 -0.019341985 0.01792396 -0.10143282 -0.007849007
-0.011141063 0.052391507 0.065962434 0.023399059

embedding_X.weight f4 [30, 20]
00000000: 2eac 39bf 83bc 9abc 50b2 71bf 9be8 c53e
00000010: 6e2f 23bf 2f3f 263e ee02 7d3e 6633 00bf
00000020: bf59 41bf c50c 97bf 1c62 06bf 298b 53be
00000030: f0a7 36bf 1aa7 943d 3852 b7be 38e1 0bbf
00000040: 7852 733e 3804 603e ef53 28be 2fdd 65bc
00000050: 4465 b0be 337f 2f3e efe9 973f 3509 233f
00000060: 7289 a8bd 30f0 5a3e e7d3 7dbb dce9 143f
00000070: e973 a9be db53 873d 8bd3 9abd e708 1c3e
00000080: 0d7e 3a3d 4840 a43d 57a6 673e cda0 c43c
00000090: d08d 513e 6e89 353e 7906 2f3e 94ba 78be
000000a0: 22bc 143e fd32 b2be 66f9 82be cdde 0cbc
000000b0: fd5f 313f ded2 123f b971 8ebe 9ee1 133f
000000c0: 21ad 073f 3735 2c3f 539b 263f cb40 a8be
000000d0: b33a 323f 0c66 1d3f 5291 d83e 0f82 173e
000000e0: 1c2e 8bbe da67 4fbe 766e d13e 942f 9d3e
000000f0: 9cee a03f 11d4 e33f 4f13 79bf 7133 d8be
00000100: ee30 593e c53a 68bf 5f9e e13d c6a5 e23f
00000110: fe42 6e3d ae41 9cbe bd73 373f 7e1a dabf
00000120: 1a4e 133f bc31 743e 5d77 21bf a36f e83e
00000130: a815 423f d399 27bf 4de6 8bbf 8474 6ebf
00000140: 8d81 afbf 554a 9d3f d172 bf3b e39d 69bc
00000150: 7519 c3be 5397 0140 6988 a5bf 24a7 d53e
00000160: 0aa2 953e 593c 253d 45d6 143f 1c2e 333e
00000170: 429b 93bf 0c8a c7be 9bf7 323f fb84 ca3e
00000180: 0bae 6b3f 2864 c03f 1026 85bf 1505 7dbf
00000190: 30dd f23e ad0e e1be 2377 fcbe 2d49 0a3f
000001a0: 99f3 c6bf d9a5 e43e ecac 39bf 6f91 d03f
000001b0: f3bb 193f bae7 743d 9bc2 dfbf 00d2 d5be
000001c0: 13c9 6bbe 056c c9bf 20b0 8bbf 3db0 a43f
000001d0: 91c1 88be d793 723f b4d9 f43d c838 c83f
000001e0: c188 96bd 0075 3c3e ad18 553e 54d8 99be
000001f0: ed97 a3be f7f4 bb3e 241c ef3e d488 da3e
00000200: eaa7 f3be 7707 ccbb 2e29 5ebd 2464 a2be
00000210: a97c 623f a547 093f 52c4 553f 10bd 99be
00000220: c920 f5bb 5fac 843f 3905 bb3e 032a 543f
00000230: 570d e73e e68a 3b3f 9c5f 063f 2746 39be
00000240: 15a4 293f 3ca0 413f cc7b d93e 6021 2e3f
00000250: f7ef ab3e ff7b a73d 4015 5c3d 2c4a 0d3b
00000260: 793f 993d 0b9c c73d bf32 513e 2555 1e3f
00000270: 9c30 aa3e 6823 a93d 39f5 96be 5ad8 813e
00000280: a3d1 0f3e 97a6 5b3f 93f3 10be 382a 85bf
00000290: eaa3 51bf faec b1be 2d2f 493e 50c8 0cbf
000002a0: df02 08bf e217 b53d a9db 333e d5b0 143f
000002b0: f335 ab3f 915d 603f 813d f5bf 0c8c 633f
000002c0: 1b03 e1bf 10fb 593f 06cd 2d3e d820 4cbf
000002d0: d4e3 083f c9b1 d6bf 87bb ccbf d2b0 033f
000002e0: 5798 35bf 3eda 6a3f b896 263f bf21 eabe
000002f0: 35cf 7e3f 3501 373f 7cb9 8e3e 1672 38bf
00000300: adf9 5e3f 2379 61bd b90d 5c3f 53cc e0be
00000310: b6ee 3abf 87f3 ea3d 475c a6bf a68b 9fbf
00000320: 83a1 17bf 21ed b7be cca7 e1bf 67f1 debf
00000330: 9c26 40bf bb84 e43d de21 433f 6fc0 953f
00000340: b691 633f 5dee 7b3f 2a3a d73c a4a8 9b3f
00000350: b646 27bf 51c6 4a3f 416d 833e eee7 4b3e
00000360: f3a1 3dbf 625d 2fbf 85f9 a63f 5888 02bf
00000370: 6831 cfbe 2283 bd3c 0055 fb3d 7a6d e43b
00000380: e69b 253f 0aa8 813f ddbe aebe 0d38 bcbe
00000390: 3097 b53e 9b8c 4b3e c016 1c3f 265e 793e
000003a0: 1aac e93e 0a8f 2c3f eefb 4fbf 95e1 2c3f
000003b0: d7ac 823d 3876 44bf 65de 76bd 9bef 333f
000003c0: 6e39 5b3f 2db2 c03c ae75 283e 21b6 1cbf
000003d0: 8ea4 873f f822 393f 38ae 3dbf 3b6b 5dbe
000003e0: 6654 1e3e c2fb c8bc 4eaf 033f fd0c bc3e
000003f0: 439d a2be e8cd 37bf 8932 9ebe f597 94bf
-0.7252835 -0.018888718 -0.9441271 0.38654026 -0.63744247 0.1623504 0.24708149 -0.5007843
-0.75527567 -1.1800772 -0.52493453 -0.20658554 -0.7135 0.072584346 -0.35804915 -0.5464053
0.23761928 0.2187661 -0.16438268 -0.014029785 -0.3445226 0.17138366 1.1868266 0.63685924
-0.082293406 0.21380687 -0.003873104 0.5816934 -0.33096245 0.06607791 -0.0755988 0.15237771
0.045530368 0.08020073 0.22622047 0.024002457 0.20464253 0.17728207 0.17092313 -0.24289924
0.14524892 -0.34804526 -0.255809 -0.008598042 0.6928709 0.5735301 -0.27821139 0.5776614
0.5299855 0.672687 0.65080756 -0.32861933 0.6962082 0.61483836 0.4229837 0.14795707
-0.27183616 -0.2025446 0.40904588 0.30700362 1.2572818 1.7799093 -0.9729509 -0.42226747
0.21210071 -0.90714675 0.11016535 1.770684 0.058169357 -0.3051886 0.7166098 -1.7039335
0.5754105 0.23847097 -0.6307276 0.45397672 0.75814295 -0.6546909 -1.0929657 -0.9314654
-1.3711411 1.2288309 0.0058425446 -0.0142588345 -0.3810536 2.024861 -1.2932254 0.4172908
0.29225188 0.040340755 0.5813945 0.17498058 -1.1531756 -0.3897251 0.69909066 0.3955458
0.92062443 1.5030565 -1.0402241 -0.9883588 0.47434378 -0.4395651 -0.49309644 0.5401791
-1.554309 0.44657782 -0.7252948 1.6294383 0.6005241 0.059791304 -1.7481264 -0.4176178
-0.23025922 -1.573609 -1.0913124 1.2866284 -0.2671018 0.94756836 0.11955586 1.5642328
-0.073503025 0.18404007 0.20810194 -0.30047858 -0.31951848 0.3671033 0.46701157 0.42682517
-0.47589046 -0.006226476 -0.05423849 -0.31717026 0.88471466 0.53624946 0.83502686 -0.30027056
-0.007480715 1.0365103 0.36527422 0.82876605 0.45127365 0.7325882 0.5248964 -0.18093167
0.66265994 0.75635123 0.42477262 0.68019676 0.33581516 0.08177947 0.053731203 0.0021559102
0.074828096 0.0974656 0.20429514 0.6184867 0.3324021 0.08258706 -0.29483965 0.25360376
0.14044814 0.8580107 -0.14155416 -1.0403509 -0.8189074 -0.3475111 0.19646902 -0.5499315
-0.5312938 0.08842446 0.17564262 0.58082324 1.3375839 0.8764277 -1.9159395 0.8888557
-1.7579073 0.85148716 0.16972741 -0.79737616 0.5347264 -1.6773006 -1.5994729 0.5144168
-0.7093558 0.9173926 0.6507373 -0.4572887 0.9953492 0.71486217 0.27875888 -0.7204908
0.87099725 -0.055047166 0.8595844 -0.43905887 -0.73020494 0.114722304 -1.2996911 -1.2464492
-0.5923082 -0.35923102 -1.7629333 -1.741742 -0.75058913 0.11158129 0.7622355 1.1699351
0.8889421 0.9841059 0.026272852 1.216084 -0.6534227 0.79208857 0.25669292 0.19912693
-0.7407524 -0.68501866 1.3044897 -0.50989294 -0.4046738 0.023133818 0.12272072 0.0069710584
0.6469101 1.0129406 -0.34129992 -0.36761513 0.3546691 0.19877855 0.60972214 0.24352321
0.45639116 0.6740576 -0.8124379 0.6753171 0.06380623 -0.7674289 -0.060270686 0.70287484
0.85634506 0.02352246 0.16451141 -0.61215407 1.0597093 0.72318983 -0.7409396 -0.21622936
0.15461883 -0.02453411 0.5143937 0.3672866 -0.31760606 -0.71798563 -0.3089793 -1.1608874

embedding_X.bias f4 [30]
00000000: ab49 bb3f ab2a b8bf 9b1b b1bf 1807 02bf
00000010: 53ba 92bf 3656 523e 990b d4bf 7e46 adbf
00000020: ff70 8a3f 2c30 9e3f 8733 02be 2709 c4bf
00000030: 139f 243f c6b3 8f3f 0c68 b1bf b83d bbbf
00000040: b0c9 983f a4e7 c03f cff6 4f3f 63f9 e63f
00000050: e86e ba3f 61e0 b8bf 7a17 d23f b285 aabf
00000060: ea8f cabe fb36 b03f 43f9 ed3f d953 cdbf
00000070: f321 b93f 65f8 d73f
1.4631857 -1.4388021 -1.383655 -0.50792074 -1.1463112 0.205407 -1.6566039 -1.3537138
1.0815734 1.2358451 -0.12714969 -1.5315293 0.6430523 1.1226737 -1.3859878 -1.462821
1.193655 1.5070691 0.81235975 1.8044857 1.4565096 -1.4443475 1.6413414 -1.332205
-0.39562923 1.3766779 1.8591694 -1.6041213 1.4463485 1.6872679

embedding_uncern.weight f4 [30, 20]
00000000: 9adf be3c 26cb bfbe 687a eabe 8637 723e
00000010: 331f 3cbd f225 2ebe d9a1 9abe 63ff 42bf
00000020: 689b 15bf 2078 093d 61d5 153e bded c1be
00000030: 6760 4f3e 3226 c83e 7d54 1cbf d93d 513e
00000040: ca1b 3e3d 2747 223e 02f6 12bf 010b 0a3f
00000050: a037 82bd f627 58bf b96b 963d 9bd4 75bf
00000060: 2524 88bf 3679 87be bf80 d1bf 576c e0bd
00000070: 76a3 3ebf a726 c73e d607 643f 45e9 c83f
00000080: f7f1 cd3e f391 acbf 2296 b2bf c5a6 d33e
00000090: 31cc 56be 87ae d7bf be3d 90bf 884a f1be
000000a0: 9a97 aabf 3f36 e8be d2b5 7b3e a314 b8be
000000b0: 0f64 8a3f 30c7 1b40 6141 893f 7cf9 8dbf
000000c0: 2b5d cdbf 3bc8 b3bf efd5 ad3f 121f f0bf
000000d0: 04a6 bfbc e5d3 3b3e 8c60 d93d a0e9 07bf
000000e0: 68ad f7bd f932 13bf c8b8 0b40 0c64 d13e
000000f0: b40b 35bf 2e1d bdbe a159 0d3f 5d9b 1e3f
00000100: 257f 5ebf 586e 583e db1c 523e b376 74bf
00000110: 7d11 8d3f 62d8 723f da44 d23e 4b86 89be
00000120: a33b 3cbf 6501 96bf b3e8 483e b6bb aabe
00000130: c8bc adbf 3aeb a4bf c3e3 603f 7d99 4e3f
00000140: 5ab0 0bc0 a955 95bd 6189 233f 5643 88bf
00000150: 8086 fc3e c523 203f 7f2d aabf ff95 993f
00000160: 4a25 76be 4ab4 16c0 66bb 81bd 4213 c03f
00000170: ff86 533e 7b14 80bf 7c41 f1bf 90ed 12be
00000180: f111 92bf 19c8 993f 107d 983f a3f4 cd3f
00000190: a90c bb3e ed84 85be 9f49 b1bd ed1f ac3f
000001a0: 0ded 1540 3503 48c0 21a5 e83f 39b3 2a3f
000001b0: d18e dabf 4f77 b4bf 0744 32be bdd1 eabe
000001c0: 6b10 abbf 47a0 803f 1425 7abe 946b 3440
000001d0: 1372 ffbf ba44 05bf c23a 93be 150a 8e3c
000001e0: 1c5d 92bf f95a 8f3e cb88 17bf 5e21 efbf
000001f0: 9edb 3a3f c162 59c0 b3e0 fe3f 5e41 78bf
00000200: 616b 903f d46d ac3e c316 f3be 8af0 8f3f
00000210: 1682 af3f 0b3d a1be 0711 893f 4c17 9bbf
00000220: f526 50bf beaf cabd 4f53 b23f 50b2 52bd
00000230: 6ca3 4ebf 393d 44bf 672e 0240 3fda 1abf
00000240: 2095 fe3f 252a eb3e 396b 623e 89ab c53f
00000250: a27f 1f3f 6f75 d83f 38cc 0ac0 2cfc 603e
00000260: 696c 1cbf bb17 b53f 2c61 efbf d285 aebf
00000270: 1c24 a43d db5d 04c0 6d0d 56be 8091 c1bf
00000280: 9ddf a53f 07ae 613f 7e47 9f3f 2344 ad3f
00000290: 5907 763e 74b0 e3bf 4225 bdbf 53f9 ccbf
000002a0: 81b1 e6bf 35af 1e3f a01c a63f 61eb 02bf
000002b0: 66cf b93f 36a9 d63f e1ed 01c0 eac9 eabf
000002c0: 7cf4 91bf 199e 443e 8963 a1be 1d89 983f
000002d0: 6406 46be 5703 d3be ffcd fd3e 760d 83be
000002e0: 604a 18be edde 223f b9e2 07bf 2ef9 dfbe
000002f0: e485 18be 4d64 c6bc 50cc bf3e 19ba 123e
00000300: 13ee 2f3f a2d3 4e3e 6aa8 5b3e 8d7d 103f
00000310: cdd7 9ebe 3225 123f 2165 923f 4ff9 983e
00000320: bc00 d93e bfe5 f53e 8cb5 903f 96b6 40bf
00000330: 3733 fdbe 1515 92bf 9040 d33e f92d 97be
00000340: 63e0 47bf ccbc f4be 5a50 3bbf c5ad a0bf
00000350: 84da babf a36e 5fbf 29e4 0b3f 097c 69bf
00000360: 757d 62bf 05b7 e7be f96f 9f3f f8ee 243c
00000370: 6fcb 78bf 587c 2d3f 5308 68bf 568d b33e
00000380: 2603 203f 6067 623e 3df5 793f 4b81 253f
00000390: c6b7 a63e 6381 443f 2c80 d0be 2a25 b03e
000003a0: 7c9c 653f ce17 af3e 0d44 b93e 3040 15bf
000003b0: a056 bf3e 5bdf 1ebe 4288 f2be b8c1 b13f
000003c0: 0ce3 24bf 919a 94bf 3c08 f5be 9963 57bf
000003d0: 257c c5be 294d f83d e82d 8e3e d478 203f
000003e0: 1dab 1cbf f24c 08be eb7a 333f e435 31bf
000003f0: f542 3b3f 5df4 b93d 4743 c1bd 68b0 b43d
0.02329998 -0.37459677 -0.45796514 0.23653993 -0.04592819 -0.17006662 -0.30201605 -0.7617094
-0.58440256 0.033561826 0.14632179 -0.37876692 0.20251618 0.3909164 -0.6106642 0.2043375
0.04641322 0.15847455 -0.5740663 0.5392304 -0.06358266 -0.84435976 0.07344765 -0.96027535
-1.063603 -0.26459664 -1.6367415 -0.10958164 -0.7446817 0.38896677 0.89074457 1.5696188
0.40223667 -1.348204 -1.3952067 0.41338173 -0.2097633 -1.6850137 -1.1268842 -0.47127175
-1.3327515 -0.45353886 0.24581078 -0.35953245 1.0811785 2.4340324 1.0723077 -1.1091762
-1.6044058 -1.404548 1.3580912 -1.8759482 -0.023394592 0.1834255 0.10614118 -0.5309086
-0.120936215 -0.57499653 2.1831532 0.40896642 -0.7072098 -0.36936325 0.5521489 0.61955816
-0.8691276 0.21135843 0.2051882 -0.9549362 1.1020962 0.94861424 0.41068155 -0.2686027
-0.735285 -1.1719176 0.19620018 -0.33346337 -1.3573236 -1.2884285 0.87847537 0.80702955
-2.1826386 -0.07291729 0.638815 -1.0645549 0.49321365 0.6255458 -1.3295134 1.19989
-0.24037662 -2.354754 -0.063345715 1.5005877 0.20656966 -1.000625 -1.8848109 -0.14348435
-1.1411725 1.201419 1.1913166 1.6090282 0.36533096 -0.26077977 -0.0865662 1.3447243
2.3425934 -3.1251957 1.8175393 0.6667972 -1.7074834 -1.409891 -0.17408763 -0.45863143
-1.3364385 1.0048913 -0.24428207 2.819066 -1.9956688 -0.52057993 -0.28755766 0.017338792
-1.1434665 0.27999094 -0.59193105 -1.8682058 0.7299136 -3.3966525 1.9912323 -0.9697474
1.128277 0.33677542 -0.47478303 1.1245282 1.3711574 -0.31491885 1.0708321 -1.2116485
-0.81309444 -0.098968014 1.3931674 -0.051439583 -0.8071811 -0.7665592 2.0340822 -0.6048927
1.9889259 0.4593059 0.22111215 1.5442973 0.6230413 1.6910838 -2.1687145 0.21971196
-0.6110292 1.4147867 -1.870153 -1.3634589 0.080147 -2.0682285 -0.20903559 -1.5122528
1.2958866 0.8815617 1.2443693 1.3536419 0.2402624 -1.7788224 -1.4776995 -1.6013588
-1.802292 0.61986095 1.2977486 -0.5114041 1.4516418 1.6770389 -2.030144 -1.8342869
-1.1402736 0.19200934 -0.31521252 1.1916844 -0.19338375 -0.41213486 0.49571225 -0.25596207
-0.14872122 0.6362141 -0.53080326 -0.43744797 -0.14894825 -0.024217749 0.37460566 0.14328803
0.6872265 0.20197919 0.21450964 0.56441575 -0.31024018 0.57088006 1.1437112 0.29877707
0.42383373 0.48026845 1.1305404 -0.75278604 -0.49453136 -1.1412684 0.41260195 -0.29527262
-0.7807676 -0.4780029 -0.7316948 -1.255303 -1.4597936 -0.87278193 0.5464502 -0.9120489
-0.8847268 -0.4525682 1.2456046 0.01006674 -0.97185415 0.6776786 -0.906377 0.35068768
0.62504804 0.22109747 0.9763983 0.6465041 0.32562083 0.7675993 -0.40722787 0.34403354
0.896919 0.3419785 0.3618473 -0.5830107 0.37370777 -0.15514891 -0.4736958 1.3887243
-0.64408946 -1.160967 -0.47857845 -0.8413635 -0.38571277 0.12124092 0.277694 0.6268437
-0.611986 -0.13310602 0.7010943 -0.69222856 0.73149043 0.09079812 -0.0943666 0.08822709

embedding_uncern.bias f4 [30]
00000000: d011 11bf e1a2 1dbf 8039 b13e 85a6 cbbe
00000010: c15b 18be 2741 91be e60b afbe f82d 0c3e
00000020: 1a54 193e 9293 1b3f 1741 13bf d0aa 2b3f
00000030: 2462 31bf efe5 b83e 9a03 28bf 73ef 12bf
00000040: 4987 a93d 2594 ce3e 9343 d33c 51ba 963d
00000050: 18aa e93e fd36 e3be 74a1 07bf c8f5 80be
00000060: 1b11 f8be 76b0 2b3e 6b54 333f 320a 493e
00000070: ad3f f13c 6c14 283f
-0.56667805 -0.6157666 0.34614182 -0.39775482 -0.14878751 -0.2837002 -0.34188765 0.1368941
0.14973488 0.6077205 -0.57521194 0.67057514 -0.69290376 0.36112925 -0.65630496 -0.5739662
0.08277757 0.403474 0.025789058 0.07359756 0.45637584 -0.4437789 -0.5298073 -0.25187516
-0.4845055 0.16766533 0.70050687 0.19632795 0.029449308 0.6565616

fc1.weight f4 [256, 288]
00000000: caa3 cabe 23d8 263f b9a7 cabb 78b3 0b3d
00000010: 29bb bcbd f570 78be 9f64 4a3e 3e78 b03c
00000020: 6096 3f3d 3844 233e 9a2e 093f b8ca 7bbd
00000030: 1c4d 5c3f 822b a63c 0c8f 963f fa9d 0640
00000040: 1b63 083f 90c3 bdbe 984f bf3c 5da6 203d
00000050: 8a56 6abb 3a67 063c 8b18 953d a509 6e3c
00000060: e003 cd3d 3458 5ebc b315 c63b 4166 40bc
00000070: 7bbe d2bc 84f4 10bf f9cf 0f3c e12f c93c
00000080: 2b1d 3bbc 43da 87bc fe39 e13c d93a 4bbc
00000090: f742 0bbd b462 e93d ba80 1b3c 9233 703b
000000a0: 797e ca3b 8b9b 81bf 09ae c2bd b124 edbe
000000b0: 1b9a e8bc a2fc 6abc 5f60 7d3c edda 363e
000000c0: 3cff ebbd 7bb3 8ebd bf37 ed3c aa11 613b
000000d0: d98d 2abc a3b9 e43b 1a03 cd3c 93d4 ad3a
000000e0: 8985 3bb9 df09 21bd c5fe 8bbc 0d52 c9bb
000000f0: 30ca 483c 13aa f4bf 4920 e0bc 1d2e 113d
00000100: 5151 8c3c 59bc 7e3d 96e6 8fba 592a d539
00000110: d624 0f3f 7524 e33e f4e7 6f3c 0a80 8d3e
00000120: 3ab5 11bc f316 fb3a 239a 74bc 6982 3a3f
00000130: e530 793d 5cf9 4ebb d559 21ba 9956 2fbf
00000140: 5003 84bc f274 9f3c 4184 b93c b202 02bb
00000150: 8c08 dcbd 94a3 9b3e 191d 013d c006 cfba
00000160: 0291 253f 46ae 0ebb fbf6 653f 9fad 1dbd
00000170: 205f 053c 0187 273d d89a ac3c 2498 a0ba
00000180: c421 253f ef9e 8a3c 3b32 283b 30ec 49bc
00000190: 7d33 dfbc 26bc c7bb 1131 e33e b794 073d
000001a0: 9226 a4bc 1217 81be 4805 a33e 4a0d 5bbc
000001b0: f467 8bbe 64b3 5c3e 6bf9 81bc 4d41 ca3c
000001c0: a404 38bc 8d3a e1ba 5ee9 bb3c d5f8 8cbc
000001d0: fb53 b2bc fe9b c4bd 306a f9bb e464 213c
000001e0: 005b ab3b acdb 09bd 7cd1 93b9 154a cfbc
000001f0: 8412 563d c6b7 9d3d cf8d dc3d 60bf 683e
00000200: ce00 ccbe 654f e6ba da4a a53c 7a42 31bc
00000210: 0ab6 903b 6c66 d5bc cd45 4c3b 9128 073b
00000220: 8168 c8bc 75b2 003d 4c1a 963f c135 c3bf
00000230: cb6d 323c 105c d53e a60e ec3c 8502 943c
00000240: 2447 28bd 4df9 b23e 9871 0c3c 911d aabd
00000250: 9516 ea3c 6ca6 523f 4e23 15bf b2f8 82ba
00000260: 985a 2a3d 3cec 733f 66f1 e2bb 29cf 353d
00000270: ddea 6cbd 5249 d6ba ced4 a43e 40ed 04bd
00000280: 03e8 c2bc 3b41 a23b 88f8 7f3b e74a d6bd
00000290: b6bc e7bc d2ed 153c fdc5 d43c 4aa3 9939
000002a0: 824d a6be bd5a cf3b 3f73 66bd 7acf c8bf
000002b0: 6c1d 1abc ee8d ad3e 72a2 f039 a4de 093d
000002c0: ba47 2ebd d610 853e e2e3 61bb 0891 ec3b
000002d0: fd3a ec3b 8a32 85bb 7529 b0bf 317d 94bb
000002e0: 4fa9 95bf f6d8 3a3c 2c81 553c 71e2 233d
000002f0: f9e7 f8bb adf7 ebbc 6069 5ebd add6 7b3d
00000300: cc83 7dba bae5 6dbb 1f08 76bd ee6b 30bc
00000310: 1223 b53d 5e31 4dbe 0c98 403c ca93 2a3c
00000320: 0b99 703f 6dec 4f3d 5ef6 90be cfb1 34bf
00000330: 05fe e83e 3c3f f0be 051f 1abe 09b6 263f
00000340: e1a6 d9ba e773 e9bb 1849 abbd 8642 63be
00000350: 918d cc3e 496b fe3c ff0c 9ebc 575f 633c
00000360: 3dca a03b f14c 7b3d 46f8 cb3c 985f 903e
00000370: 48ff 923c 0448 d3bb 9e31 f73b 2e6c f43c
00000380: 959b 9dbc ae9d bc3c 8c36 893b 6df7 83bc
00000390: a16e 2d3e f0c5 753e 919c 45be cbc0 88be
000003a0: 6ddc a43c 03b9 4d3e 1e7d 623f 7a2e 61bc
000003b0: 839a 1abd e130 733d 6d41 1b3e 9993 33be
000003c0: 84ce 1ebe 44ea d5be ef4e 293f c77d 4b3e
000003d0: eae7 263d 2d4e 5f3e e797 46bf b84e b8be
000003e0: bd15 0ebf e7f1 91bc 2e6d 923f accb b83e
000003f0: 2da3 263e 8f42 f43d fb34 80bf bd71 bebe
-0.39578086 0.6517355 -0.006184545 0.0341067 -0.092153855 -0.2426184 0.19764946 0.021541711
0.04677427 0.15943992 0.53586733 -0.061472625 0.8605516 0.020284418 1.1762404 2.1033921
0.5327622 -0.37063265 0.023353383 0.039221156 -0.0035757148 0.008203322 0.07280072 0.014528667
0.10010505 -0.013570834 0.006045067 -0.011743129 -0.025725594 -0.566231 0.008777612 0.024558963
-0.011420528 -0.016583567 0.027493473 -0.012404167 -0.03399941 0.11395779 0.00949114 0.0036651832
0.0061796275 -1.0125593 -0.09505851 -0.46317056 -0.028393796 -0.014342459 0.015464871 0.17856951
-0.115232915 -0.06967827 0.028957246 0.0034342804 -0.010409796 0.0069801374 0.025025893 0.0013262205
-0.00017883455 -0.039316054 -0.017089257 -0.0061438144 0.0122552365 -1.9114403 -0.027359145 0.035444368
0.017128618 0.06219134 -0.0010978754 0.00040658077 0.5591558 0.44363752 0.014642704 0.2763675
-0.008893305 0.001915662 -0.014929327 0.7285524 0.060837645 -0.0031581735 -0.00061550486 -0.6849151
-0.01611486 0.019464944 0.022646071 -0.0019838032 -0.10743818 0.30398238 0.03152189 -0.0015794858
0.6467439 -0.0021771356 0.8982999 -0.038495656 0.008140355 0.040900234 0.021069929 -0.0012252373
0.6450465 0.016921489 0.0025664705 -0.012324378 -0.027246231 -0.006095427 0.44373372 0.03310081
-0.020037923 -0.25212914 0.31839967 -0.013369868 -0.27227747 0.21552807 -0.015866002 0.024689341
-0.011231575 -0.0017183587 0.022938427 -0.017208496 -0.02176856 -0.09600066 -0.0076115355 0.009850714
0.005229354 -0.03365676 -0.00028194103 -0.02530388 0.05226375 0.077010676 0.10769235 0.22729254
-0.39844364 -0.0017571269 0.020177294 -0.010819072 0.004416232 -0.026049815 0.0031169534 0.0020623545
-0.024463894 0.03142019 1.1726775 -1.5250779 0.0108904345 0.416718 0.028815579 0.018067608
-0.04108347 0.34955826 0.008572005 -0.083064206 0.028575221 0.8228519 -0.58256996 -0.000999233
0.041590303 0.9528234 -0.0069257496 0.044387016 -0.05784117 -0.0016348755 0.32193607 -0.03245282
-0.023792272 0.0049516237 0.0039058048 -0.10463505 -0.028288227 0.009150939 0.025973314 0.00029304094
-0.3248101 0.0063279555 -0.05626225 -1.5688317 -0.009406429 0.33897346 0.00045897398 0.033659592
-0.042548873 0.25989407 -0.0034468104 0.0072194375 0.0072091804 -0.0040648626 -1.3762652 -0.0045315255
-1.1692294 0.011404267 0.013031285 0.040010873 -0.0075960127 -0.028804624 -0.054299712 0.061484028
-0.00096708233 -0.0036300258 -0.06006634 -0.01076792 0.0884458 -0.20038363 0.011755001 0.010411212
0.93983525 0.050762583 -0.28312963 -0.70583814 0.45506302 -0.46923244 -0.15050896 0.65121514
-0.001660552 -0.0071244123 -0.08363551 -0.22193345 0.39951757 0.031057017 -0.019293306 0.013877711
0.004906921 0.061352674 0.02489866 0.28197932 0.017943993 -0.006447794 0.0075437566 0.02983674
-0.019239226 0.023024406 0.0041874107 -0.016109193 0.16936733 0.24001288 -0.19298007 -0.2670959
0.020124638 0.20090108 0.88472164 -0.013743991 -0.03774501 0.059372786 0.15161677 -0.17536773
-0.15508467 -0.41780293 0.6613607 0.19872199 0.040748514 0.21807165 -0.77575535 -0.35997558
-0.5550192 -0.017815543 1.1439569 0.3609289 0.16273184 0.119267575 -1.0016168 -0.3719615

fc1.bias f4 [256]
00000000: 715d 483f fa73 2fbf 071d b73e 247b debe
00000010: 9e00 39bf 428e 8bbb 3a73 afbf 4be3 3dbf
00000020: de89 2ebd 0049 23bf 505c 093f c11d fe3e
00000030: 6fc4 52bf 81f1 05bf d855 11bf 6a34 35bf
00000040: 08ba 58bd ca28 8abe 5868 de3e 4621 4e3e
00000050: e3c3 1abf 91b9 47bf 73a8 50bd 799c a4be
00000060: b271 ecbe 5c2f 823e 956b efbb 68e4 253e
00000070: 0926 8cbd b072 d63e 1e53 f0be aea9 263f
00000080: 9733 033f db8f a43e 6a94 28bf 7b29 373f
00000090: bc0f b5be c868 07bf a282 0cbf f8b3 b9be
000000a0: 3843 8ebf 238b e8bd 367b 563f 668b 893e
000000b0: 3a8f 13bf 8d07 babf 1f5a 28bf 4fd6 92bf
000000c0: 89f0 3ebe 889b 0fbe 0ca9 28bf 4514 97bd
000000d0: 152a 55bf dcdd 75bf 8689 acbe a87c 8abd
000000e0: 471b 75bf 23f2 8fbe 93ec 833f 41bc b6bf
000000f0: 6076 b9be 5a5a f5bb 60cd 75bd e1ad 7f3d
00000100: 880b 5dbf 657f 66bd 128c 99be e1a0 42bf
00000110: c76b 633f 9ab2 0dbf 8e90 1dbf c293 21bf
00000120: 949f ddbd e5c5 953d 03ce 98be fa04 48bf
00000130: 273c 213f 8b03 ccbe 310a c7be 631d b6be
00000140: 7221 ccbe d6c2 3c3e ef88 cebe ebfc 67bf
00000150: 6208 723f d993 50bf 5ad3 47be 6726 0d3e
00000160: d75a 2a3f 967b 91bf 5e3c c3be eca4 c73e
00000170: 5f2f aebf aecb 49bf 885a 8d3f e389 67bd
00000180: dc07 afbd 44ee 56be f47f 9bbd 116c 13bf
00000190: 73be d03e 6d26 93bf f802 3cbf 3b39 78bf
000001a0: f1bf 5dbf 258e 08bf 9498 18bf bd8b 37be
000001b0: ebcd 0bbf 80c2 b8be 474f 503d 86af 95be
000001c0: 457f 24bf 7c50 2abe 3f87 26bf f4e6 dabe
000001d0: b28b 22bf 6566 42bf 988b 25be 8134 94bd
000001e0: 0057 66bf d657 35bf e7b1 cabe 5fe7 71bf
000001f0: 52db 66bf 72ba 233f d7d1 873f b6f9 1c3f
00000200: 6522 67bf b7b8 85be ba60 1abf 982b 73bf
00000210: e73a 82bd 6aa2 1f3e 863f 95bf bd97 e5bc
00000220: 561b 7dbf 0ed7 9fbf 4a8e 653f 96e1 dbbd
00000230: bf99 89bf 0087 67bf 1d87 033e 24ec 063f
00000240: 7e1f 903f 7d6a 4e3f 9312 663e 545d 643f
00000250: 649f 7b3f d9f1 fcbe a024 493e 54df 98bf
00000260: 9a2e b5be 3ae2 443c 16bf c6bd 99c1 6abf
00000270: 9521 a03d 9b73 0ebf 45b7 39bf e3da 38bf
00000280: 4d9e 0dbf d910 09bf c698 8f3f 69d3 02bf
00000290: ae23 98bf 8c80 efbe 8984 a6bf db92 23bf
000002a0: 4351 00be 216f b0bf 665a 18bf 00e7 71be
000002b0: 51f9 5cbf 23b2 493f 29a2 34bf dde8 0e3f
000002c0: 33e4 22bf 424b 69be 6051 0cbe 0d54 dfbe
000002d0: 9258 e6be 6b14 7cbe 5701 58be 2a9f a3bf
000002e0: d272 2a3f bed0 a6be d1a9 4abf 78ef 96bf
000002f0: 8841 4cbf 46a8 643f 4e91 5c3f b58e f6be
00000300: b060 29bf cf65 523f 52db 86bd d7a4 7fbf
00000310: 6889 0cbf 6458 adbd 6862 32be 39e9 dfbd
00000320: eaab 82bd d095 923e 1b19 66bd e0cc ed3d
00000330: 7ade 91bd c8a8 0bbf b47d cdbd 968c 9dbd
00000340: 52a4 483e a545 2fbf adc5 313f a474 e0be
00000350: bcad a8bc d8b2 9d3e d1a0 2cbf 3ad5 d8be
00000360: 801d e2be b0b2 b63e 9dca b9bf e0a9 cbbd
00000370: 2ea9 91bf fb01 47bf fdd0 713f 201c fbbe
00000380: ee8e ba3e bc4d 7bbf 9265 043f f79b f5bd
00000390: bdc9 3bbd 1481 20bf 881d c8be 0170 0dbe
000003a0: ed17 29bf 2c10 19be 35b6 d83e 3a42 863e
000003b0: d2bd 01bf 9041 753f 0173 d23e d355 f8bd
000003c0: 93d2 6b3f bddd 0bbf dc7c 803e f433 e53e
000003d0: bcd9 523f 7db0 19bf 6bc2 f9be 61c1 2abf
000003e0: fa7c 223f aabe 53bd 0462 0ebf 7847 e93e
000003f0: f3ee 11bf 6e86 dfbc dec1 76bf 5111 3f3f
0.7826758 -0.6853634 0.35764334 -0.43453324 -0.72266567 -0.004258902 -1.3707039 -0.74174947
-0.04261195 -0.63783264 0.5365648 0.49632075 -0.82330984 -0.5232163 -0.5677161 -0.707831
-0.05291179 -0.26984245 0.43438983 0.2012988 -0.6045515 -0.78017527 -0.050941896 -0.3215063
-0.46180493 0.25426757 -0.007306526 0.16200411 -0.06843192 0.41884375 -0.46938413 0.6510266
0.51250595 0.32141003 -0.6585146 0.7154767 -0.35363567 -0.5289426 -0.5488683 -0.36270118
-1.1114264 -0.11354663 0.83781755 0.26864165 -0.5764042 -1.4533554 -0.65762514 -1.1471652
-0.18646444 -0.14024174 -0.65882945 -0.07376913 -0.8326734 -0.96041656 -0.33698672 -0.067620575
-0.95744747 -0.28114423 1.0306572 -1.42762 -0.36223125 -0.0074875774 -0.060010314 0.062421683
-0.8634572 -0.056273837 -0.29989678 -0.7602673 0.8883633 -0.5535065 -0.615487 -0.63116086
-0.10821453 0.07313136 -0.29844674 -0.78132594 0.6298241 -0.39846453 -0.38874963 -0.35569295
-0.39869267 0.18433699 -0.40338847 -0.906203 0.9454404 -0.814756 -0.19514218 0.1378418
0.6654486 -1.136584 -0.38131994 0.38993013 -1.3608207 -0.78826416 1.1043253 -0.056527983
-0.08546421 -0.20989329 -0.075927645 -0.5758677 0.407703 -1.1496102 -0.7344203 -0.96962327
-0.86621004 -0.53341895 -0.59607816 -0.179244 -0.5461108 -0.36085892 0.050856855 -0.29235476
-0.642567 -0.16632265 -0.6505012 -0.42754328 -0.6349441 -0.7593749 -0.16166532 -0.07236577
-0.899765 -0.7083715 -0.39588854 -0.9449367 -0.90178406 0.6395637 1.0610913 0.6131853
-0.90286857 -0.2611749 -0.60303843 -0.94988394 -0.06358891 0.155893 -1.1660011 -0.028026456
-0.98869836 -1.2487504 0.8967024 -0.107363865 -1.0750045 -0.9044037 0.1284451 0.5270407
1.1259611 0.8063124 0.22468023 0.8920491 0.98290086 -0.49403265 0.19642878 -1.1943154
-0.35387117 0.012016827 -0.097044155 -0.91701657 0.07818905 -0.5564515 -0.7254527 -0.72208995
-0.5531967 -0.5354133 1.1218498 -0.51103836 -1.1885889 -0.4677776 -1.3009197 -0.6389596
-0.12530999 -1.3783914 -0.5951294 -0.23623276 -0.86317927 0.7878744 -0.70559937 0.5582407
-0.63629454 -0.22782615 -0.13702917 -0.43618813 -0.4498945 -0.24617164 -0.21094261 -1.2782948
0.6658145 -0.32581133 -0.7916537 -1.179183 -0.7978749 0.89319265 0.8615922 -0.48155752
-0.6616316 0.821866 -0.06584801 -0.998609 -0.54897165 -0.08464125 -0.17420352 -0.109331556
-0.06380446 0.28629923 -0.056176286 0.116113424 -0.07122512 -0.54554415 -0.100337416 -0.0769283
0.19593933 -0.68465644 0.69442254 -0.4383899 -0.020590656 0.3080051 -0.67432886 -0.4235018
-0.44163132 0.35683203 -1.4514958 -0.099445105 -1.1379755 -0.77737397 0.94459516 -0.49044895
0.36437172 -0.9816549 0.51717484 -0.119926386 -0.04584669 -0.6269696 -0.3908503 -0.13812257
-0.6605213 -0.14947575 0.42326513 0.26222402 -0.5068027 0.95803165 0.41103366 -0.12125745
0.92118186 -0.5463522 0.2509526 0.447662 0.82363486 -0.60034925 -0.48781142 -0.6670132
0.6347195 -0.051695503 -0.5561831 0.4556234 -0.5700523 -0.02728578 -0.9638957 0.746358

fc2.weight f4 [128, 256]
00000000: 6b12 e5be 00d0 00bf 9835 ecbe ea8e 8ebe
00000010: e22d 21be bad7 83bd 0121 a1bf 2b4c 15be
00000020: e1dd a43e 1e5e 08bf 5411 3cbe fd04 5bbe
00000030: 00eb 6cbf 47ff 043e 8486 333e fe28 a73e
00000040: c205 77bb c931 1bbe 3e78 233f ec4b f4be
00000050: 2fea 0dbf 1de8 5a3e 659c e93c 2a8b 3fbd
00000060: 5f34 d83e 44b3 2cbf 1ff7 ecbe 1801 0dbf
00000070: 6f4b ccbc bc6f 4dbe 3ff7 533e 14b4 9abe
00000080: 636d 3e3e 7c84 f6bc bb90 09be 6f16 b83e
00000090: b42f 0a3f 1234 813c 4318 a5be b1b6 ee3d
000000a0: 47cb ba3e cea9 2a3d bb4b 253e 8824 a8bf
000000b0: 2068 d6bd a37f 71be 2aed a2be 551f e8bd
000000c0: c3ca 29bd dfb5 5dbe 5bc3 eb3e dce7 44bb
000000d0: b665 19bd 6af1 d73e 5abd 9abe 50bf 37bd
000000e0: 190d a1bf ae87 30bf 549a 2e3e 5043 443f
000000f0: 7532 103e a3f9 b73d b34e a63c 2254 133f
00000100: 805a abbd 76d0 413b aad4 f83e f5ac b03c
00000110: 82d5 c5be d63d 123b ddd0 9c3e 7ed1 70bf
00000120: 9973 093d 456d a4bd e04b 993e b67f 103f
00000130: 7687 413d b721 51be eb42 ccbe dac4 2cbd
00000140: 61fc cbbe 06a8 053e 0a25 bd3e 9e8a ee3e
00000150: 848d debe 2224 09bd 6cbb 2cbf 59a0 ad3e
00000160: c789 d1bd 37b6 27bf 54ca a0be 04fb 1f3e
00000170: 90a1 563d f5a2 333c 25fb 0f3e 6b81 b53d
00000180: 84f0 64bc 5010 a73e 931c 0c3d f010 503f
00000190: f56c d7bd 9aba bcbe 98ed dd3e aa72 6d3d
000001a0: 03a8 0ebe 3f96 8f3e 2858 e1be 96d4 d73d
000001b0: 5d85 8bbf 1119 7e3f 4992 c8be 3176 e3be
000001c0: e8ee ac3e 5a44 1b3e ba75 913e 7a89 0cbe
000001d0: aae1 2cc0 418b 803e 02e5 473c 298d 453d
000001e0: 589f 81be b28e c83d 5818 be3e 20e0 05be
000001f0: 7b28 44be 4e39 babe 0a22 f0bd ac74 2ebc
00000200: 7705 adbe 8c9e 97be 7a3e 74bf 733e 043f
00000210: 53ec 653c a157 a1bd ae7e 9ebd 9f97 533d
00000220: 1628 413f aaa7 0fbf ab47 d43e 7f24 fd3a
00000230: cbab c73d 3d17 1d3e ed68 d1be 3719 b73d
00000240: b23e 65be 90db 27bf 6e12 893e c415 923e
00000250: ec66 823e 0dda 1a3f 4975 06bf 22d0 89bd
00000260: 6678 1ebe 0e18 a73c ef7c c6bc 3935 80bf
00000270: f179 abbe f6bd 11bf c57b cabe 3e0e 633e
00000280: 1000 babe 1ef2 25bf 1a6d 27be d094 1a3f
00000290: 16b1 dabc 06fe b33e 7788 e43e a71c a03e
000002a0: 75d6 b6bb 17e8 833e e382 62bd 93f6 733c
000002b0: 8ef4 c8be c1b5 6ebe 1ab9 593f 2e58 8b3e
000002c0: 8fb9 a33e a8a4 4fbf 4546 8dbf adf7 0c3f
000002d0: 8318 82bf 829e abbc 8aeb 8c3e 8444 e83e
000002e0: 39cc 2cbf 4452 ecbe 0e12 143d ce2f 9fbd
000002f0: 2465 003e 075c 703e dcae 1bbf 767f d1bc
00000300: 5bae 4ebe c1e7 86be d22b 6fbd 5ecc 9b3d
00000310: ef98 1dbd 2d3b 743d 6291 17be f6cb 87bc
00000320: cfd1 0bbd 0151 6abe df97 41bd ad32 11bf
00000330: 9c32 05bc 9174 8c3e b720 d53c aac9 59be
00000340: e410 9fbf 9196 95be 42a2 ad3e 3fd1 b53e
00000350: 1af0 1a3d 0d65 593e f515 213e 380a 3cbf
00000360: f99c 2f3d d756 8cbd 9ddb 20bf 4c1f dfbc
00000370: d94d 61bd fbec 373f 3527 73bd 70d9 3cbe
00000380: 41ef 253e b76e dc3e a9ce b1be e277 033d
00000390: c916 2fbd ac8d 2ebf fed9 c8be 9e79 013d
000003a0: fbef 95be 43d5 903d ab47 91be 4cf7 2e3e
000003b0: 939f 0b3e bde4 d2be 3ea2 dfbe 3266 83bd
000003c0: 1fc5 50be 58ef 343f 3512 55bf 6abf d9bf
000003d0: 3d47 923e 9976 13bd 5664 45bf 9d18 dbbe
000003e0: aca0 a43e a2d2 c2bc 0e71 153d 31b1 8fbd
000003f0: 785c 3cbf 0c73 29bc ac21 a13e 4dbc aa3e
-0.44740614 -0.5031738 -0.4613464 -0.2784341 -0.15740159 -0.06437631 -1.2588197 -0.14579837
0.3220053 -0.5326861 -0.18365985 -0.21388622 -0.9254608 0.12988006 0.17531782 0.32648462
-0.003769264 -0.1515571 0.6385535 -0.47714174 -0.5543546 0.21377607 0.028516958 -0.046763577
0.42227456 -0.6746104 -0.46282288 -0.55079794 -0.024938313 -0.20062155 0.20699786 -0.30215514
0.18596415 -0.03009247 -0.13434117 0.35954615 0.5397904 0.0157719 -0.32245073 0.11655939
0.36483213 0.041665845 0.1614217 -1.3136148 -0.10469079 -0.23583846 -0.31821567 -0.11334101
-0.041453134 -0.2165141 0.46047482 -0.0030045426 -0.037450515 0.42176372 -0.3022259 -0.044860184
-1.2582122 -0.6895703 0.17051059 0.7666521 0.14081748 0.08983161 0.020301199 0.5755025
-0.08366871 0.0029573715 0.4859975 0.021566847 -0.38639456 0.002231469 0.306281 -0.9406966
0.03355751 -0.08028654 0.299407 0.5644487 0.047248326 -0.20423017 -0.39894804 -0.04217992
-0.39840987 0.13052377 0.3694232 0.46590132 -0.43467343 -0.033481725 -0.67473483 0.33911398
-0.10231357 -0.6551241 -0.31404364 0.15623099 0.05240017 0.010964145 0.14060648 0.08862575
-0.013973359 0.32629633 0.034206938 0.81275845 -0.10518829 -0.36861116 0.43345332 0.05797068
-0.13931279 0.28044316 -0.4401257 0.105385944 -1.0900074 0.99257 -0.39174107 -0.4442611
0.3377602 0.15162793 0.2841013 -0.13724318 -2.7012734 0.25106242 0.012200596 0.048230324
-0.25316882 0.09792842 0.37127948 -0.13073778 -0.19156067 -0.36371845 -0.117252424 -0.010647934
-0.33793232 -0.2961315 -0.9540783 0.5165779 0.014033395 -0.07878042 -0.07739006 0.05165827
0.7545179 -0.5611521 0.41460928 0.0019313245 0.09749564 0.15340896 -0.40900365 0.08940356
-0.22387198 -0.655694 0.26771873 0.2853223 0.25469148 0.6048897 -0.5252271 -0.06729151
-0.15475616 0.020397212 -0.024229495 -1.0016242 -0.3349147 -0.5693048 -0.39547554 0.22173402
-0.36328173 -0.64822567 -0.16350213 0.6038332 -0.02669577 0.35154742 0.44635364 0.3127186
-0.0055797645 0.25763008 -0.055300605 0.014890331 -0.3924908 -0.23311521 0.8504807 0.27215713
0.31977507 -0.8111062 -1.103707 0.55065423 -1.016373 -0.020949606 0.27523452 0.45364773
-0.6749912 -0.46156514 0.03615003 -0.0777279 0.12538582 0.23472606 -0.6081369 -0.025573473
-0.20183699 -0.2634869 -0.0583914 0.07607339 -0.038475927 0.059626747 -0.14801553 -0.016576748
-0.034135636 -0.22882463 -0.047263976 -0.5671795 -0.008129742 0.27432683 0.026016576 -0.21268335
-1.242703 -0.29216436 0.33912855 0.35511205 0.037826635 0.21229954 0.15731032 -0.7345309
0.04287431 -0.06852501 -0.62835103 -0.027236603 -0.055005882 0.7184598 -0.059363563 -0.18442321
0.1620455 0.4305322 -0.34727982 0.03209675 -0.04274634 -0.68184924 -0.39228815 0.031610124
-0.29284653 0.070719264 -0.2837499 0.17086524 0.13635091 -0.41190138 -0.43678468 -0.064159766
-0.20387696 0.7067771 -0.83230907 -1.701154 0.28569975 -0.036001775 -0.77106225 -0.42792216
0.32153833 -0.023782078 0.03648477 -0.070162185 -0.73578596 -0.010342371 0.31471002 0.33346787

fc2.bias f4 [128]
00000000: f0fd 8b3f 69fc 7b3f a5a7 b03e 1c75 09c0
00000010: d35d 413c a70d 5ac0 fed6 76bf 3ca2 783f
00000020: 130e 1dbf 8805 623f dad4 89bf ee4a 513f
00000030: ea6d f8bf 8c9b 12bf ec47 d4bf 7bd7 9f3f
00000040: f87e 48c0 dc21 09be ae9d 9c3c cf11 2c40
00000050: bf30 75c0 ee1e 1e40 5499 1cbf e40f b3bd
00000060: 2c97 44bd 402e 38bd c6f3 dabd 40c8 a23f
00000070: 388d 83bd c049 53bf 34aa 2dbe 8cbb 1dc0
00000080: e953 3fbd 3409 d7bc 6799 5e40 c5ec e3bd
00000090: dbc4 86bd ce01 37bf 3e2a 1d40 9a8c 19bf
000000a0: 6fae 74bf 4f9c 1240 31f4 a2bf 403c 4fbf
000000b0: 6d15 743f 005f e5bc bba6 b43e e924 ddbf
000000c0: 2550 2bbd b276 1d3f 2529 74bc 1b1a d8bd
000000d0: 41e9 533d 481c 49c0 40a7 403f 3f2f 2d40
000000e0: f392 03bf bcf3 a43f 8f6b 2540 fb9d 81bf
000000f0: 6e21 763e 4207 d73f 64b7 03c0 b122 5bbf
00000100: c4a5 82be d4e1 28bd 50cf 18c0 244f 1040
00000110: e043 dabd 4134 d73f 7123 0fbf b339 ed3e
00000120: 5f1f 0bc0 adc9 96bf 2dfd 753f 3e7c 5e3f
00000130: e4fc 65c0 94cd 2fbe d139 ad3c e897 0740
00000140: 769c a6be c265 01c0 df4d 8d3f d4f5 ce3f
00000150: 28a4 dc3e a427 ccbd f1c8 8dbf 137f cfbd
00000160: 038c 8ebd 52ea b23d 6943 e23e 0b37 64bf
00000170: 5ee1 2040 b379 cb3f 069a 04c0 2b61 d4bf
00000180: 3f68 c3bf d872 113f d74e 83bf d7b8 e2be
00000190: 651e 3fbf d35e ddbd fe95 733e a228 91bf
000001a0: c3f5 20bf 18dc 093c e5db 3abf 5d84 0abe
000001b0: fca7 833f 0416 02c0 3121 35c0 8f79 b7bf
000001c0: cc6d f6be 9e25 7bbd ef35 06c0 6c4d 4abd
000001d0: f9ea 2cbe b9f4 76bd 9e05 0cbf 9406 afbf
000001e0: 41c9 b43e 13bd 22c0 2f3b e9bd c1ef d3bf
000001f0: 0236 5ebf ed1e f8bc 2a64 5cbd 1237 cb3e
1.093687 0.9843202 0.34502903 -2.1477728 0.011802155 -3.4070833 -0.964218 0.9712255
-0.613496 0.8828969 -1.0768082 0.8175496 -1.9408543 -0.57268596 -1.6584449 1.2487634
-3.1327496 -0.13391823 0.019118156 2.688587 -3.8311002 2.4706378 -0.6117146 -0.08743265
-0.04799573 -0.044965982 -0.10691027 1.2717361 -0.0642342 -0.8253441 -0.16959459 -2.464572
-0.046710882 -0.026249506 3.478113 -0.111291446 -0.06580516 -0.7148713 2.4557033 -0.59980166
-0.95578665 2.2907903 -1.2730771 -0.8095131 0.95345193 -0.027999401 0.35283455 -1.7276889
-0.04182448 0.6150924 -0.014902388 -0.10551854 0.05173612 -3.1423512 0.75255203 2.7060087
-0.513961 1.2886882 2.5846899 -1.0126337 0.2403619 1.679909 -2.0580683 -0.8559981
-0.25517094 -0.04123099 -2.3876534 2.2548304 -0.106574774 1.6812822 -0.55913454 0.46333084
-2.1737897 -1.1780297 0.9608944 0.8690833 -3.5935602 -0.17168266 0.021145733 2.1186466
-0.32541245 -2.0218358 1.1039389 1.6168771 0.4309399 -0.09968498 -1.1076947 -0.10131659
-0.06960299 0.08736099 0.44192055 -0.8914649 2.5137553 1.5896515 -2.0719008 -1.6592153
-1.5266188 0.5681586 -1.0258435 -0.44281647 -0.74655753 -0.10809102 0.23787686 -1.1340525
-0.62875 0.008414291 -0.7299178 -0.13527055 1.028564 -2.0325937 -2.8301508 -1.4333972
-0.48130643 -0.06131517 -2.0970418 -0.04939024 -0.1688651 -0.06029198 -0.5469607 -1.3673882
0.35309795 -2.5427902 -0.113882415 -1.6557542 -0.8680116 -0.030288184 -0.05380646 0.39690453
