2ARO_Knapsack/post train NN data/20 instance 50 scenarios/model_weights_20_instance_50_scen.pth (torch, 103168 bytes, 13 tensors)

embedding_instance.weight f4 [128, 102]
00000000: c276 0dbe 6e1d 433f 2cfc 463f a97e 0c3f
00000010: b5e7 4c3e 57f7 cd3e 5680 913e 4694 debc
00000020: 1d6c 9b3d ff37 8e3d 9fd4 173f 2c9d 8bbe
00000030: 73d0 283f 6934 cfbe 7b60 ba3e 32fa 8bbe
00000040: 882c 35bf 5062 acbb 122d 8bbe 66a4 253d
00000050: 52bc 5dbe a20c 763e 5891 f73d 3bee febe
00000060: 13e3 1cbf f953 af3e 99f1 f1bd 7654 e5be
00000070: 34ed 3bbe b2b0 cbbe 0905 453e 34b0 523f
00000080: 1191 8a3e 8ec9 613e 8602 013f a6ae 67bd
00000090: 2b8d 13bf 635d 0ebf 3251 0ebf bb44 41bc
000000a0: 2588 21bd b56d 643f d60e 59bf 1b79 943c
000000b0: b426 1c3e 8963 7a3f 7590 7cbe dd44 283e
000000c0: 58e8 80be 730d c4bf f0a6 a03e 7c4f a1be
000000d0: ca4c 88be c2d7 813c 7145 40bb a723 69bf
000000e0: bdbc b83f 6738 4cbe ad46 d73e 1a63 a43e
000000f0: 97a9 bb3e a8d4 a1bf b7d1 89bf e62b 06bf
00000100: 4932 223f 3945 5dbf 0b25 7d3f bd37 023f
00000110: 5b0b 41bf 34d5 623f 47f5 46bf d792 5fbe
00000120: f42f 37bf 9a3a 21bf ff61 23be 18e5 2a3f
00000130: 8e66 c93f 9d39 ac3e ee2b 663f da07 e23e
00000140: 71dd 2c3f 3bbe 0b3c 9a63 83be db17 983f
00000150: e4dd 73be 6746 333f 42af 50bf 8713 813e
00000160: ea28 b1be c680 40be 6f02 203f 8881 37be
00000170: 0582 4ebf 0b76 9d3d 617c 0c3f 421e 9b3d
00000180: 655e cd3e 7935 5ebf be25 68be ef81 c2be
00000190: 4c6f fa39 2f9e 27be ebe2 e5ba 8170 8fb9
000001a0: 102b dc3b 2e0f a8bc c8ad 9c3c 9a33 583c
000001b0: bed9 2abc 9445 8e3c 74ab 8abc 11f0 013b
000001c0: 3815 5b3c 0383 54bc 48b0 aa3b b677 22bd
000001d0: e13c 9c3a e580 57bc 062a 453c f8c0 ecbb
000001e0: 861c 593c e954 0e3c e482 16bc d3ed 7a39
000001f0: c319 01bc bedf 1c3c fcec 3dbc 7e7a 97bc
00000200: 6662 5d3c 9144 bbbc 1437 163c c9be 6ebc
00000210: 3251 96bc e208 de3a d543 e93b c108 1d3d
00000220: 062c 223c 7179 1a3c 8d14 7dbc 2523 1cbb
00000230: 6c7f 72bc b38e 1fbc 154c 27ba 4feb 6d3b
00000240: 02b0 d9bb 3b6a 20bb 5896 3dbb 5555 bdbb
00000250: 1880 1c3b db3f 8138 0532 bbbb bd68 6939
00000260: 6b9a ba3b 46e9 023c 689b 28bb 2102 eb3a
00000270: 9d76 e73b 439f 1ebb dcb6 b13a f221 723b
00000280: ff7b d939 10bf f4bb c06f 8b3a f2a0 ee3b
00000290: 6852 d5ba 6812 153c 7757 49bc 3b53 223c
000002a0: 0878 50bc aa23 7a3b 2a5c 503b 0fcc 8d3b
000002b0: b439 c1bb d7e3 c9bb cb05 11bc 11d7 42bc
000002c0: 619b 85bb 7be7 b73b d228 5bbb c519 2fba
000002d0: c1b7 853b 8f24 013b 4100 d73a ba54 633b
000002e0: 0598 8ebb 0afb ccba 2998 3a3a 20b0 9dbb
000002f0: 3093 91bb 75db 953a 3da3 1a3b 3950 123b
00000300: c457 08bb 02ac cdbb e4d0 b03b bdd6 e7ba
00000310: dee3 47ba 7663 023b 8676 893a 397f 1fbc
00000320: e1b3 9ebb a0ee b2bb 12a9 3f3b 0d44 5ebb
00000330: 1e6d 5f3a dc51 3fbd 662e afbc d264 28bc
00000340: 8d98 273c 18fa 5638 138c 33bd 8d3d 28bc
00000350: 227e b23b eddc afbc 42ba ddbb a069 f73b
00000360: 6157 583c bb56 f0bb 914a 1abc ee79 89bc
00000370: 28c9 5ebb ead0 8b3c 6565 91ba e325 0ebc
00000380: 1f78 81bb bea9 173d 4d76 fa3c 275d 89bb
00000390: 70f2 5ebc cd10 30bc 25c9 313d ada6 5fbb
000003a0: c99e a1bb cbad b33c 14a5 2bbc cbfd 9ebb
000003b0: 7fc0 f8bb 7273 e83b 5bef b23b ba6a 843b
000003c0: a9b7 a63b 768c b0bc 1132 b13a 021a 853c
000003d0: e719 8e3b d146 33bb ebf4 0ebb 865a a63a
000003e0: f8f6 28bb a318 20bb bd3a 883b 84fc e53b
000003f0: 83df 763b 5ec2 edba fe1a d0ba 83de f13b
-0.13814834 0.7621678 0.77728534 0.5488077 0.20010264 0.40227768 0.28418225 -0.027170312
0.0758898 0.06944274 0.5930881 -0.2726835 0.6594307 -0.40469673 0.36401734 -0.2733932
-0.70771074 -0.005260743 -0.27182823 0.040439986 -0.2165387 0.24028257 0.12088269 -0.4979113
-0.6128399 0.34243754 -0.11813659 -0.44791 -0.18352205 -0.39783245 0.19240202 0.82300115
0.27063802 0.22049543 0.50394475 -0.056563042 -0.5763728 -0.55611247 -0.55592644 -0.011796172
-0.03943648 0.892299 -0.8478826 0.018124154 0.15249139 0.9780813 -0.24664481 0.1643252
-0.25177264 -1.5316604 0.31377363 -0.31505954 -0.26621085 0.015849952 -0.0029338265 -0.91070026
1.4432598 -0.19943391 0.4204611 0.32106858 0.36652824 -1.2643023 -1.0767125 -0.52410734
0.6335798 -0.8643375 0.9888465 0.508663 -0.7540795 0.8860657 -0.77718014 -0.21833359
-0.71557546 -0.62980044 -0.15955351 0.6675582 1.5734422 0.33637705 0.8991078 0.44146615
0.6752539 0.008529241 -0.25661927 1.188228 -0.23815113 0.700293 -0.8151742 0.2521021
-0.34601527 -0.18799123 0.62503713 -0.17920506 -0.80667144 0.076885305 0.5487729 0.075741306
0.4011108 -0.8680034 -0.22670648 -0.37989756 0.00047766638 -0.16368936 -0.001753894 -0.00027358907
0.0067190006 -0.02051505 0.019125834 0.0131958965 -0.01042789 0.017367162 -0.016927458 0.0019826929
0.013371758 -0.012970689 0.0052090026 -0.039664946 0.0011919999 -0.013153289 0.012033945 -0.007225152
0.013251429 0.008687236 -0.00918648 0.00023930454 -0.007879677 0.009574829 -0.011592146 -0.018491026
0.01351223 -0.022859843 0.009168405 -0.014571854 -0.018349264 0.0016939903 0.007118682 0.038338427
0.009898191 0.009428368 -0.015446794 -0.0023824659 -0.014800888 -0.009738612 -0.00063818815 0.0036303585
-0.006643296 -0.002447738 -0.0028928723 -0.0057779946 0.002388006 6.163093e-05 -0.00571275 0.0002225963
0.0056946776 0.007990187 -0.0025727395 0.0017929712 0.0070637004 -0.0024203814 0.0013558525 0.0036946503
0.0004148185 -0.0074690655 0.0010638162 0.00728237 -0.0016275169 0.009098627 -0.01228892 0.009907539
-0.01272393 0.003816823 0.0031793215 0.004327304 -0.0058967713 -0.006161194 -0.008851479 -0.011892096
-0.0040773605 0.0056123114 -0.003344108 -0.000667956 0.004080743 0.0019705629 0.0016403274 0.0034687952
-0.0043516182 -0.001563878 0.00071180105 -0.0048122555 -0.004442595 0.0011433201 0.0023595833 0.0022325648
-0.0020804266 -0.0062766084 0.0053959955 -0.0017687898 -0.00076252024 0.001989571 0.0010487593 -0.009734922
-0.0048432206 -0.005460575 0.002924506 -0.0033915073 0.00085230346 -0.046708927 -0.02138443 -0.010277944
0.010229242 5.1254494e-05 -0.043834757 -0.010268581 0.005447165 -0.02146765 -0.0067665884 0.0075504333
0.0132044265 -0.007334558 -0.009417192 -0.016781773 -0.003399441 0.017067391 -0.001109284 -0.008676025
-0.003951087 0.037027113 0.030573988 -0.004192013 -0.013607606 -0.010746193 0.043404717 -0.0034126446
-0.0049322587 0.021933457 -0.010476369 -0.004852032 -0.0075913067 0.0070938403 0.0054606623 0.004041043
0.005087812 -0.021551352 0.0013518949 0.016247753 0.004336584 -0.0027355442 -0.0021813463 0.0012691773
-0.002578197 -0.0024428747 0.004157393 0.0070186276 0.0037669844 -0.0018139591 -0.0015877185 0.007381262

embedding_instance.bias f4 [128]
00000000: 6dc5 4cbf bd9e b43b 1fd9 c9bb 7913 883e
00000010: f77e 0f3b e793 7fbf f18a 3d3b e810 4c3b
00000020: 99ec 88bb f357 803c 2597 0fbb 542d b5bf
00000030: 0315 9eba 563d 903c e9dc 563f b4c4 8abe
00000040: 92a1 863c 706d b739 cb99 fa3a 591a b5bf
00000050: c8b1 553f 1d02 293a f83f c83f 7efd f5bb
00000060: d4ae 61bc 9810 c5bf b6af caba 92d1 c1bb
00000070: 4580 3ebb c6a1 523b abbc 633a 881c a03b
00000080: 0592 3c3c fd6d e33e 65bf 633b 2afb b9bf
00000090: 9007 073c acbe 05bc 91f4 9d3c 2b1a 5c3f
000000a0: 9f97 893f 2157 78bc cf5a a4bf 465b 203d
000000b0: 9e0a 843f a132 b1ba ba61 a3bb 916c 97ba
000000c0: ebcc d9ba ac7d 6fba 8e9d 5a3b d133 4ebb
000000d0: 4114 013c b8cb 93ba 02ce d3bb 2d0f c0bf
000000e0: bf1d 233c d3a6 f33b 487f a1bb b691 4abc
000000f0: f243 e73a 73ca 95bb 8ee3 5cbb 1526 f2ba
00000100: 6231 94bf 0533 45bc b5d1 18bb ec70 22bf
00000110: 6174 b13c 8dc1 0bba c8c0 823a d850 ccbb
00000120: 4a5a 153f d2ec 203b 9fd6 6d3c 8dca 553c
00000130: 17a4 ea3b 1b53 493c 9558 b7bf 7c7b b9bd
00000140: 36d0 05bc 7ea7 453b 6146 913c 1102 9dbf
00000150: 981c 9e3c 7410 003f b30a 633f 2364 0e3c
00000160: eb3c a43f 1749 c23b 3a3d 583b 5de6 223c
00000170: 0e0d c0bf 704d 82bb eacc 023f 1e86 89bf
00000180: 7c43 b63f 0217 6a3c 6d31 b7bf adc5 feb6
00000190: 6559 e0be 0a7d b8bd 3027 05bf 6066 89bc
000001a0: 2808 c8ba 8411 77bb 7193 f2b9 294d 703c
000001b0: d87e ca3a f56f acbf 016b 863e e2b6 90bb
000001c0: 1f4c a13f cf3c e6bb 02a0 cb3f b2d9 bcba
000001d0: 4db7 c63b 7457 fa3b e0bc 7f3a 2d0e 07bc
000001e0: 289b 64bc 9375 b43b c49d 95bf 59ce f2bb
000001f0: 9e3d 963b 6e9e b2bb a904 98be a3c4 96bb
-0.7998875 0.005512087 -0.006159916 0.26577356 0.0021895745 -0.99835056 0.0028921927 0.0031138007
-0.0041785953 0.015666937 -0.0021910158 -1.4154458 -0.0012060705 0.017607372 0.8393083 -0.27103198
0.016434465 0.00034986017 0.001911932 -1.4148666 0.834744 0.0006447153 1.5644522 -0.0075070253
-0.013774592 -1.5395689 -0.0015463743 -0.0059148753 -0.0029068154 0.0032139882 0.00086874765 0.0048862137
0.011509423 0.44419852 0.0034751531 -1.4529774 0.008241549 -0.0081631355 0.019281657 0.8597743
1.0749396 -0.015157492 -1.2840213 0.039149545 1.031574 -0.0013519117 -0.004986015 -0.0011552741
-0.0016616856 -0.0009135853 0.003335807 -0.003146399 0.007878364 -0.0011275923 -0.006463767 -1.5004631
0.0099558225 0.0074356585 -0.004928503 -0.012363842 0.0017644151 -0.004571253 -0.003370497 -0.0018474484
-1.157757 -0.01203609 -0.0023318355 -0.63453555 0.02166194 -0.00053312705 0.0009975666 -0.0062352233
0.58340895 0.0024555218 0.014516502 0.01304878 0.0071606743 0.01228788 -1.4323908 -0.09056756
-0.008167317 0.0030159648 0.017733755 -1.2266256 0.019300744 0.50025105 0.886882 0.008690867
1.2831091 0.005929123 0.0032995478 0.009942618 -1.5003984 -0.0039765164 0.51093924 -1.0744054
1.4239345 0.014287712 -1.4311959 -7.5928024e-06 -0.43818203 -0.09008224 -0.5201292 -0.016772449
-0.001526122 -0.003769965 -0.0004626769 0.014666834 0.0015449179 -1.3471667 0.26253513 -0.0044163326
1.2601355 -0.007026292 1.5908206 -0.001440814 0.0060643316 0.0076398198 0.00097556226 -0.008243126
-0.013953008 0.00550718 -1.1688771 -0.0074098525 0.004584982 -0.005451015 -0.29691055 -0.0046010776

embedding_X.weight f4 [15, 20]
00000000: c410 c6be 85fd 07be 0e89 423d de30 27bf
00000010: 2669 22bf 855d acbf 1104 113f 8388 473e
00000020: 9ced 7abf b547 3dbf deed 333e f873 21bf
00000030: 0ce3 7c3e ab02 54be 0a0e c438 b0d3 e7be
00000040: 3559 cfbe cfcb 8a3e 070f 783e e834 a0be
00000050: 4a6f 20bc d58c 91be d7ce 333f 8705 643d
00000060: 3852 a83e 99a4 cfbd 3ae1 f53d bcc1 683f
00000070: 4109 8a3e 80bf 463e 6ac9 af3d bcfc 25bd
00000080: d425 5a3d 6961 a2be 98d2 853e e3ac 0d3e
00000090: f88a 243f 202d 1d3f 8365 143e cd1f 2b3f
000000a0: 4704 f93e 1731 c53e 3379 1ebd 2c52 e43f
000000b0: a14d f43d 9dd9 133e fc4a 5fbf 6a2c 953d
000000c0: 2452 0cbf 8274 67bf ef34 89bf d900 a13f
000000d0: 49cf b53f fb2c c9be 73cb 39bf 94a4 96bf
000000e0: be1a 393f e99f 3e3f ca65 a0bf da72 b13e
000000f0: 4a83 84be 7271 213f 82e5 593f a74a a9be
00000100: 7efc 383e 484b 9abe be83 77bd e382 c43e
00000110: 57b8 b93d c13d f83d c4da 0cbf 1e30 0cbd
00000120: f506 4d3f 617a 363f 02c6 1b3f 28b5 b4be
00000130: fbef 34be 257c 233e 133e 463e 731d d13d
00000140: b756 c33d ff3e 56bf 45dc c53e aff1 42bc
00000150: 0fce 04bf 315c c93f 4317 3d3f a776 413f
00000160: 8687 7b3f 974f 91bc c23c fa3e f5dc 1dbf
00000170: c353 623e c7b5 66bd 6f4c 99bf c45e e7be
00000180: d8c7 cc3f 8b0b 6a3e ff07 38bf a5d3 98bf
00000190: 7f80 5fbf 1e60 743f 23f4 a83e 2ea4 6abe
000001a0: 744f 55be fd9d c43e 61c0 1b3d c73d e3be
000001b0: 50c0 e4be 7753 b3bd 3171 74bf 413f 273f
000001c0: ad9b 33bf 7b21 57bf cd14 19bf b470 e2bd
000001d0: 3f06 093f ffef ec3d 77d1 513f f4a0 00bf
000001e0: 109d 1abd dc10 32bf 46f1 4fbe c21e 5abf
000001f0: 59b5 40bf 08f2 993e ac91 89bf c3f8 4dbf
00000200: 2594 5abe c191 a53b a3cf 1cbf 32bf 83be
00000210: d40d dbbe e83e bdbc 8be7 d63e b9d5 b5be
00000220: 9537 363d 96bb 393e 67f6 b9be 2e24 dfbe
00000230: efe8 1cbf a83d 1fbe cede a63e e7cc 223f
00000240: a15d c2be 5284 2b3d 8a24 e5be b11a 06be
00000250: 0714 e03a faca 68be a798 bb3e c89b d33e
00000260: 3c83 80bf 28c4 1fbf d95a 33bc 116a 7abf
00000270: fa8c 5bbf 4d5f 8cbf 6562 7cbf 26ca 5d3e
00000280: 7192 793f b42b aa3e 0d83 843f 0066 25be
00000290: bf83 34bd 605e 043e 5fcc 333f d26d 4dbe
000002a0: 03ea a6be 33a8 5c3f 60e0 c9bc 4a7f 323f
000002b0: 443b 45bc af3f fbbe 0c8d 1c3e a22b 15bd
000002c0: 8c60 efbd 941e c43e 2821 a3bb 7eac 343d
000002d0: 98d9 953e 8a1e 753f 29ac 85bf c75d d53e
000002e0: 5fbd 613f 646f a6be 503e f5bd b37b 613e
000002f0: c04d 813f b7a6 4abf d5f5 9fbc af00 853e
00000300: 00e2 863d a090 48bf ae5b f93f 62c8 02bf
00000310: 72de 1d3f 01c5 26bf c2e1 8c3e 7746 80bf
00000320: 4bd0 913e 9eff 1ebf 5806 273e 1f56 ff3f
00000330: 6934 1fbe c1c0 193e 22b1 3ebf 2ff2 9e3f
00000340: 07b6 b3be c61e a7bf f0bb 0bbe cde8 7b3f
00000350: 4d13 66bf 646e 843f 324a 0bbd 4a25 833f
00000360: 1f89 55bf 1002 403e 407c a83e 2c85 82bf
00000370: e9fc 69bf 91ea 9cbf 5295 503f 41cd 99be
00000380: 0dab 033f 3a22 c6be 0691 403f 60b0 aebd
00000390: 91b5 243e 54b0 23bf a645 80bf b688 603e
000003a0: 5fa5 febe 45cc 7d3e 7244 bbbd 5096 db3e
000003b0: cce3 a63e f639 043f 7215 8dbf aecd ab3d
000003c0: d06d 3b3c ed9f 943e d8e5 35be 776e cf3e
000003d0: d19b 32bf 38d8 323f 90ab 2e3d ea7f 25bd
000003e0: 87c4 013f 1a14 42be 4a75 4e3f 7177 093f
000003f0: e3ef 503e d6f7 5c3e 4fc5 043f 5fbc 673e
-0.38684666 -0.13280304 0.047493987 -0.6530894 -0.63441694 -1.346604 0.5664683 0.19485669
-0.98018813 -0.7393754 0.17571208 -0.6306758 0.24695987 -0.20704143 9.348623e-05 -0.45278692
-0.40497747 0.2710862 0.24224482 -0.31290364 -0.009792158 -0.2842776 0.7023749 0.055669334
0.32875228 -0.101388164 0.12005849 0.90920615 0.26960185 0.19408989 0.085833386 -0.04052423
0.053258732 -0.31714943 0.26137233 0.13835482 0.6427455 0.6139698 0.14491849 0.668454
0.48636076 0.38514015 -0.038689803 1.7837577 0.11928869 0.14438482 -0.8722379 0.07283862
-0.54812837 -0.9041215 -1.0719279 1.2578384 1.4203883 -0.3929213 -0.72576064 -1.1768975
0.7230643 0.74462754 -1.2531064 0.34657937 -0.25881416 0.6306373 0.85115826 -0.33064768
0.18065068 -0.3013556 -0.060428374 0.3838111 0.09068363 0.121211536 -0.5502131 -0.034225576
0.8008874 0.71280485 0.6084901 -0.3529446 -0.1766967 0.15965326 0.19359617 0.10210695
0.09538024 -0.83689874 0.38644615 -0.011898442 -0.5187692 1.573126 0.7386362 0.75571674
0.9825367 -0.017738147 0.4887448 -0.6166528 0.22102265 -0.0563257 -1.1976451 -0.45189488
1.5998487 0.22855966 -0.718872 -1.1939589 -0.87305444 0.95459163 0.32998762 -0.22914192
-0.2083109 0.38401785 0.038025264 -0.4438307 -0.44677973 -0.08756154 -0.95485216 0.6533089
-0.7015942 -0.8403546 -0.59797364 -0.11056653 0.53525156 0.11569213 0.81960243 -0.50245595
-0.037747443 -0.69556975 -0.20306882 -0.8520318 -0.75276715 0.30067468 -1.074758 -0.80457705
-0.21345575 0.0050527756 -0.6125433 -0.25731808 -0.42783988 -0.023101285 0.41973528 -0.3551462
0.0444866 0.18137965 -0.36320803 -0.4358229 -0.6129293 -0.15550864 0.3259186 0.63593906
-0.37962058 0.041874237 -0.4475444 -0.1309612 0.0017095812 -0.2273368 0.36639902 0.4132979
-1.004005 -0.62408686 -0.010946953 -0.97818094 -0.8576199 -1.0966583 -0.9858764 0.21659145
0.97489077 0.33236468 1.0352494 -0.16152191 -0.044070955 0.12926626 0.7023372 -0.20061424
-0.32600412 0.8619415 -0.024643123 0.6972548 -0.012038056 -0.49072024 0.1528818 -0.036418565
-0.11688337 0.3830458 -0.004978318 0.044109814 0.29267573 0.95749724 -1.0443164 0.4167311
0.8817958 -0.3250686 -0.11974776 0.22019844 1.0101852 -0.79160637 -0.019526402 0.25977084
0.06586075 -0.7834568 1.9481103 -0.5108701 0.6166755 -0.65144354 0.2751599 -1.0021504
0.28479227 -0.6210879 0.16311014 1.9948157 -0.15547337 0.15014936 -0.74489033 1.2417659
-0.35099813 -1.3056266 -0.13645911 0.984021 -0.898732 1.0346189 -0.034006305 1.0245755
-0.83412355 0.18750787 0.32907295 -1.0196891 -0.91401535 -1.2259084 0.81477845 -0.3003941
0.5143288 -0.38697988 0.7522129 -0.085297346 0.16084887 -0.6394093 -1.0021255 0.21927151
-0.49735543 0.24784954 -0.09143914 0.42888117 0.3259567 0.5165094 -1.102217 0.0838884
0.011439756 0.29028264 -0.1776346 0.40513965 -0.69769007 0.69861174 0.042644083 -0.04040519
0.506905 -0.1895298 0.8064772 0.5369788 0.2040401 0.21578917 0.5186357 0.22630452

embedding_X.bias f4 [15]
00000000: c4ea dc3f 7ef0 d8bf 5754 3abd f95b d5bf
00000010: 23f7 82bf 257f ce3f 53ee da3f b224 b53f
00000020: 1f17 eabf e130 0bbf 1d33 33bf 7aaa d53f
00000030: 93d9 edbf fa13 d3bf 30eb e43f
1.7259145 -1.6948392 -0.04549059 -1.6668693 -1.023167 1.6132551 1.7103981 1.4151824
-1.8288306 -0.5437146 -0.6999987 1.669265 -1.8582023 -1.6490471 1.7884274

embedding_uncern.weight f4 [15, 20]
00000000: 83ca 1c3e c19b 003f 4a41 c3bc 6242 883d
00000010: 8355 133f de2e 1d3f 4dc3 e3be 8fc2 383f
00000020: 60d7 48be 21d9 993f 8f66 943f b8eb 013f
00000030: 14a6 78bf b335 ed3a 6458 233f 3ac6 3d3f
00000040: 4bc7 53bd b775 353f de31 4ebf b805 513a
00000050: 2c98 673f 4391 68bf b1f1 fd3e 349c 2f3f
00000060: f1b8 1b3f 0f2c aabe 5239 15bf 5a76 febc
00000070: eb88 003d 0733 f03e 3847 02bf 3526 c5be
00000080: bf22 0d3d 70e2 11be e34c 78be b1b6 37bf
00000090: eef5 50bd 011a d03e 3153 0b3f 31c9 aa3f
000000a0: cc3b 523f b02b a03f 0327 31be 548c 24bf
000000b0: bfca f3bc 36d5 2f3d 8936 753e 4055 013d
000000c0: 3330 ea3e 8569 983e 8175 ac3e beeb f7be
000000d0: 4ee5 62be 78fa d1bf 8baf 623d 975f 51be
000000e0: 660a fe3e 750a 1abe e9dc 453e 421d 38be
000000f0: 92e7 783e 47e5 d8bd 918a bcbe 7c13 d4be
00000100: c5f6 77bf f750 50bf 1fff 113f 3902 8bbe
00000110: 5eb6 64bf a013 ef3e eeab 2bbf 5c76 8cbe
00000120: 98f3 d0bf 59f3 97bb 7f05 d3be 5c26 de3c
00000130: 9219 b63e cb85 133f 814f e7be 401c 8cbe
00000140: 7acc 89be 0ad2 00bf 89fe 0dbd 70e2 91bf
00000150: 1a76 1fbf cd96 fd3e 19d8 58be b579 9c3e
00000160: 9eed 9a3e c548 493e ae83 58be c0ee 813f
00000170: 9098 4d3e 1101 1dbf f282 c63c 48b7 073e
00000180: 21f4 c53e c93e 17be 7db0 6abe 596b 903f
00000190: bd60 0cbf a704 f73e 1977 c5bf 8011 10bf
000001a0: 76b8 8fbc 0406 06bf 62ab cabe f376 2fbd
000001b0: 2c08 40be 5599 69bd 0c7e 243f 16c2 42bf
000001c0: ce13 27bd 6045 803e bf81 c83e 78fc 42be
000001d0: 923e 2b3f 1fed d1bd 60c6 133f 61a8 6f3f
000001e0: 53eb fa3e 4e6a 90bd 8afc b4bd 4a47 113f
000001f0: b4b0 11be 3788 03be 0c68 64bf d127 e23d
00000200: 7dc4 9abe 69e6 e53e 0f14 27bf 237e f73e
00000210: 93a7 d03e 86f3 e4be 1f3d 4c3f b475 063e
00000220: 30ca 3e3e 979a b33f 1f7b 403f 8a21 18bf
00000230: 5b64 d23e cf49 19bf c1f2 aa3e 5eb0 6cbf
00000240: 3c2d cf3e a872 793f c6cf 5abf 9605 87bf
00000250: 5aac 31bf 9343 aa3e 5046 4d3f 5a7b 01bf
00000260: 2e66 93bf a20a c03e 98a8 d23e 52a4 18bf
00000270: af14 c6be cb1f 2abf abe7 743e 1658 aabe
00000280: 566a 46bf 9fc6 09be f9f4 82be 9591 13bf
00000290: c316 cfbc 84cd 18bf 9ae5 6f3e 897d 793f
000002a0: dcac a83c 5651 f93f f0df bcbf a2d1 f73e
000002b0: c8f1 aa3e 8abe abbe 9824 7abe ace5 c8bf
000002c0: c805 fabe 0430 1cbe a24a 193a bed9 23bf
000002d0: 9d75 113e c6e6 14bf 2b08 9bbe 6de2 edbe
000002e0: 9161 963f 85f5 c6bf b9d4 2f3f 9638 3e3f
000002f0: 0bf9 cdbd dd21 ad3e b8fb f73d 2f42 08be
00000300: 44e8 b3bc d758 2d3d 9fa6 a5bc bea8 ec3e
00000310: a660 90be 17b4 a43c d7b5 e5be b494 4c3e
00000320: dc6f 413e cc68 6abe 35ea 813d dc5d a1be
00000330: 10f4 39bf 90a1 8abf 58e4 84bc aeef 633e
00000340: 241d 3f3f efe4 fa3e 7276 57be d1dd 75bf
00000350: 2270 acbd 3f9a 943f eef5 bc3f aea0 783e
00000360: 228d 913e 820d 75bf b7df 84be 6a33 dcbe
00000370: fb6b 213e f297 bb3f 8c9c 3d3f b79c 0b3f
00000380: 8bbe 8d3e fe98 55bf b111 13bf 6c78 f0be
00000390: daf2 0cbf 9b03 cfbe 8154 7dbf eda7 783d
000003a0: 7edd 0e3d 9235 3f3d 699d 66bd 0845 c33e
000003b0: f607 303f d611 14bf 211e f63d 47ed 273f
000003c0: 78a9 d7bd 7d7e 47be 9f8e d23d 38ab 8abe
000003d0: 6c41 1f3f 97a9 9dbe d9a9 393f 0020 2bbf
000003e0: 34e1 36be def2 f93e f52c 143f 9ff2 953e
000003f0: afbf 1e3f ec73 01bf f48a d13e ec73 743f
0.15311627 0.5023766 -0.023834843 0.066532865 0.57552356 0.6139964 -0.4448494 0.7217187
-0.19613409 1.2019387 1.1593798 0.50750303 -0.97128415 0.0018097669 0.6380675 0.74130595
-0.051703732 0.70882744 -0.8054484 0.00079735694 0.9046657 -0.9084665 0.49598458 0.6859772
0.60829073 -0.3323674 -0.5829059 -0.031062294 0.031380575 0.4691393 -0.5088992 -0.38505712
0.034456965 -0.14246535 -0.2424808 -0.7176314 -0.051015787 0.4064484 0.54423815 1.3342649
0.8212249 1.2513332 -0.17300038 -0.64276624 -0.029759763 0.042927943 0.23946585 0.03157544
0.45739898 0.29768005 0.33683398 -0.48422045 -0.22157785 -1.6404562 0.055343192 -0.20446621
0.49617308 -0.15043052 0.19322552 -0.17979911 0.24307087 -0.10590606 -0.36824468 -0.41421115
-0.96860915 -0.8137354 0.5702991 -0.27150133 -0.8934077 0.4669466 -0.6705922 -0.2743405
-1.6324339 -0.0046371636 -0.4121513 0.0271179 0.35566384 0.57626027 -0.45177844 -0.27365303
-0.26913816 -0.50320494 -0.03466657 -1.1397228 -0.62289584 0.49529114 -0.21176185 0.30561605
0.30259413 0.19656666 -0.21143982 1.0150986 0.20077729 -0.6132975 0.024232361 0.1325351
0.38662818 -0.14770044 -0.22918887 1.128276 -0.5483511 0.48245737 -1.5426971 -0.562767
-0.017544013 -0.5235293 -0.3958388 -0.04283805 -0.18753117 -0.057030994 0.6425483 -0.760774
-0.04079037 0.2505293 0.39161488 -0.19041622 0.6689235 -0.102503054 0.5772457 0.936163
0.49007663 -0.07051526 -0.088372305 0.56749403 -0.14227563 -0.1284493 -0.8922126 0.110427506
-0.30228034 0.44902351 -0.6526498 0.48338422 0.4075285 -0.44717044 0.79780763 0.13130838
0.18631816 1.4031552 0.7518787 -0.59426177 0.4109219 -0.5987825 0.33388332 -0.92456615
0.404642 0.97440577 -0.8547329 -1.054858 -0.6940361 0.3325468 0.80185413 -0.50578845
-1.1515558 0.37508112 0.41144252 -0.5962573 -0.38687655 -0.6645476 0.239165 -0.3327033
-0.77506006 -0.13454674 -0.25577524 -0.57644016 -0.025279408 -0.5968859 0.2342743 0.97457176
0.020590238 1.9477947 -1.475584 0.48402125 0.3338759 -0.33543807 -0.24428022 -1.569509
-0.48832536 -0.15252692 0.0005847608 -0.64004123 0.14205022 -0.5816463 -0.3027967 -0.46461812
1.1748525 -1.5543677 0.68683964 0.74305093 -0.10057267 0.33814898 0.121085584 -0.13306497
-0.021961339 0.042321052 -0.020221053 0.4622249 -0.28198737 0.020105405 -0.44865295 0.199786
0.18890327 -0.2289154 0.063434996 -0.31516922 -0.72638035 -1.0830555 -0.016222164 0.222594
0.7465384 0.49002787 -0.21041277 -0.9604159 -0.08419825 1.1609572 1.4762552 0.24280044
0.28427988 -0.95723736 -0.2595193 -0.43007976 0.15763848 1.4655745 0.74066997 0.54536
0.27684435 -0.8343657 -0.5744887 -0.46966875 -0.5505806 -0.40432438 -0.9895707 0.06070702
0.0348792 0.046681948 -0.05630246 0.38138604 0.6876215 -0.57839715 0.120174654 0.6559643
-0.105303705 -0.19481845 0.10281109 -0.27083755 0.622092 -0.3079345 0.7252479 -0.66845703
-0.17859346 0.48818105 0.578811 0.29286668 0.62011236 -0.5056751 0.40926325 0.9548938

embedding_uncern.bias f4 [15]
00000000: f6ee 923f 4737 573f b5e1 c0bd 9ce5 1b3f
00000010: 881d 933e 21aa 4a3e 7606 12bf 9d60 70bf
00000020: 4a9f b23e 1d6a 5abf d5c3 2b3f 5dad 13be
00000030: f9ac 803f 5e43 1a3f 2c25 513e
1.1479175 0.8406872 -0.0941805 0.6089723 0.28733468 0.19791462 -0.5704111 -0.9389742
0.34887153 -0.85318166 0.6709569 -0.14421602 1.0052787 0.60259044 0.20424336

fc1.weight f4 [54, 158]
00000000: 7c56 1abe f455 6ebc 9fa2 88bc 550c 593e
00000010: bc7d 0cbb 318a 4bbe 9c44 74bc b311 66bc
00000020: c9fd 56bb c373 72bc eb2c 8e3b 6a83 babe
00000030: 5709 233b e533 75bc c44a 09be c32f 7b3e
00000040: f7a9 87bc c5f9 433c d171 4d3c a055 61be
00000050: d96e 853d 465a 1fbc 2014 d73e 1f81 533c
00000060: 5901 733c 68ba 7cbf 4e9e ddba 44e1 793c
00000070: 303a 90bc e88b 093c 0c01 8e3c f015 573c
00000080: ebec eebb 7142 73bf 6873 803c a782 7abe
00000090: e0f4 72bc ca6c 983a 5ed8 96bc dcec 70be
000000a0: 9386 783f b44b 8cbc a106 413f cf44 f3be
000000b0: 9c26 5f3e bae0 77bc 38f9 67bc a02b 043c
000000c0: e8f5 8b3c 2990 833c da1e 803c 0c31 34bb
000000d0: 7d9d 713c e130 79bc 8b35 7c3c 4b1c 87be
000000e0: 560e 883c 85ae 883c 40f8 cbbb 24d2 92bb
000000f0: bf20 a13b 9cc0 edbb 4042 793c 703b 873c
00000100: 20a2 e4be 0b83 773c 2e2e 773c 290e b0be
00000110: a32a 76bc 7ee5 49bc 277b 63bc ef9a 813c
00000120: 9644 d2be 5730 823c 6c80 84bc 7b51 56bc
00000130: 5fc9 d3b9 9fe7 80bc 9bb1 e4be 6275 a13e
00000140: b561 6e3c 56e0 07bc b279 82bc db3e b2be
00000150: 73de 86bc 12a5 56bf a9c1 213f 2552 83bc
00000160: 5b57 e23b 063c 823c 780b 0dbc fbf0 3e3c
00000170: f46d c03f 425e d0bb a41f 863d 03fe 163f
00000180: 5751 113f 43a1 70bc 7188 04bf a254 87bc
00000190: 35d3 3fbe f16f eabe 206f 67bc 6583 283c
000001a0: fbc9 f93b a079 6fbc 8149 86be c94f 8dbc
000001b0: 486d 813c c0ed 013f c06d 39bf ec31 d6b9
000001c0: bb7a bb3f 55df 8e3c 71c2 dd3f fb30 7a3c
000001d0: 5a30 85bc e8c4 a4bb 22e1 813c ef6a 5f3b
000001e0: 22a5 e53b 1ad5 e8bb e811 223e 4766 beba
000001f0: 20cc e4bb 76bc 8abc b343 2c3f 1d77 813c
00000200: 400a e13f 75c1 d63f 4ed8 893f a957 1f3f
00000210: 887d 38bf 8c0c c4bf 152e cd3e f861 a23f
00000220: daf1 4c3f 6bbf f93f 7153 c1bf 661c 81bf
00000230: 648c ccbf 6c33 8a3f 4ecb d93e 40d6 1ac0
00000240: 70d6 ed3e de1f dc3d c22c 773f 29ed 423f
00000250: 4126 0cbf 3476 ba3f 1768 f43f 12c9 e7bc
00000260: c254 823f d18c 80be bfb1 32c0 fe43 7fbe
00000270: 6885 39be 7bea b53c dd09 8d3d edde af3c
00000280: dab6 66bd 2147 66bd 5b4c 3fbc a098 683d
00000290: f76f e13c 859a c13d 29b2 293d 3015 95bd
000002a0: 7c23 7ebd 029c 6e3d e5e7 d63c 855e b93d
000002b0: eab2 bcbc f469 87bd ab31 c6bc 6ea2 36bd
000002c0: 6d96 9f3b 265f aebd f057 6c3c 03e4 743d
000002d0: bc07 533d fce5 dfbd a56a 593c 7d4b 0bbe
000002e0: ca26 98bd 0f38 473c 1bfa a13d 7b1e 4f3d
000002f0: 20e2 6d3d a904 173d eec8 603d 9a61 02bd
00000300: ef10 a43d 1577 0abb e1cf 6a3d 6244 80ba
00000310: 77ac 033d 758e 08bd ce96 4fbd b46c f13a
00000320: 3dc9 153b 0200 52bd 1f18 aa3b 6ddc 5c3d
00000330: 0d9b d43d 397e 87bd 65ba 19bd 8fea c53d
00000340: b500 193c b2a4 4dbd 15f9 103d 2746 743c
00000350: 4673 c13d b2e2 1e3d fc8e b13d e5e7 023c
00000360: c038 47bd 725e 273b fdb7 9abd 8cf5 403b
00000370: 35fe 87bd 5a4d 27bc 8a02 85bd 5efd 5ebd
00000380: 843c 333d 602d 9a3b a1dc 703d 91ee 9dbd
00000390: ba23 1e3c 2358 6dbd 2684 4f3b 20ed 923d
000003a0: be89 69bc f63d d9bc 8f41 413d 5192 833d
000003b0: 15fe 413d b036 6b3d 6325 0c3d 35ce 61bd
000003c0: 317a 163d 1e80 c2bd 1b21 b03d 8aed 9fbd
000003d0: c367 0b3d 14ca debc ccf6 68bd cb4a 4abc
000003e0: fab4 723d 3ec8 923d ad21 f43c 3735 3f3d
000003f0: 2a03 96bc f602 f13c cead 8abb 6643 b43c
-0.15072054 -0.01454686 -0.016679106 0.2119611 -0.0021437248 -0.19876935 -0.014908936 -0.014042306
-0.0032805076 -0.014798108 0.0043388507 -0.36428386 0.0024877393 -0.014965986 -0.13407427 0.24529938
-0.016560538 0.011961405 0.012539343 -0.2200532 0.06515283 -0.009726113 0.42007542 0.012909203
0.014831864 -0.98721933 -0.001690814 0.015251461 -0.017605871 0.008395173 0.017334484 0.013127789
-0.0072914264 -0.95023257 0.01568003 -0.24463902 -0.014828891 0.0011629101 -0.018413719 -0.23527855
0.97080344 -0.017125942 0.7540074 -0.47513434 0.21792072 -0.015129263 -0.0141585395 0.008067042
0.01708503 0.016059952 0.015639711 -0.0027495055 0.014747021 -0.015209408 0.015393625 -0.26388773
0.016608398 0.01668478 -0.006224662 -0.004480617 0.0049172337 -0.007255627 0.015213549 0.016507834
-0.44654942 0.015106927 0.015086694 -0.34385803 -0.015024814 -0.012322782 -0.013884342 0.015820948
-0.41067952 0.01589219 -0.016174518 -0.01308095 -0.0004039509 -0.015735446 -0.44666752 0.31534868
0.014549662 -0.008293232 -0.01592717 -0.3481358 -0.016463494 -0.8384563 0.63186127 -0.01603038
0.0069073862 0.015897762 -0.008608691 0.011654134 1.5033555 -0.0063588927 0.06549004 0.5898134
0.5676474 -0.014686885 -0.51770693 -0.016519848 -0.18732913 -0.4578853 -0.014125615 0.010285233
0.007622955 -0.0146164 -0.26227954 -0.017249959 0.01579918 0.507534 -0.7243309 -0.00040854455
1.4646829 0.017440477 1.7324964 0.015270467 -0.016258407 -0.005028356 0.015854422 0.0034090837
0.0070082108 -0.007105482 0.15827143 -0.0014526331 -0.0069823414 -0.016935568 0.672908 0.015803868
1.7581253 1.6777788 1.0769136 0.62243134 -0.72066545 -1.5316329 0.4007422 1.2686148
0.80056536 1.9511541 -1.5103589 -1.0086792 -1.5980344 1.0796943 0.42537922 -2.4193268
0.46452665 0.10748266 0.9655267 0.7614313 -0.5474587 1.4567323 1.9094266 -0.02829412
1.0182116 -0.25107434 -2.7920988 -0.2492828 -0.18117297 0.022206536 0.06886647 0.021468604
-0.056326725 -0.056220178 -0.011675919 0.05678618 0.02751921 0.094533004 0.041429672 -0.07279432
-0.06204556 0.05825425 0.026233623 0.09051231 -0.023034532 -0.06612006 -0.024193605 -0.0445885
0.004870227 -0.08514242 0.014425263 0.05978776 0.051521048 -0.10932538 0.013270055 -0.13603015
-0.074292734 0.0121593615 0.07909032 0.050566178 0.058076978 0.03686968 0.05487912 -0.03183136
0.08011042 -0.0021128107 0.057327155 -0.0009786005 0.032146897 -0.033338983 -0.050680928 0.0018419237
0.0022855543 -0.05126954 0.0051908637 0.053921152 0.10381136 -0.06615872 -0.037531275 0.09663879
0.0093385475 -0.050205894 0.035393793 0.014909304 0.09445815 0.038790412 0.0866985 0.007989858
-0.048638105 0.0025538472 -0.07554624 0.0029443232 -0.06640283 -0.010211313 -0.06494625 -0.05444085
0.043758884 0.004705116 0.058804158 -0.077115186 0.009652073 -0.05794538 0.003166446 0.07174134
-0.014254032 -0.026518803 0.047181662 0.06424392 0.047361452 0.0574252 0.034215342 -0.055128295
0.036737625 -0.09497093 0.08600064 -0.07808979 0.0340345 -0.027195968 -0.05687599 -0.012346934
0.059254624 0.071670994 0.029801214 0.04668161 -0.018312056 0.029420357 -0.004232145 0.022004794

fc1.bias f4 [54]
00000000: 8278 4dbf 1795 4cbd 3218 adbe ac3b bebf
00000010: 35d0 713d a1cc 65bf 0d74 acbe 0641 babe
00000020: 0c89 d13f 03db ab3e 667d 303f d0c1 e4be
00000030: a632 0cbf f1e8 d2bd 5fd4 bbbe 2024 9fbd
00000040: 1ac9 553f 20b6 18be d52d cfbd 6f5f 95bf
00000050: 294e 4fbf d066 52bf 53b7 91bf ff94 9ebe
00000060: 825b 22be f329 04bf 27e2 79bf 4900 9a3e
00000070: 393b b3be cbcc b8bf 129e 803f 5047 f43b
00000080: 650d e53f da50 86bf be5d bfbf b295 0dbe
00000090: 26d6 cb3f 0adb ccbb e4db 09be d284 4f3e
000000a0: 5ad5 603f 8f27 71bf 9ae8 2bbf 56b5 8dbf
000000b0: dffb 793c 2599 353f 9929 793f b8e8 32bf
000000c0: 688f b4bf a33d 1dbf bd9b c3bd 3cb3 02bf
000000d0: a254 d9bd bdb5 26bf
-0.80262005 -0.04994687 -0.33807522 -1.486196 0.059036452 -0.89765364 -0.3368229 -0.36377734
1.6369948 0.3356553 0.6894134 -0.44679117 -0.54764783 -0.10298336 -0.36685464 -0.07770562
0.8350998 -0.14913225 -0.10116164 -1.1669749 -0.8097864 -0.8218813 -1.1384071 -0.3097305
-0.1585522 -0.5162651 -0.97610706 0.30078343 -0.3500612 -1.4437498 1.0048239 0.00745479
1.7894713 -1.0493424 -1.4950483 -0.13826635 1.5924728 -0.0062516974 -0.13462788 0.2026551
0.8782555 -0.94200987 -0.67151797 -1.1070964 0.015257805 0.70936805 0.973291 -0.6988635
-1.4106264 -0.61422175 -0.09551189 -0.5105474 -0.106118456 -0.6512106

fc2.weight f4 [32, 54]
00000000: 390f 0bbe 13a6 72bd 31a5 74be 2d18 b6bd
00000010: 86e5 023d 6bd6 48bd 1c0e b23d 2c08 463c
00000020: a53a 5dbe eeeb eb3d ae74 46be 73b0 c5bd
00000030: 8588 35bd 6dba c43d 9847 1cbd 48fe b83d
00000040: 36ee 56bd 43e5 0fbe a737 a3bc 162e 263c
00000050: 87ee b4bd 9dc4 313d 2f53 66be 0d92 103e
00000060: eb53 38bd 25ce 3ebe 1986 383d a254 cdbd
00000070: d141 3bbb 55e3 24be d918 463c 5c9c 49be
00000080: 1b09 8f3a f220 98bd b54f 96bd f3ae fabd
00000090: 6231 043e 632f 393d ad5e dd3c b7fa 0c3d
000000a0: cb59 6cbe f458 a1bd 3f2a dd3d fdca df3c
000000b0: 9890 733d 6573 a4bd 47e5 0dbe 021d 09be
000000c0: f4a0 91bc 88ad 2fbd 67c6 a63d cc53 bbbd
000000d0: dc48 26bc d6d4 31be 635c 883b 90f0 85bd
000000e0: 5a21 d2bd 007a d83f 5436 a8bf c848 ca3e
000000f0: 3368 4f3f 35a5 6a3d 9e05 203f 6e87 3abf
00000100: 0d35 aabe 9b76 ff3e 2c41 0fbe 694a 37be
00000110: 8583 f8be a904 8f3c 58da 3fbf 3d09 a63e
00000120: 3431 c63d d0e5 a1bf 5128 80bf 6d47 91be
00000130: 6ce8 22bf cd1f 17bd 4178 c83d 9011 723e
00000140: 8aa2 9bbd 76eb fabf d160 a7bf b721 e83d
00000150: 156d a3be 6899 34bf 6262 37bf d68c 373f
00000160: 2a93 9b3e e66d c73c 9193 fec0 f4c5 113d
00000170: 62cf 1ebd c2e9 5ac0 398c 03bf f831 443e
00000180: ce58 abbf 50d7 10bf 06a2 943d a99d 963e
00000190: 86ce dabf 8a0d 84be e83e 053f 8b90 92c0
000001a0: e878 8b3d 9f20 e4be 52e8 9abd f31f 0ebf
000001b0: feba 20bf 9845 02bd 13af 153d 1e91 d9be
000001c0: 62a3 b93d d33a e03d 954a d2bd 7b7d dbbe
000001d0: c970 683e 0f49 603e f979 aa3e a028 123f
000001e0: 52ff 41be 303b abbd 018c 753d 41f3 853c
000001f0: 175b 3a3d bbb6 abbe 39a0 7b3b c653 49be
00000200: 69f1 14be 0538 84be 3432 05bd 7bf2 393d
00000210: 1484 70bd e26f f3bd e77c 253e a640 37be
00000220: a464 453d ed3f b0be f6a3 253e 9764 3cbd
00000230: 7c9b 82be 2ad5 843e 50c9 08bf aad4 c4bd
00000240: 2a67 913e f1b5 8a3c 43d2 00be 7f6c 7dbe
00000250: 6143 3c3f 190d f8be 1ab5 023d c3db 683e
00000260: b29e 87bd 68e4 75bf 3615 2bbe a11c 9fbd
00000270: 7ae1 c5bf c2f0 20bf f0e1 8bbd 8413 cfbd
00000280: e903 47bd ea21 9c3d 14ee 0d3f 10f9 bfbd
00000290: d33f fcbe 648b 9dbe 664f e43e 1756 5e3e
000002a0: 9bd9 be3c ce53 52be f65c e53e b4c9 fb3e
000002b0: 4db5 1fbe 7cc0 b53e 2016 f6bd 7f51 acbe
000002c0: 31ec 6f3e 05db 453d 8e4e 263e efd5 9f3d
000002d0: 24a6 23bd f95c 95be b483 8dbc 4a10 0e3d
000002e0: b70b 073d 5f61 e53c 73d4 0f3c 1269 bdbe
000002f0: 90c2 d5be ce9a 18be 44df 9e3d 526f 483e
00000300: 7032 453d 0668 983e 1887 023f e08a e83c
00000310: 3a88 5d3e 667c cbbd a4ee a03e 4669 53b7
00000320: 020a c7bb 335c bd3d fe5e 35bb dbc9 d4bd
00000330: 8212 ba3d 05e6 c23d fccb 74be d26e 11be
00000340: febf 66be 3306 d7be db25 933e af55 823f
00000350: a631 60bd f8fd 69be a9e0 d83d 22dc 90be
00000360: 1524 413f 5190 5a3d 3f00 be3d 2493 0ac0
00000370: 3bd3 0c3f db66 f0bf d28e e13e a421 16be
00000380: 2191 e2be c943 28c0 7d23 6b3d 0577 e43e
00000390: 3e8e 66bd a23d a2bf 270a d0bc 7e7f 963c
000003a0: 2db1 81c0 33a3 1fc0 cbab 97bd 0d57 9fbe
000003b0: dcde 663d 8fd2 a4c0 d958 f6be d8cb 7bbe
000003c0: 053a 00bd 83a7 76bd 18c6 d1bf f66e 813e
000003d0: 43ec 3ebf 3b29 2abd 2eb0 ea3e d4ab bbbf
000003e0: 420f 053f 9077 8fc0 8fa5 5f3f 98b0 ffbc
000003f0: f420 d0bd 229a d3bd c6b1 c63d e399 bb3f
-0.13580026 -0.059240412 -0.2389114 -0.0889133 0.03195717 -0.04903261 0.086940974 0.012086909
-0.21604402 0.115196094 -0.19380447 -0.09652796 -0.04431965 0.096058704 -0.038154215 0.09032875
-0.05247327 -0.140523 -0.019923998 0.010142824 -0.08834558 0.043400396 -0.2249267 0.14118214
-0.045001905 -0.18633325 0.04504976 -0.10025908 -0.0028573165 -0.16102345 0.012090885 -0.19688553
0.0010912748 -0.07428159 -0.07339422 -0.122404 0.12909463 0.045211207 0.027022684 0.034418788
-0.23081128 -0.078782946 0.107990734 0.027318472 0.059464067 -0.08029822 -0.13856994 -0.13389972
-0.017776944 -0.0428901 0.08143311 -0.09146842 -0.010149207 -0.17366347 0.004161404 -0.06540024
-0.102602676 1.6912231 -1.314158 0.39508653 0.8101837 0.05728646 0.6250857 -0.728629
-0.332436 0.49895176 -0.13989705 -0.17899479 -0.4853784 0.017458277 -0.7494254 0.32428923
0.096773535 -1.2648258 -1.0012304 -0.28374806 -0.636359 -0.036895562 0.097885616 0.23639512
-0.07599361 -1.9603107 -1.3076421 0.113345556 -0.3191916 -0.7054658 -0.71634495 0.71699274
0.30385715 0.024344396 -7.9555135 0.035589173 -0.038771994 -3.4205174 -0.5138584 0.19159687
-1.3386476 -0.5657854 0.07257466 0.2941716 -1.7094276 -0.2579158 0.5204911 -4.5801444
0.068101704 -0.44556138 -0.07563843 -0.555175 -0.6278533 -0.03180465 0.036543917 -0.42493528
0.09064366 0.1094872 -0.10268132 -0.42869172 0.22699274 0.2190287 0.33296183 0.5709324
-0.18945053 -0.083608985 0.05994797 0.016351344 0.045497026 -0.3353785 0.003839506 -0.19660863
-0.14545216 -0.2582399 -0.03251858 0.045397263 -0.05871971 -0.11886574 0.16160928 -0.17895755
0.04819168 -0.34423772 0.16175827 -0.045994367 -0.2550925 0.2594388 -0.5343218 -0.09610875
0.2839902 0.01693246 -0.12580208 -0.24748419 0.7354031 -0.48447493 0.031910993 0.22740082
-0.066220656 -0.96051645 -0.1670731 -0.077691324 -1.5459435 -0.6286737 -0.068302035 -0.10111144
-0.048587713 0.07623656 0.55441403 -0.09373677 -0.49267444 -0.3077041 0.44591826 0.21712528
0.023297122 -0.20539781 0.44797486 0.49177325 -0.15596505 0.35498416 -0.12015939 -0.33655927
0.23429944 0.048304576 0.16240904 0.078044765 -0.039953366 -0.29172495 -0.017274715 0.034683503
0.032970157 0.028000532 0.008778679 -0.36994225 -0.41750002 -0.14902803 0.07757428 0.19573715
0.048143804 0.29766864 0.50987387 0.028386533 0.21633998 -0.099358365 0.31432068 -1.2601091e-05
-0.006074191 0.09246101 -0.0027675028 -0.103900634 0.09085561 0.09516529 -0.23905939 -0.14202431
-0.22534177 -0.41996917 0.2873982 1.0182399 -0.05473485 -0.22850788 0.105897255 -0.28292948
0.7544568 0.053360287 0.09277391 -2.1652308 0.5500981 -1.8781389 0.44054276 -0.1466127
-0.4425135 -2.6291373 0.05740689 0.44622055 -0.056287996 -1.2675059 -0.025395466 0.01837134
-4.052878 -2.494336 -0.07405814 -0.31121102 0.05636488 -5.150703 -0.4811466 -0.24589479
-0.03130533 -0.060218345 -1.6388578 0.2527997 -0.74579257 -0.041543227 0.4583754 -1.4661813
0.51976407 -4.483345 0.87362 -0.031212136 -0.10162535 -0.10332133 0.09701876 1.4656337

fc2.bias f4 [32]
00000000: 7a2c b3bd aab8 7e3e 7b0e a43f 3081 fe3f
00000010: 6416 293e 2d53 623e b487 d7bf a8d9 0cc0
00000020: fdde 2ebe ca05 1440 5cf1 f1be 9bb7 673d
00000030: bb5d e13f 77d9 99bf 8fd3 ce3f 1d28 63be
00000040: 87e5 bb3e b531 09c0 661a 153d bd49 8a3f
00000050: d874 1cbe a116 21be b202 27bf 874b 4f3f
00000060: 3e92 8abf 7c6a 033e 2f60 4f3f 2afe 61be
00000070: 3636 923f 0c0d 6abe c877 ae3f d4bb 76bd
-0.087487176 0.24875131 1.2816919 1.9883175 0.16512448 0.22102042 -1.6838288 -2.2007847
-0.17077251 2.3128533 -0.47254455 0.056571584 1.7606729 -1.201949 1.6158313 -0.22183271
0.36698553 -2.1436589 0.03640213 1.0803753 -0.15278947 -0.15731288 -0.6523849 0.8097462
-1.082588 0.1283359 0.8100614 -0.22069612 1.1422794 -0.2285654 1.3630304 -0.06023772

fc3.weight f4 [8, 32]
00000000: 0dae 29be e37b 1bbe 551b 6b3d 0cdc 41be
00000010: ba37 b03d 1f92 2a3d bb74 37bd fb7e ed3d
00000020: 4e2f fe3c fbde e1bc 8fa7 e93d 9787 153e
00000030: 6a36 29be 1e6c 443b 5d52 c4bc 2f01 a7bd
00000040: 4a92 3539 fc61 6abd 8579 18be 5cbc 9bbd
00000050: cde6 e63d 1972 3dbe f66f d23c 4886 c3bc
00000060: ae84 b3bd 06c0 773d acfe ba3d 8565 d93c
00000070: 4b17 8bbd 43a3 ee3d 0101 e6bd e14b 093e
00000080: fa07 ab3a 03c7 cabd 8209 a7bd cef9 09be
00000090: dd47 17be f22e 8a3d 643a 2f3e 5895 133e
000000a0: 563b 89be be61 093e 783d f3bd 51b4 333e
000000b0: d20d 97bc 38fa 5fbe cc09 d9bc 484f 0d3e
000000c0: 7bbc 05be f827 b5bd d59d 883d 712c 07be
000000d0: 5d08 0cbe d975 c0ba 3810 003e 56c3 3a3d
000000e0: d2b7 1a3d 5bc7 203e bdef 803c 2e82 b43c
000000f0: 48fc 523e 2dd5 86be 24d4 4e3d cd57 24be
00000100: 58b2 ebbc 1b5c 05bd 4a6f 09be 50b9 cfbe
00000110: 1d4f 06bf e983 f93c b4e4 7a3e a494 90bf
00000120: 4421 3dbc c82a 13bf fa42 c03e 7a74 1f3e
00000130: 7298 60bd 6f7d 79bf 1b2c 90c0 248d 14be
00000140: cd05 75be 1253 47bf 5d28 043c a8a5 edbd
00000150: 353c 963b a578 2a3e fa9a 35c0 326f 733d
00000160: 65ca 5ebe 8f61 a53d 3d78 c43e 4ec0 db3e
00000170: 44b6 063d 80e3 173f 7e9f 96be ee95 d43b
00000180: 6691 03be 4c92 09c0 63b4 4f3e ff78 20bf
00000190: 8968 06be 7207 a3be 9ded 613e 625b 2a3f
000001a0: a850 96bd a72c 12c0 b88c 583d de7d 423e
000001b0: a094 b3be 5bf7 9a3e 97fc 3c3e e90f d4be
000001c0: eefb 8ebe 37d5 67be ddc5 d9be f7c3 c5bf
000001d0: 798c cdbd 6498 c5bc 4b6a 893d 38a9 283e
000001e0: cc3d 91bd 8795 98be 7ee5 13bd 2afa c9bc
000001f0: 1e35 b4be 38fb bb3d 600e 8c3e 850d 843d
00000200: 8399 83bd 3e79 e9bd 4080 12be 78e9 89be
00000210: d3e5 9f3d 2e10 033e 4387 2c3e 1fc0 1d3d
00000220: c1a6 bb3c bcdf fbbd 72a4 933d 0a0a 173e
00000230: e1b7 33bd 9ec5 243e a80a 1b3d 6b2c 44be
00000240: 4eb2 ccbd 46a6 05be 01bb 84be 7287 f2be
00000250: efeb 0d3e b79e 6abd 8e14 b73d 4dae b93d
00000260: c8e3 a43c 0d69 203c fa7d 94bc b55e 553e
00000270: 79d9 0fbe c7c5 283e faac f03d eb6b 1bbd
00000280: 5489 8abd 2223 56be c454 a9bd bbb8 6b3d
00000290: 6c65 ec3d 2dee ecbc 2e12 20be ae72 b1bc
000002a0: 4ebb 05bd aef6 94bd 9cc5 3cbb cbaa 863d
000002b0: 8735 763c 400e 14bf 76bb 303d 944d aebe
000002c0: 8618 d73d 47ed 9c3c f797 52be 9ede 83bd
000002d0: 648d 16bd f099 ff3c 5228 08be 1db3 8cbd
000002e0: e890 10bf cb2b a2bf e0f7 1b3e 8341 833e
000002f0: 6d07 1c3e 38e6 43bd 8968 1ebd 712c ebbc
00000300: 9413 5cbb e01e 8c3d 556f 653d 7729 053e
00000310: b96f ab3d 912f fb3d 38af b93d fb95 7a3d
00000320: b30e d73c 079f c83d 87f4 eabc 90f7 363d
00000330: e1d7 093e 3320 3bbd df63 ba3d 25ff 94bd
00000340: 7329 03bb 14d8 cabd e7fe 0f3d 0d9e 92bb
00000350: 6441 cdbb 238a 49bd 8349 2bbd 8c20 e33d
00000360: 8505 3d3d 58e9 753d fd81 a3bd 71a3 b6bd
00000370: 027e 04bd 0fe8 363e 8133 1c3d 9e5d 1fbe
00000380: 0398 2a3e 0f76 eb37 bc39 cfc0 5dae 8e3c
00000390: 6707 1e3f 33a5 11be 7c30 aebc 02e0 1ebe
000003a0: 5ac2 993d f82c 2fbe 8e35 bd3d 8cb4 b93d
000003b0: ca1d 083e 80d4 92be e4bd 3abf c5cc 333c
000003c0: 1586 f5bd 3530 4cbd a76b e0be 78f8 b93d
000003d0: faf8 b43c f2cc 0fbe 27ed 8dc0 719d 473e
000003e0: aec4 853e 229a b4bd 1e6d 1e3e 3690 07c0
000003f0: 00b6 31be 9b10 393f a1eb 3bbf b14d 0fbe
-0.16570301 -0.15183978 0.057399113 -0.18931597 0.08604379 0.04164326 -0.044789057 0.11596485
0.031028416 -0.027572146 0.114089124 0.14602505 -0.16524664 0.002997167 -0.023965055 -0.08154523
0.00017316002 -0.05722235 -0.14890106 -0.07604286 0.112744905 -0.18500556 0.025688153 -0.023867741
-0.08765541 0.060485862 0.09130606 0.026537666 -0.06791552 0.116522335 -0.1123066 0.13407852
0.0013048642 -0.0990124 -0.0815611 -0.13474199 -0.14773507 0.06747235 0.17112118 0.14412439
-0.26803082 0.13416192 -0.118769586 0.17549254 -0.018439207 -0.21872795 -0.02649393 0.13799775
-0.13060181 -0.08845514 0.06670729 -0.13200547 -0.13675065 -0.0014683559 0.12506187 0.045596443
0.03777296 0.15701048 0.015739316 0.02203473 0.2060405 -0.26334515 0.05049528 -0.16049118
-0.028771564 -0.03255854 -0.1342136 -0.4057107 -0.5246447 0.030458407 0.24501306 -1.1295362
-0.011543576 -0.57487154 0.375511 0.15571776 -0.054832883 -0.9745702 -4.505384 -0.14506966
-0.23927994 -0.7786113 0.008066264 -0.11603862 0.004584814 0.16647585 -2.837584 0.059432216
-0.21756895 0.080752485 0.38372985 0.42920154 0.032888666 0.5933151 -0.29418558 0.0064875996
-0.12848434 -2.1495543 0.20283656 -0.62684625 -0.13125814 -0.31841618 0.22063299 0.6654569
-0.07339603 -2.2839754 0.052868575 0.18993327 -0.3507433 0.30266842 0.1845573 -0.41418388
-0.27926582 -0.22639929 -0.4253377 -1.5450429 -0.10036559 -0.024120517 0.06709727 0.16470802
-0.07091865 -0.2980158 -0.036107533 -0.02465542 -0.35196775 0.091787755 0.27354717 0.06447891
-0.064257644 -0.11400078 -0.14306736 -0.26935935 0.07807507 0.12799141 0.16848473 0.0385133
0.022906663 -0.12298533 0.072091 0.14749923 -0.043876532 0.1609101 0.03785196 -0.19157569
-0.099949464 -0.1305171 -0.25923923 -0.47368962 0.13859533 -0.05728027 0.08939467 0.09066448
0.020128146 0.009790671 -0.018126477 0.20836909 -0.14047803 0.16481696 0.11751743 -0.037944715
-0.067644745 -0.2091184 -0.08268121 0.05754922 0.11542782 -0.028922165 -0.15631935 -0.021661129
-0.03264933 -0.07273613 -0.0028804308 0.06575545 0.01502741 -0.57834244 0.043147527 -0.34043562
0.10502724 0.019156111 -0.20565782 -0.06438945 -0.036755934 0.031201333 -0.13296631 -0.06870101
-0.5647111 -1.2669615 0.15231276 0.2563592 0.15237208 -0.047826976 -0.03867391 -0.028707715
-0.0033581005 0.068418264 0.056014378 0.13004099 0.08370919 0.12264932 0.090666234 0.06117819
0.026252126 0.09795957 -0.028681053 0.044669688 0.13461258 -0.045685004 0.0910108 -0.072752275
-0.002001372 -0.09904495 0.035155203 -0.0044744075 -0.0062638987 -0.049204003 -0.041818153 0.11090192
0.046147842 0.060036987 -0.07983778 -0.08917893 -0.032346733 0.17861961 0.038135055 -0.15563056
0.1665955 2.8069158e-05 -6.4757977 0.017417127 0.61730045 -0.14223175 -0.021263354 -0.1551514
0.07507773 -0.17106998 0.0923873 0.0906764 0.13292614 -0.2867775 -0.72946 0.010974114
-0.11988465 -0.04985066 -0.43832132 0.09080595 0.022091378 -0.14043024 -4.4351993 0.19493653
0.26126617 -0.08818461 0.15471312 -2.118177 -0.17354584 0.7229096 -0.73406416 -0.1399448

fc3.bias f4 [8]
00000000: 807a 27bd 5375 93bd a6d1 b33f 2cc6 0b3d
00000010: 8a3b 7f3d 3725 d73f 85a6 863f adec ebbe
-0.04088831 -0.07200112 1.4048355 0.03412454 0.06231264 1.6808232 1.0519568 -0.46079007

fc4.weight f4 [1, 8]
00000000: 7f06 10bd be6a 24bd b37e 8c3c de7d 973c
00000010: b0f6 3abd b77e ea3c fa23 163d 4f9a 58bc
-0.035162445 -0.04014086 0.017150259 0.018492635 -0.045645416 0.028624875 0.036655404 -0.013220384
