2ARO_Knapsack/post train NN data/30 instance 100 scenarios/model_weights_30_instance_100_scen.pth (torch, 117394 bytes, 13 tensors)

embedding_instance.weight f4 [100, 152]
00000000: 31cd 363c 708d bfbc 28d1 ae3c 3a4e acbc
00000010: 9c5a 9fbc 5e6d e13c 8756 3f3d 9b36 413d
00000020: 40b8 f0bb ec28 04bd 00ec c4bc df3e 6abc
00000030: 9215 fdbb 9256 013c cc04 48bb 130e b13c
00000040: bcd5 e13c a3e7 d33b 4943 ce3c 1dbb 213c
00000050: 70f7 d7bc 89db 9f3c beff 8c3b 0781 37bd
00000060: 5b6b 8dbc d498 aabc 0dcb 4b3c af45 fa3c
00000070: 403b 023d 497d bebc 5d31 09bd c078 9e3c
00000080: 94b4 e2bb dc70 f83c 66a6 1b3d 4eed 7abd
00000090: 6480 21bd f5d7 6bbc 5e30 333b 7e14 c1bb
000000a0: afca e83c 2afd 1cbb ec1c 493d a9fc 5fbd
000000b0: a7d6 33bc 305f 0bbd df83 8a3b 4b26 56bc
000000c0: 6646 f83c 779c 7cbc 74d1 913b f8c0 24bd
000000d0: fc73 08bc 8e95 fd3c 64a6 b4bc 405e 71ba
000000e0: e32c 3cbc b631 2abc 60c0 27bc 4ca9 443d
000000f0: 5c6c c6bc 86c0 7fbc 944e 373d 9f43 e93c
00000100: 7f0f 0e3d f8c8 a53c a139 42bc e58b 993b
00000110: 4848 6a3b 364c 3b3d 7f2d 573c b79a 023c
00000120: 391e 37bc b270 c63c 4840 a03c 067f d53c
00000130: 9c29 63bc 7c19 2ebd ff49 f1bc f8b7 a2bc
00000140: 9f17 8e3c d346 89bb 71a8 8abc c31d f9bc
00000150: 93cd 073d e06f a63b 2a6a 74bb 9533 ffbc
00000160: 1c53 353c 05d2 053d dc84 e23c 3943 e9bc
00000170: e7a2 ba3c d550 6ebc eb24 58bc d7f7 9bb8
00000180: 53ea ca3c 6d7f c9bc 3c5a 043b 6788 323c
00000190: 819b d8bc 9478 fe3b b9e3 cb3c 9f37 b4bc
000001a0: 86ae a0bc a0db e03b 13a8 b53c 5f4a 28bc
000001b0: b275 083b c35a 193b d4e3 8abc 3f3c 363d
000001c0: 3537 cfbc c40e 02bb 2b10 9dbc d855 00bd
000001d0: 2c3b 483d eb7f a8bb df48 91bb 11b2 483c
000001e0: b5d7 b03c 33bd d9bb 1c05 9bbc dc79 6bbb
000001f0: c494 3f3b e237 c3bc e9e3 cf3c dc74 6ebb
00000200: b948 8ebc c184 52bc c54f 243d d37b 2b3d
00000210: f794 aabc 9448 c8bc f001 8c3c c730 c338
00000220: 0e7d f03a d680 7c3b 6209 9ebc 03f2 85bc
00000230: 2e89 71bb c0d0 cdbc a233 54bc 3cc8 f5bc
00000240: 81e8 9ebc db3f 3f3c ec8c 0c3c 42b3 dfba
00000250: 9948 28bb e4de 6f3c 0528 dc3b 6d3b 253d
00000260: f3e1 2fbf 884d f9bd 52aa 80bf eb94 553f
00000270: b292 6ebf e330 903e 95aa c73d 6cbb e3be
00000280: 24ee 0b3f 8817 a8bd 26b9 523f 10df 14be
00000290: c494 c13d 93c6 c6bf a22b 283f 4f07 663e
000002a0: 1de8 9abf e8d3 ffbe e665 d23f dc69 f7bd
000002b0: 40ec 08bd 08e1 943e ab7d 2740 1d3c 0bbf
000002c0: 6583 373f 827c 563e 67f4 1a3f 1fe8 34bf
000002d0: 673f 95bf 6c8d 2ebf 4a9b 0b3e 66b5 4dbc
000002e0: bcb2 3d3c 0cca 8b3f 3665 0dbf 0ce5 9d3d
000002f0: 7768 5dbe 1441 95bf ffd3 673e 3c98 49bf
00000300: 0eee 20be 3e7a 96bf 794d 2dbf fc07 8ebf
00000310: 0e96 b43e 0d7e 403f 2593 c13e 504f 7fbf
00000320: 4f37 0f3f 36ee 62be 987a d03e 658b e23d
00000330: ab27 c43e 1ac6 153f f6ba d7be e711 f43e
00000340: 95ce 98be b856 97bd 36fe 213e 8f05 a8be
00000350: 414e af3d 66da f43f 53da 823d fcda 0b3f
00000360: dd9a f93f 7a3e d23f 63b5 a0bc b018 dcbd
00000370: bb93 0a40 b9e3 9abf 5830 0b3f b957 f6bc
00000380: 9d45 a4bf fb56 de3f b451 983e ea70 b43f
00000390: 398d c03f b2e5 5dbf 1fd7 143f e14e ee3d
000003a0: 9d1c b93f d339 babf 5269 41bf 896b b2bf
000003b0: 8ba9 0abf b0a3 5c3f b11d 7abf 95f1 02bf
000003c0: 7e08 c2bf 48c7 573d b354 e3bf e6f8 553f
000003d0: 6996 f43e 9940 26bf a356 af3e 8c6f 3b3e
000003e0: 49e4 40bf 53f6 403d a286 4cbe a8c7 51bf
000003f0: 58e4 89be 984c 1a3f 9224 2640 9739 813f
0.01115732 -0.023382872 0.021339968 -0.021033395 -0.019452386 0.02751797 0.04671338 0.047171216
-0.007346183 -0.03226559 -0.024038315 -0.014297216 -0.0077235186 0.007894175 -0.0030520437 0.021613156
0.027567737 0.0064668222 0.025178568 0.009871271 -0.026363105 0.019513862 0.004302948 -0.044800784
-0.017263105 -0.020824827 0.012438548 0.030550806 0.031794786 -0.0232531 -0.033494342 0.019344687
-0.0069184992 0.030327253 0.038000487 -0.061261468 -0.039429083 -0.01439475 0.0027342062 -0.0058923354
0.02841696 -0.0023954608 0.049099848 -0.054684315 -0.01097647 -0.034026325 0.004227146 -0.013070653
0.030307006 -0.0154181635 0.0044500176 -0.04022309 -0.008328434 0.030955102 -0.022051997 -0.0009207465
-0.011485311 -0.010387829 -0.010238737 0.048013017 -0.024221592 -0.015609866 0.044752672 0.028474627
0.034682747 0.02023743 -0.01185456 0.004685866 0.003574865 0.045726977 0.013133406 0.007971457
-0.011176639 0.02422366 0.019561902 0.026061546 -0.013864901 -0.042504773 -0.02945423 -0.019863114
0.017345248 -0.004189351 -0.016926022 -0.0304097 0.033155035 0.0050792545 -0.0037294724 -0.031152526
0.011067178 0.032670993 0.027651243 -0.028474437 0.022782756 -0.014545639 -0.013192396 -7.43714e-05
0.024769938 -0.024596894 0.0020195385 0.010896779 -0.026441338 0.007765839 0.02488886 -0.021999178
-0.01961447 0.006862119 0.02217487 -0.010271638 0.0020822105 0.0023400045 -0.01695434 0.04449105
-0.02529488 -0.0019845227 -0.019172749 -0.031331867 0.048884556 -0.005142202 -0.0044337357 0.012249486
0.021587232 -0.0066448688 -0.018923335 -0.0035930788 0.0029232958 -0.023830358 0.02537723 -0.0036385572
-0.017368661 -0.012849034 0.040115137 0.041866135 -0.020822985 -0.02444867 0.017090768 9.30741e-05
0.0018347816 0.003852894 -0.019291583 -0.016350752 -0.0036855447 -0.025123954 -0.012951763 -0.030002706
-0.019397976 0.011672939 0.00857852 -0.0017066973 -0.0025678037 0.014640544 0.006718638 0.040339876
-0.68704146 -0.12172991 -1.0051978 0.83430356 -0.9319259 0.28162298 0.09749333 -0.4447893
0.5466025 -0.08207613 0.82313764 -0.14538217 0.09452203 -1.552935 0.6569158 0.22463726
-1.2102085 -0.4996636 1.6437347 -0.12080738 -0.03342843 0.29077935 2.6170452 -0.543886
0.7168487 0.20945933 0.6052918 -0.7066669 -1.1659974 -0.6818454 0.13633457 -0.012555456
0.011578258 1.0921035 -0.5523256 0.07709703 -0.21621881 -1.1660485 0.22639464 -0.78747916
-0.1571581 -1.1756055 -0.6769634 -1.1096187 0.35270733 0.7519234 0.37807575 -0.99730396
0.5594377 -0.22161183 0.40718532 0.11061744 0.38311514 0.58505404 -0.42134827 0.47669908
-0.2984511 -0.07389587 0.1581963 -0.3281674 0.085598476 1.912915 0.06389298 0.5463102
1.9500386 1.6425316 -0.019617742 -0.10746896 2.1652668 -1.2100745 0.5437064 -0.030071126
-1.2833744 1.7370294 0.29749835 1.4096959 1.5043098 -0.8667861 0.5814075 0.11636139
1.4461857 -1.4548897 -0.7555133 -1.3939067 -0.5416495 0.8618727 -0.97701555 -0.51149875
-1.5158842 0.052680284 -1.7760223 0.83582914 0.47771004 -0.6494232 0.34245786 0.1830427
-0.75348336 0.047109913 -0.19973233 -0.81945276 -0.26932025 0.6027312 2.595982 1.00957

embedding_instance.bias f4 [100]
00000000: d809 6639 589c 11be 9ed6 8cbd fa41 c3be
00000010: ffa3 f13e 6388 293e 27a3 08c0 0690 2b3c
00000020: d34e f1bb 0972 36bd bafe aabc 9440 7f3c
00000030: 4c2d 29bc 90b4 f13e f11a 9f3b 9b5c 3c3d
00000040: 7f86 7cbd c27e 473c 51ef 8f3d f56c 513c
00000050: d363 24bc bdea 153c 7736 623c 0e55 423d
00000060: d314 233d 419a 06bc 3d05 8bbd 0d3b 433e
00000070: 4c97 bdbb 8af5 4d3d 1cbd bb3e 4036 0e3d
00000080: 7b0a 1840 4597 90bf 39d4 debc 1b8b 5b3e
00000090: 4246 b43c 7e3f c3bc bbf7 923b eb4f 4b3e
000000a0: 38a6 dfbc 626c 483e 121f fc3b a36b a1bd
000000b0: 144c 203e 307e d83f b91b 00bd bc29 b63f
000000c0: 97ae 1f3c 51a0 66be 6d5a 5abe ded2 9bbd
000000d0: 3561 623d ba94 d93f a0a4 64bf 273c 2cbc
000000e0: 15c3 eabf 9e51 923f ddcf 5b3e 6b19 293f
000000f0: 12d2 3e3e 3fe8 c0bf 2a35 08bc 9fbd 3c3f
00000100: 342d e7bd be11 a1bc 53e7 b93e 67ca 943f
00000110: 215c ef39 d196 6fbc 700e 05bd 1b45 143f
00000120: 6aeb b93e bd3c 23bd 6a97 c63c eea9 0cbb
00000130: e9f3 4a3c d4e3 1ebf 06a6 553f 3b83 1e3d
00000140: fa17 b73e 8400 a5bc 775b c4bc 0fd7 4abe
00000150: f4fb f5bf 3412 6b3c 4c42 10be 344b af3c
00000160: 034e cbbf 40ad 4dbe 5e58 96bc b813 a43d
00000170: b737 55bd 774d 583b 12e4 643f 64b2 b7bf
00000180: e840 603c c005 473e 91aa 033d d41d 82bb
0.00021938176 -0.14219797 -0.068768725 -0.38136274 0.47195432 0.16555934 -2.134958 0.01047135
-0.007364133 -0.044542346 -0.020873416 0.0155793615 -0.010325741 0.4720807 0.0048555066 0.045986753
-0.061651703 0.0121762175 0.07028068 0.012782325 -0.010033566 0.009150204 0.013806931 0.047444396
0.03981478 -0.008215488 -0.067881085 0.19065495 -0.0057858583 0.050282992 0.36667717 0.034719706
2.3756397 -1.1296164 -0.027200805 0.21439783 0.022006158 -0.023833986 0.004485098 0.19854705
-0.027300939 0.19572595 0.0076941336 -0.07881858 0.15654022 1.6913509 -0.03127644 1.4231486
0.009746215 -0.22522093 -0.21323557 -0.07608579 0.055268485 1.6998513 -0.893137 -0.010512388
-1.8340784 1.1431158 0.21466012 0.6605441 0.18634823 -1.5070876 -0.008313457 0.7372684
-0.11287919 -0.01966178 0.363093 1.1624268 0.00045654274 -0.01462336 -0.03248447 0.57917947
0.3631242 -0.039852846 0.024242122 -0.002146359 0.012387254 -0.6206639 0.83456457 0.03869937
0.3576048 -0.020141847 -0.023969395 -0.19808601 -1.9217515 0.014347602 -0.1408779 0.021398164
-1.5883182 -0.20085621 -0.018352684 0.080115736 -0.052055087 0.0033005157 0.8941051 -1.4351315
0.01368735 0.19435787 0.032145087 -0.003970841

embedding_X.weight f4 [20, 30]
00000000: 8033 9b3e 337c 01bf 4b85 d93f 53c7 583e
00000010: edf3 cd3e c1d0 a4be 2766 6e3f 6af0 e03d
00000020: 4850 07bf 3705 5ebf 068c 8cbf ee72 b93f
00000030: da98 303f d6cb f83e bb7f 4cbf eaf1 64bf
00000040: 57dc 943f ffdd 3b3f 8888 8d3f 31b9 2dbf
00000050: 4bf0 e53d c2c1 393f b1f7 b0bf 4170 b6bf
00000060: d305 dabe d749 38be ec28 13bf 3b72 38be
00000070: 7885 dfbf 214a b2bf ab98 1b3e 7d47 d73e
00000080: 3795 193f 78b9 cebe 825d 4bbf f2d3 17bf
00000090: a4e9 ce3f ff46 933c e0cd eb3e 1f73 ebbf
000000a0: 9ddf 853f 6655 863f e1f1 19bf 770e ef3d
000000b0: 6ff6 ae3f d13d e63f 447f c1bf 93aa 41c0
000000c0: 4139 5e3e abde 18bf 1bc3 463e 3e41 8e3e
000000d0: 9c47 a8bd cd04 203f 4646 2f3f 47d9 2c3f
000000e0: 2fe3 fdbf e007 bebf 32d0 5abe dcbd 4a3f
000000f0: 7db3 953f a451 553c 153c 863f d132 b4be
00000100: b9d1 833f e55d c93f 75aa 2a3f f594 61be
00000110: 5247 663e 33e4 44bd f0cf ea3e 1bb7 21bf
00000120: e19a 933d 3d89 d3be 41da cdbe 5305 383f
00000130: 5bd6 c13f 6621 bfbe 5c39 193e 9115 a0be
00000140: 6064 de3e 250a 00bf 711d f0bd c787 1bbf
00000150: 4a0b 653d 3b34 443f 9fb5 56be dcd6 00bf
00000160: dfcb 833f 2e2f 8cbe 6d4b a03f 246f 0a3f
00000170: bfe4 4c3f 607b a33f eae5 b53f 3893 ffbf
00000180: ab60 62bf 4f14 00c0 4c52 0b40 534b b43f
00000190: 87b3 babf d8f9 16bb 3025 6dbe 4164 a93e
000001a0: c4b3 d03e 4b18 b9bc fd8c e0be fbc2 df3d
000001b0: c3ca a4bf 9c62 763e b7c7 6a3f a02d 02c0
000001c0: 871a 683f 951e 503f b4d5 c8bf 2cc6 aebf
000001d0: 7fcf ea3f d0da eebe dea7 54bf 1c13 84bf
000001e0: 5d24 8bbf b2ab 9bbd 4c50 c4bf 7b6f 003f
000001f0: 41df 823f e384 3e3e d7b4 f3be 78f2 9d3f
00000200: f126 e23e 1dda 16bf d159 88bf 2180 993f
00000210: 1901 afbf 2f74 4a3f 5936 edbf b438 9b3f
00000220: db09 683f de40 21bf 194c 603f c5b9 02c0
00000230: 62bb 3cbf 26b9 c13d 1571 26be 8808 e73f
00000240: 7a48 00bf be68 4b3f b666 9a3f ef13 c53f
00000250: 7c45 42bf 2606 883f f33a 0a3f 343f 103e
00000260: 6d6c bdbe 2aca b2bf ec8d d1bf 892d 7cbe
00000270: 8aaa 92bf fda1 0fbf c1c2 9f3f 7ed8 08be
00000280: 6ba3 e93e 0b87 78be 4d82 7c3f 51c3 893f
00000290: f9e1 78be 1c49 9abf c55c 863f eaf2 aabe
000002a0: d142 be3e 76d4 34bf aed5 1b3e f70e 3abf
000002b0: 1b26 63bf 470b 793f 7702 06bf 42b0 b5bf
000002c0: 12ce a5bf ee84 883e 6d1a db3e 8b2f 5d3f
000002d0: d778 3bbf 5cad f8be caeb f23e 9b67 333f
000002e0: 1a6a 45be 3033 a13e f58f 80bf 6179 95bf
000002f0: 95bd 10be 94b3 c63c 3bf7 223e 0ba0 c8be
00000300: e877 dcbf 2f14 cdbf 575d 553f e408 463f
00000310: d934 183e c31b 083f 9e08 4f3f 1733 c4be
00000320: f2c3 263e fe1c 103e 0670 72bf 80f9 fcbe
00000330: fbbc 87bf 0529 2e3f e37d 8abf 87e3 3c3f
00000340: f06e b3be a2e2 ce3e 1f74 b53f c29c c43f
00000350: 28ff eebe 45e6 853f cf52 2c3f b3db 41bf
00000360: 7b7c 24bf dd18 b43f 88f5 463f 18b9 55bd
00000370: f585 8b3d 26f8 503f b9cd 8e3f 0e35 b7be
00000380: 1312 be3f 3dac 28bf 1bf5 0cbf d854 94bf
00000390: 249b 8b3d f8f0 543f 5973 3ebf 7f0d c4bf
000003a0: 78e1 803e 1631 1bc0 1fea dbbf 281e 763f
000003b0: db90 fdbe ae8d a2bf a6b3 a9be dafb a73f
000003c0: 4053 6e3f fdcd b1bf fd9a a7be eedc 063e
000003d0: ea6b 84bc 0bff 5cbf c486 25be 668c 33bf
000003e0: 60a9 e23e 067c 673f f3d3 c83e cbba f53e
000003f0: e4ed 323f 25df b53e 5f92 1fbf 2f18 9d3e
0.3031273 -0.5058014 1.6993803 0.21169786 0.40225163 -0.32190517 0.9312462 0.10983355
-0.52856874 -0.8672671 -1.0980232 1.4488199 0.6898323 0.48593014 -0.798824 -0.8943163
1.1629742 0.73385614 1.1057291 -0.67860705 0.11227473 0.72561276 -1.382559 -1.4253007
-0.4258257 -0.17996918 -0.57484317 -0.18012325 -1.7462606 -1.3928872 0.15194957 0.4204673
0.5999331 -0.40375876 -0.79439557 -0.5930778 1.6165051 0.01797819 0.46055508 -1.8394507
1.0458866 1.0494812 -0.601347 0.11672681 1.3668956 1.7987615 -1.5116963 -3.026036
0.21701528 -0.59714764 0.19410364 0.2778415 -0.082167834 0.62507325 0.68466604 0.6751904
-1.9834956 -1.4846153 -0.21368483 0.7919595 1.16954 0.013019953 1.0487086 -0.3519502
1.0298377 1.5731779 0.66666347 -0.22029479 0.22488144 -0.04806919 0.4586177 -0.6317002
0.07207275 -0.41315642 -0.40205577 0.71883124 1.5143541 -0.37330168 0.14963287 -0.31266454
0.43435955 -0.5001548 -0.117243655 -0.60754055 0.05591897 0.766422 -0.2096772 -0.5032785
1.0296592 -0.27379745 1.2523018 0.5407584 0.8003654 1.2772026 1.4210789 -1.9966803
-0.88428754 -2.0012395 2.176898 1.4085487 -1.4586037 -0.0023037102 -0.23158717 0.330843
0.4076215 -0.022594592 -0.43857566 0.109258614 -1.2874378 0.24061054 0.9171099 -2.0340347
0.9066548 0.81296664 -1.5690217 -1.3654227 1.8344573 -0.46651316 -0.83068645 -1.0318332
-1.0870472 -0.07601108 -1.5337005 0.50170106 1.0224382 0.1860538 -0.47598907 1.233962
0.44170335 -0.58926564 -1.065241 1.1992227 -1.367221 0.7908353 -1.853221 1.212668
0.9064004 -0.62989604 0.87616116 -2.0425885 -0.73723423 0.094591424 -0.16254075 1.8049479
-0.5011059 0.794567 1.2062595 1.5396708 -0.75887275 1.0626876 0.539962 0.1408661
-0.36996785 -1.3967946 -1.6371436 -0.24626745 -1.1458294 -0.5610655 1.2481309 -0.13363835
0.4563249 -0.24270265 0.98636323 1.0762731 -0.24304952 -1.2053561 1.0497061 -0.33388454
0.37160352 -0.7063669 0.15218231 -0.72679085 -0.8873002 0.9728283 -0.5234751 -1.4194415
-1.2953513 0.26663917 0.427936 0.8640067 -0.7323126 -0.48569763 0.47445518 0.70079964
-0.19278756 0.31484365 -1.0043932 -1.1677667 -0.1413482 0.024255551 0.15914623 -0.39184603
-1.7224092 -1.6021785 0.8334555 0.77357316 0.1486391 0.5316736 0.80872524 -0.38320228
0.16285685 0.1407356 -0.94702184 -0.49409103 -1.0604547 0.6803134 -1.0819668 0.7378468
-0.35045576 0.40407282 1.4176062 1.5360339 -0.46679044 1.0460898 0.67313856 -0.7572586
-0.6425244 1.4070088 0.777184 -0.052178472 0.0681266 0.81628644 1.1156532 -0.35782665
1.4849266 -0.65887815 -0.550615 -1.1588392 0.068167 0.8318019 -0.74394757 -1.5316619
0.2517202 -2.424871 -1.7180823 0.96139765 -0.49524578 -1.2699487 -0.33144873 1.3123734
0.9309578 -1.3890988 -0.32735434 0.13170215 -0.016164739 -0.86326665 -0.1616469 -0.70136106
0.44269848 0.9042362 0.39224204 0.47994074 0.6989424 0.35521808 -0.6233272 0.30682513

embedding_X.bias f4 [20]
00000000: a15b d53f d875 f33f 669c 49c0 bdbd 1e3f
00000010: c743 f2be 4471 1040 fce7 3740 b30f 46bf
00000020: 2c2e 14c0 ecb7 08c0 f2e0 28c0 c03d 08bf
00000030: e274 3940 1110 85be 5d25 3240 1d23 4a40
00000040: 2989 e93f 3aa7 d6bf c8d9 2ac0 5eec 3640
1.6668588 1.9020338 -3.1501708 0.6200827 -0.47317335 2.2569132 2.8735342 -0.77367705
-2.315318 -2.1362257 -2.6387296 -0.53219223 2.897759 -0.2598882 2.7835305 3.1583931
1.8244983 -1.6769783 -2.6695423 2.8581767

embedding_uncern.weight f4 [20, 30]
00000000: 725f 753e 9418 90bf 884c 743e b2ba 593f
00000010: 3db6 b5be 802c 63bf 4e3b 643d a901 b0be
00000020: e18c a9bf 1665 ea3e cfef d0be 7fad b43d
00000030: 3317 d93e cf5a 04bf 5169 96bf a7bf a33e
00000040: cfbc fbbe 3a61 743e 1655 803f 7d0a 163f
00000050: 44fa cdbf 9c23 57be 8507 d8bf d68c 8a3e
00000060: 8ca1 32bf d0b9 523e cba0 13bf 96fb 1fbf
00000070: c46c 9ebe 55bd 86be 6ef4 c13d ac2b 4d3e
00000080: a6c9 30be fb22 d9be 69c9 cfbd effe 2b3e
00000090: c3ac 1040 3317 4f3f bed8 8f3e 1c0b 47be
000000a0: 686c 8abb 3bdb 34bc 8d7d babd edf3 13c0
000000b0: 63c7 793e 4517 2c3f 5fcc 04be 37a8 e1bf
000000c0: 630b 803f 4db5 07bf 7f42 b23f 23d3 07bd
000000d0: 3542 17bf 9663 8c3f 8a2c 26bf 4bb2 43bf
000000e0: faaa 85be 8096 213f 97f8 83be 2dad b53e
000000f0: 54d1 823e 0149 653d 5923 a33e 4852 7c3e
00000100: c2a9 43bf a7bc 913f eb2a 763e cca7 4fbe
00000110: 1ef8 c73b 8fc7 0940 dd88 3b3f 3511 89be
00000120: 9c05 013f 3c8f 903e c0ef 12be a31f 0d3f
00000130: 8846 a33f d13a 44be 2af5 62bc 74ce e8be
00000140: 9c77 853f 9fd4 963d d410 c2bf 854c 133d
00000150: 57ed a53f cc12 babd a30b 343c 8dd7 dc3e
00000160: 8410 083f 5d0d e33e f455 d43f 9301 103f
00000170: 0c84 c83e a606 df3e b930 503d 9bb5 3d3f
00000180: 4319 2a3f 185b 0abd c94d 2f3f 8256 113f
00000190: cf94 943f f84c a53f a361 c03e 1dd9 0b3f
000001a0: b325 1f3f 937e 70be 152b 0f3f 5da3 bd3e
000001b0: 6f29 7a3f 428a 23bc 9743 4bbe bdb9 803e
000001c0: 3319 ba3f 582b 643f 41d8 18bd 3bdc 0440
000001d0: 25bf 12bf 5d61 cd3d 7f27 f43e a199 8d3f
000001e0: 8573 24bf 30d5 79bf bb1d 73bf 1150 9ebe
000001f0: ab95 3f3e f433 4cbe a8fb 1c3f 9920 8fbf
00000200: df4a 7b3f 2204 83be 26c5 8abf 937d 9fbe
00000210: 6738 f1be 15f1 da3d 5cc6 1dbf 77ff 91bf
00000220: 6d18 413f ad6d a2bf 2284 d3be a9ce 64be
00000230: 6089 b5bf 8d68 c7bf 6a5b 8abf 3050 25bf
00000240: c4e4 ebbe 8cda 143f dbdc 9ebe 1033 6ebf
00000250: 1f09 d0be ec08 af3e bb12 30bf d4b4 0fbe
00000260: 3b1f 093f c836 85bf 9b67 b53e 2141 12bf
00000270: 0d54 af3d 36b0 c53e 8a7e 8a3d e5bf 183f
00000280: 6bb8 50bf f9f3 ab3e 009f 6b3f 59ce 86be
00000290: b230 723e b38d 533f e372 df3e 718d e9be
000002a0: 3be6 583f a104 c3bf 5b7f 94bf cf95 d5be
000002b0: e907 c83e 4856 073d 9422 d83f bd0f 283f
000002c0: b58f 21bd bad0 e73e 99c6 6ebd b0c9 0dbd
000002d0: c5b6 083f abc3 513f 0bc2 393e 60a8 0fbf
000002e0: a4c6 133f c211 9d3c bc83 45be eccf 83bf
000002f0: a4dc 8ebe 7f54 87bd d618 9bbe de1e 18bf
00000300: 7c35 d33f 87a0 603f e5f0 283f 4374 f43d
00000310: ba82 fabe c3a4 d0be 62c5 c23f f723 2f3e
00000320: 5bc0 f63f 24fb 80bf 7075 1dbe 14f7 603f
00000330: 6dd4 97be 4058 ae3f 6eba 27be 5415 12bf
00000340: bcb1 843f a09c 46bf 3fd6 e13e 291d b03f
00000350: bb42 613e 4f12 7ebe 41a8 3dbf b41f 603f
00000360: 112c 293f 5127 0b3f 823a a53e e12b b43e
00000370: 6367 8fbe 2908 1cbe 2be8 b4bf 4761 c43e
00000380: ffb6 3d3f 183b 1abf ee5e 22bf 5a06 54bf
00000390: 378a e6be 5f84 e8be 0422 a8bf 310f 4bbf
000003a0: edb6 acbf bd94 dcbe 92e8 08bf 0e97 883e
000003b0: 9e38 5b3f 0dec 47bf 7fe7 48bf f8a6 42bf
000003c0: f478 5b3c 79b4 f73e 3c47 643f 0dbe edbd
000003d0: 2f3b 483f 0538 3d3f b1a7 83bf 3e6b 13bf
000003e0: a3fd 2dbf 3fd5 91be 8548 423e 78a6 9dbf
000003f0: 4990 2dbf 5b1e 5dbf 02db c0be ade3 ae3d
0.23962191 -1.1257501 0.2385732 0.850505 -0.354906 -0.88739777 0.05572062 -0.34376267
-1.3246118 0.45780247 -0.4080796 0.08822154 0.42400512 -0.5170106 -1.175089 0.31982157
-0.49167487 0.23865214 1.0025966 0.58609754 -1.6092 -0.21009678 -1.6877295 0.27060574
-0.6977775 0.20578694 -0.57667226 -0.62493265 -0.30942357 -0.26316324 0.094704494 0.20036191
-0.17264423 -0.424095 -0.10145838 0.16796468 2.2605445 0.80894774 0.2809505 -0.19437832
-0.004224349 -0.011038597 -0.09105978 -2.311763 0.24392466 0.67223006 -0.12968586 -1.762946
1.0003475 -0.5301102 1.3926543 -0.03316034 -0.590854 1.0967891 -0.6491171 -0.7644393
-0.26107007 0.6312027 -0.25775596 0.35483685 0.2555033 0.055977825 0.31862906 0.24640763
-0.76430905 1.1385697 0.2403981 -0.20278853 0.006102576 2.152805 0.7325571 -0.2677094
0.50399184 0.2823428 -0.1434927 0.551264 1.27559 -0.19163062 -0.013852397 -0.4547001
1.0427127 0.07364773 -1.5161386 0.035961647 1.2963055 -0.090856165 0.010989103 0.43133202
0.531502 0.44346133 1.6588731 0.562524 0.39163244 0.4355976 0.050827716 0.7410523
0.66444796 -0.03377828 0.68478066 0.56772625 1.1607913 1.2914114 0.3757449 0.54628164
0.621669 -0.23485784 0.5592511 0.370387 0.9771947 -0.009981694 -0.19850002 0.25141707
1.453894 0.8912864 -0.03731561 2.0759418 -0.57322913 0.10028336 0.47686383 1.1062509
-0.6423877 -0.97590923 -0.9496724 -0.3092046 0.18709438 -0.19941694 0.61321497 -1.1181823
0.9816112 -0.2558909 -1.0841415 -0.31150493 -0.47113344 0.10690514 -0.616308 -1.1406087
0.75427896 -1.268972 -0.41311747 -0.2234446 -1.4182549 -1.5578781 -1.0809147 -0.6457548
-0.46072972 0.58145976 -0.31027874 -0.93046665 -0.4063196 0.34186494 -0.6877858 -0.14033824
0.5356328 -1.0407343 0.35430607 -0.5713063 0.08560953 0.38611 0.06762417 0.5966781
-0.815314 0.33584574 0.9203949 -0.26329306 0.23651388 0.8263809 0.4364234 -0.45615724
0.84726304 -1.5235788 -1.1601366 -0.41715857 0.39068535 0.03304127 1.6885552 0.65649015
-0.03944369 0.45276433 -0.058294866 -0.034616172 0.53403884 0.8193919 0.18140428 -0.56116295
0.57724977 0.019173507 -0.19288534 -1.0297828 -0.2790271 -0.06607913 -0.30292386 -0.594221
1.6500697 0.87744945 0.65992576 0.11936238 -0.4892786 -0.40750703 1.5216486 0.17103563
1.9277452 -1.0076642 -0.1537683 0.8787701 -0.29654256 1.3620682 -0.16379711 -0.57063794
1.036674 -0.7758274 0.4410877 1.3758899 0.21998112 -0.24811672 -0.7408486 0.87548375
0.66082865 0.5435687 0.322712 0.35189727 -0.28008565 -0.15237488 -1.4133352 0.38355467
0.74107355 -0.6024642 -0.634261 -0.8282219 -0.45027325 -0.4541349 -1.3135381 -0.79320055
-1.3493325 -0.43082228 -0.53479874 0.26677746 0.85633266 -0.7809456 -0.78478235 -0.76036024
0.013395537 0.48379877 0.89171195 -0.11608515 0.78215307 0.73913604 -1.028555 -0.57585514
-0.67965144 -0.28483006 0.18972977 -1.2316427 -0.67798287 -0.86374444 -0.3766709 0.085395195

embedding_uncern.bias f4 [20]
00000000: 0c9a 90bf d98b 38bd 937c 943f 3311 ad3f
00000010: a094 a0bf 6b1a 89bf 3f20 2abe 3721 353f
00000020: 3d75 6bbf 95ea 07bf 9452 833d ea4d 61bf
00000030: 5a78 963f 3893 76bd b31c 0dbf 6db4 bc3f
00000040: 472a c4be 4dbc eabd 4f1e 94bf b165 86bf
-1.1297011 -0.045055244 1.1600517 1.3520874 -1.2545357 -1.0711187 -0.16613863 0.70753807
-0.91975766 -0.5309232 0.06412235 -0.8800951 1.1755478 -0.060198992 -0.55121917 1.4742562
-0.38313505 -0.11461697 -1.157175 -1.0499784

fc1.weight f4 [64, 140]
00000000: cb70 81bb 9107 51be 9604 ce3c b9fd 9a3e
00000010: 1fb5 eabe 8d19 3ebe 925a bd3e a9ab 47bc
00000020: 3ead d23b 216c 2b3c fa5b 153c 76d1 583c
00000030: 8d08 8bbb 5ed9 0bbf d8ee 513b 5b39 a6bb
00000040: 0a54 da3a 3e7d 7a3c c937 7f3d 8b43 4cbc
00000050: 4ade acbb af57 dc3b 5e36 0b3b fa5a 56bc
00000060: 8b22 a4bc ab57 4d3c 7ec0 9b3c 3692 89bf
00000070: 24a7 103c 0e3b 20bd c519 0b3d 47c0 28bb
00000080: d731 10c0 90d9 113f 9083 d13b fced b8bd
00000090: fb48 cf3b ce4f 6ebb f212 babb 54dc f43d
000000a0: c0f6 2b3c a0e4 c9bc a3a0 3ebb 66a8 dc3c
000000b0: d529 c1bd d202 bf3e 4c69 0bbc ca0e c5be
000000c0: 09e8 b6ba 6876 be3e 2eaa 1ebe 5c56 163d
000000d0: 393a aabe 641f 853f adfe b53e a3c9 74bb
000000e0: 446c f63e 61d2 13be ca79 e63c 9fd1 1dbe
000000f0: 7564 8dbf bd33 b93f 1daa 91ba eb52 143f
00000100: a91d 803c 1f35 dcbc cb08 8a3e 0cb8 0dbf
00000110: bad8 183b a423 b4bb 228c 123c 94e9 2f3f
00000120: c00b a03f 0a8d b7bb 67f0 e8ba 9e4a 963b
00000130: 6815 f63b e2e6 f5bf fa76 463e 5fb4 7cbb
00000140: f345 0d3f b96a f2bb f2f4 c1bb 438a 97bb
00000150: c91b 3bbf 0d97 4bbd fbdd ad3e 88b2 6bbc
00000160: 1ac0 83bf 108a 2e3f e3a6 063c 6cae 22bf
00000170: ad9d 8b3c ba3b abbb 75da b93e d015 283f
00000180: f51d 483b 8058 a1bd e07f 92bb e763 0abc
00000190: c391 acbf e612 773f 0d33 88bf a831 ea3f
000001a0: bb5b 98bf 8148 b2bf 7de7 ebbf 2e35 c2bf
000001b0: 552b 993e 83ef 67bf d139 fbbf 5d83 2740
000001c0: 1a98 c73f ed33 5ac0 34a2 423f b711 2240
000001d0: 4869 0540 9d70 03bd 7533 6c3f 971a 853d
000001e0: 53a2 6e3e 0618 8cbe b80a 90bc 8599 7bbf
000001f0: 01be 2f3f f5f2 2fbe ae5a 30be 5a5b 783e
00000200: f171 32bf 0468 b5be ace2 a0bf ad7a 823f
00000210: 8d25 b13e 1897 7bbf e50c debe de2b 69be
00000220: 4e79 01bf 8da1 0cbf ed3c 3ebe b6a7 323f
00000230: 9446 b5ba ba15 443f b37e 733d fb27 9bbd
00000240: 9ea5 193f 3f70 67be aea7 eb3e 813a 58bc
00000250: 6af0 a93c d284 823d 420c af3c 1e3d 5e3c
00000260: ed98 c2bb 7b9a a53f 01ef 763c 23a1 41bc
00000270: 1f54 b93c d6d6 483d 2942 93bc 0a06 afbc
00000280: 37b9 603b 6bd3 9f3c 20ec 2d3d 2629 83bd
00000290: 7e72 06bd 39fa 0d3c 8306 ce3c 99ac 883f
000002a0: ede2 8c3c e434 33bd 116c b7be e7c8 8fbc
000002b0: 61f7 21bf ac5a 603e deba 8e3c 6570 a83e
000002c0: 0fb4 8a3b d556 443b a128 0dbd adda fcbe
000002d0: ce4a 9e3c cf6d 823c 9b22 30bb 0b4e 123d
000002e0: 5a6b bbbe c7d0 993e 360b bdbb e765 c7be
000002f0: 15a3 5bbb 24e2 c83d 2c95 653d a920 813d
00000300: fb22 343e 73c4 e5bf 5146 9a3d 18fc dfbc
00000310: a1cf 16bf c927 cdbe 422d 523e 454d 56be
00000320: 86d8 07bf f084 82bc fa07 aeba 813a 803f
00000330: fe0f 90bd eda8 e4bb d05c f03d 69c3 3f3f
00000340: 19bc 8cbc 6a74 553c cf91 e83c 8650 26be
00000350: 5f9f bbbf 9b9a dd3c 4e7d 1cbb ea83 a13c
00000360: 39bf 20bb 320d ee3e cf4d 8f3d 4651 b93b
00000370: e285 ab3e 5aeb e6bc 40e8 d3bc ca73 00be
00000380: f17e 863f bf52 b8bc 084d 913e b1bd 36ba
00000390: c376 0ebf 976c ae3e 5194 cc3c c9b6 d03e
000003a0: 4fad 9a3c 1f4d 0d3c 99a3 463f 2ee4 9abe
000003b0: 3e9a 213c 0012 b3bf a798 22bc 72ee 0fbc
000003c0: 2eed 51bf fdc2 bcbf 9833 a03e aa0f f73f
000003d0: 980c cb3e 7dc9 05c0 dfc5 523f 72d6 20bf
000003e0: 61ca 9c3f 8222 fcbf 5e67 62bf f001 423f
000003f0: 7df4 453f ce44 1bbe 23c1 c33f 78a4 103e
-0.0039502135 -0.20413043 0.025148671 0.302717 -0.4584131 -0.18564434 0.36983162 -0.012186923
0.0064293435 0.010462792 0.009116167 0.013233533 -0.0042429627 -0.5462855 0.003203323 -0.0050727553
0.0016657126 0.015288649 0.06230906 -0.012467275 -0.0052755224 0.00672432 0.0021242122 -0.013083214
-0.020036003 0.012533109 0.019012686 -1.0747745 0.008828912 -0.03911882 0.033960123 -0.0025749372
-2.253042 0.569726 0.0063938573 -0.09029767 0.0063258386 -0.0036363485 -0.005678528 0.11956087
0.0104958415 -0.02464515 -0.0029087446 0.026935767 -0.09431807 0.3730684 -0.008508991 -0.38487846
-0.001395465 0.37199712 -0.15494606 0.036703452 -0.33247545 1.0400205 0.35545865 -0.003735163
0.48129475 -0.14435722 0.028134245 -0.15411995 -1.1046282 1.4468914 -0.001111332 0.5793902
0.015639143 -0.026880799 0.26959834 -0.5535896 0.0023322538 -0.0054974128 0.008944543 0.68715787
1.2503586 -0.00560153 -0.0017771841 0.004586532 0.007509876 -1.9211085 0.19381323 -0.0038559658
0.5518486 -0.0073979762 -0.0059190923 -0.0046246364 -0.7308927 -0.0497046 0.3395842 -0.014385827
-1.0293 0.68179417 0.0082185 -0.63547397 0.01704296 -0.005225626 0.36299482 0.65658283
0.0030535434 -0.07878208 -0.0044708103 -0.00844667 -1.3481983 0.9651321 -1.064058 1.8296404
-1.1902994 -1.3928376 -1.843002 -1.5172479 0.29915872 -0.9059984 -1.9627019 2.6173928
1.5593293 -3.4094193 0.7602875 2.5323312 2.0845509 -0.03208982 0.9226602 0.06499212
0.2330411 -0.27362078 -0.017583236 -0.9828113 0.686493 -0.17182525 -0.17222092 0.24253598
-0.6970511 -0.3543092 -1.2569175 1.0193688 0.3459896 -0.98277426 -0.43369213 -0.2277064
-0.5057572 -0.54934007 -0.18577929 0.69787157 -0.0013830238 0.7659565 0.059447 -0.07575985
0.60018337 -0.22601412 0.46026367 -0.013197542 0.020744521 0.0637299 0.02136815 0.013564376
-0.0059386403 1.2937769 0.015071631 -0.011818203 0.02262312 0.04903301 -0.017975884 -0.021365184
0.0034290084 0.019509992 0.042461514 -0.06404333 -0.032824032 0.008665615 0.02514959 1.0677673
0.01719805 -0.043751612 -0.35824636 -0.017551852 -0.63268095 0.21909589 0.01742309 0.3289825
0.0042328904 0.0029958982 -0.034462575 -0.49385586 0.019322779 0.015921501 -0.0026876095 0.03571896
-0.3660534 0.30042097 -0.0057691587 -0.38944933 -0.0033513953 0.09808758 0.056050465 0.063050576
0.17591469 -1.7950577 0.07532943 -0.027341887 -0.58910567 -0.40069416 0.20525077 -0.20927913
-0.53064764 -0.01593253 -0.0013277524 1.0017854 -0.070343 -0.0069781453 0.117364526 0.7490755
-0.017179536 0.013028244 0.02838984 -0.16241655 -1.4658011 0.02705126 -0.0023878398 0.019716222
-0.002452804 0.46494442 0.06997263 0.0056554405 0.33500582 -0.028188396 -0.025867581 -0.1254417
1.050749 -0.022500394 0.28379083 -0.0006971015 -0.55649966 0.34067222 0.024973067 0.40764454
0.018881468 0.008624344 0.7759338 -0.30252212 0.009863434 -1.3989868 -0.0099240905 -0.008784877
-0.8200253 -1.4747006 0.31289363 1.9301655 0.39658046 -2.0904229 0.8233318 -0.6282722
1.2249261 -1.9698031 -0.88438976 0.75784206 0.77326185 -0.15162966 1.5293316 0.1412524

fc1.bias f4 [64]
00000000: ccae 2c3f 65b5 b83f fadb 43bf bf04 da3f
00000010: a2e9 6d3f 16b4 cf3f 07a3 3ebf 0390 e13d
00000020: efe4 03be 6e12 d1bf 04ef de3f bf2d f23f
00000030: 6b71 20be cba0 c5bd 8268 28be 2919 3f3e
00000040: 52e9 6bbf 53a7 3bbe c4e4 a73f 7618 08c0
00000050: 0f32 1abf 4d67 14be 44a3 8ebf 55b3 593f
00000060: 9ca1 e0bf ecff d33e 5cfc 84bf b68c a63f
00000070: 97fc 8b3f 7fd2 873f 245f cebd f179 30bd
00000080: 97df 813f 0a29 45be b509 5d3f 7fe6 dfbe
00000090: 5a02 2fbf 9a89 e53f 3bb8 743f 2e7d 40bf
000000a0: 6999 133d 4e74 64be f28f 81be 6be5 d83e
000000b0: 9362 d2bf babe 39bf 80f7 8a3e 2499 1a3f
000000c0: 6b3d de3f f3e9 ba3f 5d31 8c3f 6e8f 6d3f
000000d0: 2813 40be 6fa8 f8bf 73d3 a23f e8b4 b13f
000000e0: e6ca dc3f 828c 0240 ec7f 1abe 1fe5 d7bf
000000f0: 3d90 2dbf 976d 01be e36b 2e3f 8a02 a4bd
0.6745422 1.4430357 -0.7650753 1.7032698 0.9293462 1.6226833 -0.7446751 0.11013796
-0.128803 -1.6333749 1.7416692 1.8920211 -0.15668266 -0.096498094 -0.16446117 0.18661942
-0.92152894 -0.18325548 1.3116689 -2.126493 -0.60232633 -0.14492531 -1.1143575 0.85039264
-1.7549319 0.4140619 -1.0389514 1.3011692 1.0936459 1.0611113 -0.100767404 -0.043085042
1.0146359 -0.19253936 0.86342937 -0.43730542 -0.68362963 1.7932618 0.95593613 -0.7519101
0.036034975 -0.22309992 -0.25305134 0.42362532 -1.6436332 -0.7255665 0.27141953 0.60389924
1.7362493 1.4602646 1.0952564 0.9279698 -0.18757308 -1.9426402 1.2720779 1.3883333
1.724942 2.039826 -0.15087861 -1.6866797 -0.67798215 -0.12639461 0.6813337 -0.08008297

fc2.weight f4 [32, 64]
00000000: a9cd 32c0 fcd2 10bf 6a38 33bf 41d3 ddbe
00000010: 7a68 4abe a723 44bf 98c0 0b3e f619 4fbd
00000020: 5650 2b3d bfd5 dbbf 8d29 d2be 20ef 323d
00000030: d409 9a3d 5894 4f3d c30c cfbd d55c 06be
00000040: 8738 1a3e f71d 123e 912c 1c3e 553f 053e
00000050: 08d1 a2be bd59 bb3d 551d 623d 040f a7be
00000060: 1d11 ebbd 8647 34be 0147 c23e f65d c8bb
00000070: 20f3 7d3e 096c cc3d 9b24 b3bf 8512 62bd
00000080: 4a6f 53bf 504b 883e 5f4a 823d 27d1 debd
00000090: 204f 853d 2680 2e3d 4401 f7bd 21ff 51bd
000000a0: a863 493d 1584 193e 1864 abbe eebb 9abe
000000b0: a2d7 8c3e 5058 5c3e 67af d8bd 713b 2abe
000000c0: 4fe8 c8be a526 30be b471 eabd 8125 bfbe
000000d0: c14a 84bd 7fd8 76be 973d 5d3e 17e3 d83e
000000e0: 3703 77be b407 693e 2c1d 5d3d 8340 c83f
000000f0: d339 4f3f 88ec 323d ee13 5fbf e8d0 72bc
00000100: 8e2b 8d3e 84f5 653d ed45 063e 4fb6 883e
00000110: 848b 0b3e e198 0e3e 5f1a f5bd 1441 413e
00000120: 7268 183b 404d 1fbe fc29 db3d 55dd 7a3e
00000130: ee30 5cbd 9546 863c 8ea4 24bb 14d2 0b3e
00000140: 2a40 e0bd b522 423c f254 353e 29d2 25be
00000150: 458b 063e 3402 17bf 7e89 7f3e bd4c 613e
00000160: 2d6a 4cbe 3514 3b3e 4163 a23d 3939 8d3e
00000170: 6ba5 8b3c 7fb1 b83b 1ce6 593e 8d50 fe3c
00000180: 2e78 ff3b ce5f 563e 9963 4c3e 1325 833e
00000190: 8e8e 6bbd 0e6b 393e 6540 673e 2daa 85be
000001a0: ea55 4ebd b9fc 82be d1dd 4b3e 23ff 3b3e
000001b0: 3ad7 2d3e 7929 743e 011b 4a3e 8554 4b3e
000001c0: b9f6 f83d 1473 353e 76f5 653e a28b d93d
000001d0: 9f5b 883d b324 5cbe f87c 663e 97b3 543e
000001e0: 332a 303e 6a95 c23e 6675 7c3d 5961 92be
000001f0: b63d 853e 2bf6 653d 9e56 8b3e 49d0 ddba
00000200: 3c83 ccc0 87bc 113d c7c3 033d 752a 08bf
00000210: 4991 60bf 78ce b53e e6dc 0dbe d8c4 cfbe
00000220: 3e6c a03d 8618 df3e 86f3 343c 51cc 0f3e
00000230: 523f 333d 28db 96bd 244d 163d b453 fbbd
00000240: 19d6 ea3b 3635 f1bd 04c9 edbd 55c2 77be
00000250: 3441 48c0 168b 833c eebf 7c3e a94c 3fbf
00000260: a96c b0be ef82 9a3e 2b96 a23d 15e2 6cbf
00000270: bc3f c9bd 057c 4bbe 56fe dfbc f106 bfbd
00000280: 0358 5e3d f64a f93e 7f65 c23e 7694 1a3e
00000290: 15b8 8fbf c9ee 81bf 9255 9fc0 7a65 9fbe
000002a0: d0d6 d63c 53de c8be 0607 c73e 0ee1 8dbf
000002b0: d788 65bf 680a 7c3c a11c 113e e925 8b3d
000002c0: 69e1 663e 7bae 7a3d 1a47 0bbf 391a ad3d
000002d0: 80ce 373b 3f4e c2c0 9cc7 0e3f 482b 1bbe
000002e0: d73a e53e 3233 04bf 0da3 083c a159 17c0
000002f0: 9620 9b3f 4137 783d a2b6 40c0 b2cf 0f3d
00000300: 6227 853e 03a0 07c0 3b43 13be 7d2d ebbd
00000310: a337 bc3d 1df0 01c0 a9d4 05bf 3f0d 04be
00000320: c4f6 ae3d 6220 babe fad0 103f 5a4b 56bf
00000330: 521a a73d 6019 eb3b 1edc edbd 516d 933e
00000340: 60b8 59bd 0479 c1bd 903a 0fc0 4ca3 ddbd
00000350: c484 34bf 11ab 54bd af8e 84bd 624e c0bf
00000360: 4026 8d3d c426 8ebf 4836 813e 14e3 79be
00000370: f99b a3bd d942 96c0 5102 f9bf b056 11bb
00000380: aa56 cb3e c899 04bf f7b5 84bf 67f2 1ec0
00000390: a5d2 7c3e c857 2ebe c207 19bf 03e5 463e
000003a0: 8353 843d 093d bb3e 5baf 9ebf 468c 14bf
000003b0: 9415 b8bf 4450 e1bd 6b10 ef3e 5c64 8fc0
000003c0: 7a4b 08bf e1ea ad3f 8bca 9cbf 0aaa 04bf
000003d0: c8e2 db3c cdcc 2e3e c03c 4bc0 376e e1be
000003e0: c5cd 5bbe b60f 14bf 1c20 2bbd 0c02 bebd
000003f0: 21d1 3d3e 822a 783d 13cb 073e a6f3 853d
-2.7938025 -0.56571937 -0.70007956 -0.43325236 -0.19766417 -0.766169 0.13647687 -0.050561868
0.04182466 -1.7174605 -0.41047326 0.04368508 0.07521406 0.05067858 -0.10109856 -0.1312135
0.15060626 0.14269243 0.15251376 0.1301244 -0.31800103 0.091479756 0.055203754 -0.32628644
-0.114778735 -0.17605409 0.37944797 -0.0061147166 0.24799776 0.099815436 -1.3995546 -0.055193443
-0.8259169 0.2661996 0.063618414 -0.108797364 0.065092325 0.04260268 -0.12060788 -0.0512687
0.049167305 0.14991792 -0.33474803 -0.30221504 0.27508265 0.21518064 -0.1058033 -0.16624238
-0.39239737 -0.17202242 -0.114474684 -0.373333 -0.06459571 -0.24106024 0.21605526 0.42360756
-0.2412232 0.22756845 0.0539829 1.5644687 0.8094761 0.043682605 -0.87139785 -0.014820315
0.27572292 0.056142345 0.13112612 0.2670159 0.1362744 0.13925506 -0.119679205 0.18872482
0.0023255614 -0.15556812 0.10701367 0.24498494 -0.0537576 0.016391078 -0.0025122496 0.13654357
-0.10949738 0.011849095 0.17708185 -0.16193451 0.13139065 -0.58987737 0.24954793 0.2200193
-0.19962378 0.18269427 0.079290874 0.2758272 0.01704665 0.0056363936 0.21279186 0.031044269
0.007796309 0.20934984 0.19959868 0.25614223 -0.057508998 0.18107244 0.22583158 -0.26106396
-0.050374903 -0.25583437 0.19908835 0.18359046 0.16976634 0.23843946 0.19736864 0.1985646
0.121564336 0.1771968 0.22456917 0.10622336 0.066581 -0.21498375 0.2250861 0.20771633
0.17203598 0.3800462 0.061635397 -0.28589895 0.26023644 0.056142967 0.2721452 -0.0016923036
-6.39102 0.035580184 0.03216913 -0.53189784 -0.8772169 0.35509086 -0.13853797 -0.40579867
0.078331456 0.43573397 0.011044389 0.14042784 0.04376156 -0.073660195 0.03669466 -0.122718245
0.0071666357 -0.11777727 -0.11610606 -0.24195226 -3.1289797 0.016057532 0.2468259 -0.7472635
-0.344579 0.3017802 0.079387985 -0.92532474 -0.098266095 -0.19871528 -0.027342957 -0.09327496
0.054283153 0.48690003 0.3796806 0.15095696 -1.1228052 -1.0150996 -4.9791956 -0.31132108
0.026225477 -0.3923212 0.38872546 -1.1084306 -0.89661926 0.01538334 0.14171077 0.0679434
0.22546925 0.061201554 -0.5440537 0.08452267 0.0028046668 -6.0720515 0.5577333 -0.15153229
0.44771454 -0.5164062 0.008339656 -2.3648455 1.211932 0.06059957 -3.011147 0.035110183
0.2600661 -2.1191413 -0.14381115 -0.114832856 0.09190299 -2.0302804 -0.5227762 -0.12895678
0.085431606 -0.3635283 0.5656887 -0.8370873 0.08159317 0.007174656 -0.1161425 0.2879434
-0.05315435 -0.0944691 -2.2379494 -0.10822162 -0.70515084 -0.051920954 -0.06472527 -1.502392
0.06892061 -1.110558 0.25236726 -0.2440303 -0.07988734 -4.69566 -1.9453832 -0.0022176914
0.39714557 -0.5179715 -1.0368031 -2.483545 0.2468973 -0.17025673 -0.5977746 0.19423299
0.06461241 0.36570004 -1.2397264 -0.5802654 -1.4381585 -0.110016376 0.46692213 -4.481001
-0.5324017 1.3587304 -1.2249311 -0.5182196 0.026841536 0.17070313 -3.175583 -0.440294
-0.21465214 -0.57836473 -0.04177867 -0.09277734 0.18536808 0.060587414 0.1326106 0.06540613

fc2.bias f4 [32]
00000000: 8a56 edbf f183 953f 5a07 4dc0 1745 96bf
00000010: 7c17 38be da34 7c3f a6eb 1e3f 87ed bebd
00000020: 1524 a13e 1fcf 75bd 822d c6bf a422 86bf
00000030: ff3d 0ec0 9dbf 2ebe 864b f83f 2e11 c23e
00000040: 2feb 4940 9c86 293f c9ff 68c0 7997 253d
00000050: 78f0 61be 6b9c 393f 38de 82c0 aa7a a2be
00000060: 5073 47be d28d ddc0 2234 10c0 6d65 743f
00000070: dfe8 2fc0 f0ac c3bc 1c65 253f 031b e33f
-1.8542035 1.168089 -3.2035737 -1.1739835 -0.17977709 0.98518145 0.6207832 -0.093226485
0.3147284 -0.06001198 -1.5482638 -1.0479321 -2.222534 -0.17065282 1.9398048 0.37903732
3.1549795 0.6622102 -3.640612 0.04042766 -0.22064388 0.725043 -4.0896263 -0.3173421
-0.19477582 -6.923562 -2.253182 0.95467263 -2.7485883 -0.023886174 0.64607406 1.7742618

fc3.weight f4 [10, 32]
00000000: 4661 503d a807 48be 8f99 163e 3417 943d
00000010: a3bd 78bd 1c03 933d f990 a8be 017a cb3d
00000020: e3b8 8fbc fad8 9d3d 940b 2dbf 407e 9dbd
00000030: 77dc babd f7a0 ffbc 4fb4 913d 8dbc 23bf
00000040: e4ef f8bd 70e4 033e b0a7 ebbd 077e 853c
00000050: b521 1b3e 1bce 23bd da40 623d 0bef 3abc
00000060: c245 96bd 5f69 e73c f5ef a83d 82cb 9e3c
00000070: 5de5 fabd 3311 543d e4a0 a23e 904a e73d
00000080: 7bd4 33be 621a 32bd 994c 013d 574f 0bbe
00000090: 93d3 cfbd 0214 ccbd 4668 7d3d 5259 6f3d
000000a0: cf46 d53b 1bb1 1bbe 6b0b 05be d592 3ebe
000000b0: 7c5c fbbd beb1 9dbc e4fa 963d d94d 363d
000000c0: 80ec e5bd 0a18 96bd 5a2c a6bd 232a d7bd
000000d0: 46cc a53d 9e7f 68be e159 d9bb 6bf5 593d
000000e0: 181c 053e 2567 0f3d 66e1 afbd fe86 71bd
000000f0: 5248 87bd b52c 5ebd 65d7 a63c 74c0 0cbe
00000100: a1a1 8dbf d4d9 89be 5f2f 25be 29db 8fbe
00000110: 52cc 6f3e cc84 00be 7182 8cbd f8b9 353c
00000120: 85ee 24be 6a15 a63e e7d6 25be 31e1 563e
00000130: dbb8 533d 4686 db3d 14f0 813e 3d7f ee3d
00000140: 3cc2 0fbe 8908 c4be 6a4a ed3d 311d 82bc
00000150: bcff 123e e70a 47bf e615 153e 2a11 a13c
00000160: 03c8 483d d601 c5bc 071f 8cbe 5937 1dbe
00000170: 48ce 67bf 8df9 ee3c 35d1 173f 6fe5 b93c
00000180: 1ddf b53b cb7c 39be 2313 8fbd 38be 5a3c
00000190: 8181 debd cf2d fbbd 087c 313e bce9 2dbd
000001a0: 7c21 55be cb84 153e 7dc1 6a3d 8951 23be
000001b0: ea4c ea3d 277c e1bd e159 ab3d 1316 39be
000001c0: ec80 d83d fd04 d8be ffd8 ac3d 9f64 553c
000001d0: 1c4c f5bd a6d0 533c e18f df3d 09a1 fcbd
000001e0: e5b6 adbd 1a52 683d d395 abbc a0a3 70bc
000001f0: 08b3 4cbd e4aa f4bd bf5a 54bf 8328 69bc
00000200: db85 e5bd 2962 2abe 8562 f93d ff9d 88bd
00000210: 5d74 a2bd fdc4 11be b139 e0bd 49be 433d
00000220: 7374 67bd 9c6b dcbd a298 3fbe cc5f 17bd
00000230: 8b57 07be a392 d2bb cb9a d43c 4b53 253d
00000240: f29b c3bd 26de 03be 8276 2abe 3d84 d33c
00000250: c98f 5b3d 8313 20be 30f8 f4bd 5e24 683d
00000260: 40d8 6ebd 8406 ffbd 5efe 2f3e 2ea7 6c3d
00000270: 1641 27bb 71ac 113e ccea 873d 6673 91bd
00000280: 39f0 f3bc 0dc3 ad3d 34c6 b6bc 1f63 263d
00000290: 778c 12bd d582 c9bc 590b bd3d e602 c03c
000002a0: 9ff1 a5bc 5dc5 31bd adc2 ae3c 8464 b23c
000002b0: 5a8b 0a3d ffaf ed3c 3a26 b7bc 9184 353d
000002c0: 935c f2bc dc91 8cbd f7d0 01bd 2882 cd3d
000002d0: deb8 a0bb 2c13 cdbc cd78 1abd 59b6 9dbe
000002e0: 2d7b ff3c c429 a2bc fb13 2d3d 240d d7bc
000002f0: 471b 94bc 7d17 1aba 79ad a23c 3a86 b7bc
00000300: 6290 0cbe 33d9 3cbe a2fb 0d3e 253e ab3b
00000310: 8e0c 55be 5fd2 24be 5049 30be 26dd ae3c
00000320: 3e79 7cbd b3e1 86bd ea94 54be e833 f0bb
00000330: 5e23 743d fcd1 153e e0b0 7fbe 4932 873d
00000340: fbba 6dbe edfa 6cbd 94e5 d13d 6f0f f23d
00000350: 2563 0bbe e775 a2bd e266 953a 6550 cbbd
00000360: 4cdf b4bd 47a3 31be 0636 c53c 3aaf 0ebe
00000370: e791 2dbd 992c 843c 54fc 8bbe 6b51 b33d
00000380: 679d 083e 6030 10be 4afa 92bd 4863 013e
00000390: 69c7 27be a767 2b3c 66c5 223e bcdc 72bd
000003a0: 85c8 cb3c 19e9 11be b16f a33d e46a 6bbd
000003b0: 9390 89bc 4e59 d9bc 2706 16be dd1e 00be
000003c0: 11de 95bd 9cce 63bd b734 4b3d 5c70 d8bd
000003d0: de20 cabd 1c61 b9bb 0979 1cbe d568 9b3c
000003e0: a460 983d b37f f83a 218a e13d 2a01 a5bd
000003f0: 0c02 92bd 5c5e 6f3d c1ca 9dbe 1580 ab3c
0.050874017 -0.1953417 0.14707015 0.07230988 -0.060727727 0.071783274 -0.32923105 0.0993538
-0.017544216 0.077074006 -0.6759579 -0.07690096 -0.091240816 -0.031204684 0.07114469 -0.6395958
-0.121551305 0.1288011 -0.11506593 0.016295446 0.15149577 -0.03999148 0.05523763 -0.011409531
-0.07337524 0.028248487 0.08248893 0.01938415 -0.12250779 0.051774215 0.31763375 0.112935185
-0.17561524 -0.04348219 0.03156719 -0.13604484 -0.101477765 -0.09964754 0.06186702 0.058434792
0.006508685 -0.15204279 -0.12992637 -0.186107 -0.12273499 -0.019249793 0.07372072 0.044507835
-0.112267494 -0.07328804 -0.08113928 -0.10506084 0.08095603 -0.22704932 -0.006633029 0.053212564
0.12998998 0.035010476 -0.08587913 -0.05896663 -0.06605591 -0.054241855 0.02036638 -0.1374529
-1.106495 -0.26924002 -0.16131352 -0.28096893 0.23417786 -0.12550658 -0.06860817 0.011091702
-0.16106613 0.32438213 -0.1619526 0.20984341 0.051689964 0.1071897 0.25378478 0.116453625
-0.14038938 -0.38287762 0.11586459 -0.01588306 0.14355367 -0.7775101 0.14559135 0.019661505
0.04901887 -0.024048727 -0.27367422 -0.15353145 -0.90549135 0.02917173 0.593036 0.02269241
0.005550279 -0.18114011 -0.06986072 0.013351016 -0.10864545 -0.12264597 0.1733247 -0.042459235
-0.20813555 0.14601438 0.05731343 -0.15949072 0.114404514 -0.11010008 0.083667524 -0.18074827
0.10571465 -0.42191306 0.08439826 0.013024478 -0.11977407 0.012928164 0.109161146 -0.123354025
-0.0848215 0.056718923 -0.020945465 -0.014687449 -0.049975425 -0.11946657 -0.8295097 -0.01423085
-0.112071715 -0.16639008 0.12176994 -0.0667076 -0.07932351 -0.14235301 -0.10948504 0.047788892
-0.05650754 -0.10762712 -0.18710569 -0.036956593 -0.13216989 -0.006426172 0.025952717 0.040362637
-0.095512286 -0.12877712 -0.1664677 0.025819892 0.05360392 -0.15632443 -0.119614005 0.056675307
-0.0583117 -0.12452415 0.17186877 0.057776622 -0.0025520972 0.14225937 0.06636581 -0.07102089
-0.029777633 0.084844686 -0.022311307 0.040621873 -0.03577849 -0.024598518 0.0923068 0.023438882
-0.020256815 -0.04340111 0.021333063 0.021776445 0.033824302 0.029014586 -0.022357095 0.04431588
-0.029585158 -0.06863758 -0.031693425 0.10034591 -0.0049048504 -0.025033556 -0.03771286 -0.30803183
0.031186664 -0.019795306 0.042255383 -0.026251383 -0.018079413 -0.0005878134 0.019858109 -0.022402871
-0.13726953 -0.1844223 0.13865522 0.005225914 -0.2080557 -0.16095875 -0.17215466 0.021345686
-0.061639063 -0.065860175 -0.20759931 -0.0073304065 0.05960404 0.14630884 -0.24969816 0.06601388
-0.23215859 -0.05785649 0.10248867 0.1181935 -0.1361204 -0.07932644 0.0011398459 -0.099274434
-0.08831653 -0.17347442 0.024073612 -0.13934031 -0.04237547 0.016134547 -0.2734095 0.087557636
0.13341294 -0.14080954 -0.07176645 0.12635529 -0.16384663 0.010461724 0.15895614 -0.05929254
0.024875889 -0.14249076 0.07980288 -0.057474986 -0.016792571 -0.026531842 -0.14650784 -0.12511773
-0.073177464 -0.05561696 0.04961082 -0.10568306 -0.0986955 -0.0056573283 -0.15280546 0.018970886
0.07440308 0.0018958956 0.11012674 -0.08056863 -0.07129297 0.058439597 -0.3081875 0.020935098

fc3.bias f4 [10]
00000000: 27db 45c0 4863 67be 8d1a 57bf 53aa 00bd
00000010: 0229 92bd e2c0 f03f a433 f2bd f090 65bd
00000020: 16c1 193f 8613 7e3e
-3.091501 -0.22596467 -0.8402489 -0.031412434 -0.07136728 1.8808863 -0.11826256 -0.056046426
0.6006025 0.24812135

fc4.weight f4 [1, 10]
00000000: 850a e1bc 2cb8 a83c 94aa 7fbb 8966 103c
00000010: 9c70 46be 923f 8f3d 4b08 7abd 3165 08bd
00000020: fa03 c03c a570 3d3c
-0.027470836 0.020595632 -0.0039011585 0.008813509 -0.19378895 0.06994547 -0.061043065 -0.03329963
0.023439396 0.011562501
