2ARO_Knapsack/post train NN data/10 instance 50 scenarios improved/model_weights_10_instance_50_scen.pth (torch, 112366 bytes, 15 tensors)

embedding_instance.weight f4 [64, 52]
000000 fb 9b f0 3e cc 51 98 3e eb 7e 8f 3e 39 30 07 bf
       0.46994004 0.29749906 0.28026518 -0.52807957
000010 0f 11 b0 bd 01 10 c8 be 11 51 6c 3e b9 c3 86 3e
       -0.08597004 -0.3907471 0.230778 0.263212
000020 41 50 53 3f 31 ae dc 3e 2b 23 7e be 0a 63 78 bd
       0.8254433 0.43101647 -0.24818103 -0.060641326
000030 22 c4 2f 3c aa 92 92 bf fb cf cb be 81 9b bc be
       0.010727914 -1.1451008 -0.39807114 -0.3683739
000040 96 de 6f 3e 92 33 02 3f 9c 64 59 3e 46 de ba 3b
       0.23424754 0.5085994 0.21229786 0.0057027666
000050 8b 41 8e 3e 6f 47 41 3f a4 a1 83 bf d9 e1 16 3e
       0.2778438 0.75499624 -1.0283704 0.14734592
000060 8b 54 89 3f 54 08 70 bf 89 15 4f 3f 78 fb 6e 3f
       1.0728925 -0.9376271 0.80892235 0.9335246
000070 61 0c e8 3d ee ce 38 be 68 57 0d 3f 98 6c 35 3f
       0.11330486 -0.18047687 0.55211496 0.70868826
000080 ad f8 ed 3e 80 e4 bb 3e 66 a7 9b be 2c 82 55 3d
       0.46478787 0.3669777 -0.30401152 0.052126095
000090 0b d5 54 3d 8d 91 a9 3e 7e f6 2a 3f f4 24 dc be
       0.051960986 0.3311886 0.6678237 -0.42996943
0000a0 98 e0 06 c0 a6 2c 59 3f 11 f2 4f be e8 ac 9a 3d
       -2.107458 0.84833753 -0.20307185 0.075525105
0000b0 15 d4 98 be 22 ee 15 bf 00 86 ba 3e 09 2f 6b 3e
       -0.29849306 -0.58566487 0.3643036 0.22967161
0000c0 91 1e 84 3e b0 c7 17 be f5 02 a5 be 69 8e 1a bf
       0.2580457 -0.14822268 -0.3222882 -0.6037355
0000d0 56 90 19 bf 44 05 26 bf 04 a3 40 3e 3f f2 80 3f
       -0.59985864 -0.64851785 0.18812186 1.0073928
0000e0 69 32 6a 3e bd 0d 1e 3f 41 bd 8f be 06 ab 02 bf
       0.22870792 0.6173971 -0.28074077 -0.5104221
0000f0 99 ee cd 3e 15 bc e5 be d3 b9 15 bf d7 24 3b bf
       0.40221098 -0.44870058 -0.5848667 -0.7310309
000100 30 35 48 bd 6c 61 b6 bd 43 93 01 3e 2a 6d 7f be
       -0.04887885 -0.089053005 0.12653832 -0.24943987
000110 97 ef 4d bf 78 8f f0 be fa 1f 3f 3d ea 55 0d be
       -0.8044371 -0.46984458 0.046661355 -0.13802305
000120 04 05 cc 3f 85 e6 bf be fa 4a 38 3f 11 0f 6e be
       1.5939031 -0.3748056 0.71989405 -0.23247935
000130 d5 a2 a2 3e 26 0f 71 bf 4e fa fc bc 79 08 52 3e
       0.31764856 -0.9416374 -0.030881073 0.20511045
000140 1e 22 e8 3e ad ff 36 bd 55 19 4b 3f 87 53 96 be
       0.4533853 -0.044677425 0.7933553 -0.293606
000150 39 c5 7a be ca de 5d 3f b6 87 d1 bd 11 ed 70 bf
       -0.24489297 0.86668074 -0.10230963 -0.94111735
000160 f2 f5 d4 3d 1b 14 99 3b 57 5a 36 3f 1f e1 d2 3e
       0.10398473 0.004671586 0.712316 0.4118738
000170 2a 25 90 bf b3 cd c2 bc b4 52 1c 3e 71 67 19 3f
       -1.1261342 -0.023779726 0.15265924 0.59923464
000180 9c 58 21 3f c5 b0 85 3f 3a c7 7e 3d 3e cb c3 be
       0.6302583 1.0444571 0.062201716 -0.38241
000190 ce 5d bf 3e 49 dd 1c 3f 91 f9 42 be 5b d2 e9 be
       0.37376255 0.61275154 -0.19040515 -0.456683
0001a0 2a 5e 27 3e a6 30 01 3e 27 0a 07 be 17 bc f2 bd
       0.16344514 0.12616214 -0.13187467 -0.118522815
0001b0 14 c7 a0 be fa 7b de be 9d b1 c7 3e 8c ee 9a be
       -0.31401885 -0.43453962 0.39002696 -0.30260122
0001c0 bc 31 07 3f 39 06 03 bf d6 63 0e bf 1f 0f fe bc
       0.52810264 -0.5118137 -0.5562109 -0.03101307
0001d0 97 96 b8 3e 41 28 01 3f 23 66 34 3e 17 10 0e 3e
       0.3605239 0.5045205 0.17617087 0.13873325
0001e0 ae cb 16 3d e6 a7 75 3d 9c c0 91 be ec 89 85 3f
       0.036815338 0.059974574 -0.28467262 1.0432715
0001f0 2f 8b 6f 3d b5 76 eb bd 6e 35 9b bd e5 b1 49 be
       0.058482345 -0.11497251 -0.0757855 -0.19696768
000200 62 59 a7 be a9 7d 33 be f1 35 1d 3c a6 ac a4 bc
       -0.3268538 -0.17528404 0.00959538 -0.020101856
000210 86 2f 80 bc 79 a9 f5 bc 73 65 17 3f f9 24 41 be
       -0.015647661 -0.029988037 0.59139174 -0.1886176
000220 c7 37 be be 2e 83 1e bf 44 32 92 3e 35 af dd 3e
       -0.3715193 -0.61918914 0.28553975 0.43297735
000230 fd 2f de be a4 4f a0 3e 43 d2 6f be 44 1b 3b bf
       -0.43395987 0.3131076 -0.23420052 -0.7308848
000240 ba 24 48 be 96 98 e3 bc 4a 78 6e 3e 4a 11 95 3d
       -0.1954526 -0.02778272 0.23288074 0.07278688
000250 e1 42 79 3e d6 70 45 3e 4f 31 89 3e 23 76 d4 3c
       0.24341919 0.19281325 0.26795432 0.025935238
000260 b9 bf 01 bc e5 e5 7d 3d 9d 39 51 bd c9 7e 0c 3d
       -0.007919245 0.061986823 -0.051080335 0.0343006
000270 eb ce 36 3d b3 43 9b bd 32 51 64 be 7e aa 14 3d
       0.044630926 -0.07581272 -0.22296599 0.036295407
000280 0a f7 96 3d d4 7d ae be 8d 4b 95 3d ca 14 02 3f
       0.07371338 -0.34080374 0.07289801 0.5081297
000290 e1 20 e7 bc a6 6e 98 3f ba 14 0f be e0 1b 0b bf
       -0.02821392 1.1908767 -0.1397275 -0.5433941
0002a0 60 68 c1 be 71 ce 05 3f da bf dd 3e b7 bd 28 3e
       -0.37774944 0.5226813 0.43310434 0.1647862
0002b0 f4 a6 36 be a3 b5 af be c3 0f 25 3e 8f 33 ce bd
       -0.17837125 -0.34318265 0.16119294 -0.10068428
0002c0 1d 73 bf 3e ea b7 11 be 01 9d 86 bf f9 67 0a 3f
       0.37392512 -0.14230314 -1.0516664 0.540649
0002d0 5a 96 30 bf 10 62 6b 3f f0 7f 08 3f 8c 4b cf 3e
       -0.6897942 0.91946507 0.5332022 0.40487325
0002e0 1f 75 a5 3f b5 57 9f 3f 61 8a 4b bf 7c ac 49 3f
       1.2926368 1.2448641 -0.79508024 0.78778815
0002f0 13 cf 61 3f 19 d0 a0 bf 1a a9 51 bf 28 77 e6 3e
       0.88206595 -1.2563506 -0.81898654 0.45012784
000300 df 53 64 3e 67 2b 20 bf 93 80 95 3e 86 27 fb bf
       0.2229762 -0.62566227 0.29199657 -1.9621437
000310 61 3b 4f 3e 84 60 cd be c6 18 00 be 01 21 36 3f
       0.20237495 -0.40112698 -0.1250945 0.7114411
000320 18 b4 68 3e 91 10 26 3f 7d 41 23 bd ac f7 92 be
       0.2272495 0.6486903 -0.039857376 -0.28704584
000330 48 25 65 3e 58 f0 63 bf 3f 36 2b bf 32 51 95 be
       0.22377503 -0.8903861 -0.6687965 -0.2916351
000340 42 39 84 3c 84 5f 6d 3f e1 25 5a 3f 85 13 3a 3e
       0.016140584 0.9272387 0.8521405 0.18171509
000350 de bb be be 7e 48 f7 bd ba cc 01 be 2f 4a 8a 3d
       -0.37252706 -0.12074374 -0.12675753 0.06752431
000360 bc fa d3 be 00 cd b5 3e 85 8d 0d be 70 42 22 3f
       -0.41402233 0.35507965 -0.13823517 0.63382626
000370 18 8b 29 3f 17 ee 9e 3d 6f ac e8 bd 2c 3a 50 3e
       0.66227865 0.07760256 -0.11361014 0.20334691
000380 ea 4b c1 bd 51 f6 48 be d9 6c a8 3c 8d 0e 5a 3e
       -0.094383076 -0.19625212 0.020559715 0.21294613
000390 dd 0e 1c bf fe b2 21 3f 23 d1 1b be 4a f9 06 3f
       -0.6096018 0.63163745 -0.15216498 0.52724135
0003a0 44 63 45 be 08 b0 5c be 3a bb 19 3e e8 0a a6 bd
       -0.19276148 -0.21551526 0.15012828 -0.08107549
0003b0 1d 84 18 bf 85 d2 88 bd c0 f7 b3 3d 7d 2c 2a 3e
       -0.5957659 -0.066807784 0.08787489 0.16618533
0003c0 88 03 7c 3f d9 5f f4 3e 1d b0 b7 be 0e cd f9 3e
       0.9844289 0.47729376 -0.3587655 0.48789257
0003d0 fc 9a 1b bf 39 81 27 bf 90 b1 84 be d1 14 e1 3e
       -0.6078336 -0.65431553 -0.2591672 0.43961194
0003e0 42 7f ed 3f c7 92 15 3e c9 1c bc bd 79 8a a2 3d
       1.8554461 0.14606772 -0.09185178 0.07936568
0003f0 05 9e 21 be 0c 07 05 be c2 ea 5e 3d 29 a4 03 bf
       -0.15782936 -0.1299097 0.0544231 -0.51422364

embedding_instance.bias f4 [64]
000000 b9 fd e0 be 97 5d df 39 90 79 d9 be 7d 9b 5b be
       -0.43943575 0.00042603604 -0.42475557 -0.21446033
000010 0e 5d 62 bf 26 e5 45 bf a9 07 15 3f 27 e5 2d 3b
       -0.8842324 -0.7730278 0.58214813 0.002653429
000020 c8 4c 86 3f 57 29 69 3f 48 8c dd 3e 2e 78 fb 3e
       1.0492182 0.91078705 0.4327109 0.49115127
000030 c0 e9 8a bc cc d6 9b bc a2 ad fe 3d 78 26 8f be
       -0.016957164 -0.019023322 0.124354616 -0.27959037
000040 0f 65 54 bb af c8 3a 3f 78 66 1c bb 15 ae 54 bf
       -0.0032408868 0.7296247 -0.0023864787 -0.8307813
000050 ba 8f ca 3c d0 4f 4b bf bd 2b 19 3e 09 4c bc 3e
       0.024726737 -0.7941866 0.14958091 0.3677676
000060 02 79 04 3f 48 04 5e bf 78 97 04 3c 13 1f e0 bd
       0.51747143 -0.8672528 0.008092754 -0.10943427
000070 f2 95 e2 bb 7a 70 da bc 2e a2 87 bf 7b b3 93 3c
       -0.0069148475 -0.026664961 -1.0596368 0.018029919
000080 30 bf 69 3f 48 8c 15 3c 3d a2 fa 3b 38 5a 20 bf
       0.91307354 0.009127684 0.007648735 -0.6263766
000090 38 2d b1 3a 7a d9 7c 3f e4 64 36 3f c6 59 82 3f
       0.0013517505 0.9876934 0.71247697 1.0183647
0000a0 bd 87 33 bf f3 c2 67 3b 85 9a 55 3f 2f 83 02 3b
       -0.70128995 0.0035364002 0.83438903 0.0019914617
0000b0 b6 bf 90 bb ec 2d 84 bf 80 17 4c 3f f3 db 37 b9
       -0.004417385 -1.0326514 0.7972336 -0.00017534177
0000c0 59 bb 21 bf ee fd 8a bf 8a aa 63 3f a2 bc 82 3b
       -0.63176495 -1.0858743 0.88932097 0.003989772
0000d0 9a be 8a bc 82 16 9b be 11 91 65 bf b8 8f 84 3f
       -0.016936589 -0.3029061 -0.8967448 1.035636
0000e0 df 0c 4e 3f a6 f9 e1 bb 54 59 00 bf fe 5e 94 be
       0.8048839 -0.0068962155 -0.50136304 -0.28978723
0000f0 3e b2 70 bc 14 71 88 bf d5 aa cf be 76 7a 31 3f
       -0.014690934 -1.0659509 -0.40560022 0.69327486

embedding_X.weight f4 [15, 10]
000000 0b a0 a1 3e 80 ea ee 3e bb 2a 02 3f 7a 77 71 3e
       0.31567416 0.46663284 0.5084645 0.23580733
000010 9a 83 20 3f 0c 9e 19 38 57 03 a0 3e dc 33 0b bf
       0.6270081 3.6625235e-05 0.31252548 -0.54376006
000020 6d 82 d6 3c 7e 2b 52 3f a9 8d bd bd cf e0 85 3e
       0.026185239 0.82097614 -0.09255535 0.26148078
000030 f5 7e 7c be 0d ee b5 be 0d c1 86 bd c4 1c 1e bf
       -0.24657805 -0.3553318 -0.0657979 -0.6176264
000040 ef 1d 14 bf 8b 1d 38 be 97 09 be be ec 63 8c 3e
       -0.57858175 -0.1798002 -0.3711669 0.27419984
000050 9b 2d d0 3e b0 23 0f 3f 99 9f 9e 3e 96 97 19 3f
       0.40659794 0.5591383 0.30981138 0.59996927
000060 f1 86 df 3d 99 59 92 be d2 14 05 3f 11 f3 1c 3b
       0.1091441 -0.28583983 0.51984894 0.002394859
000070 5d f5 0a bf cb 6a 15 3e 13 0b d8 3e ec c7 0a 3e
       -0.54280645 0.1459152 0.4219595 0.13552827
000080 c0 84 9d 3f 7c 20 df 3e 17 92 87 be 40 53 89 bf
       1.2306137 0.4357947 -0.26478645 -1.0728531
000090 9d 43 07 bf 25 0d 0b 3f f8 6d 42 3f 2a 1c 89 be
       -0.52837545 0.5431693 0.7594905 -0.267793
0000a0 d2 f1 ea be e7 76 d0 be 3f bf b3 3e 56 ea 09 bf
       -0.4588762 -0.40715715 0.35106847 -0.53873193
0000b0 cc eb b3 be 31 f9 09 3e cc e5 2f 3d a1 42 05 bf
       -0.35140836 0.13473965 0.04294376 -0.5205479
0000c0 20 8f 8d be b2 04 fb be d3 d3 49 bf a9 30 a4 bd
       -0.27648258 -0.4902702 -0.78838843 -0.08017094
0000d0 64 45 c1 3b 1c ab e7 be 48 e0 1a bf c1 1f 7c bf
       0.0058981646 -0.45247734 -0.60498476 -0.9848595
0000e0 b9 e9 99 3f 15 a2 83 be 72 8d 4e 3f 8e fb 29 3f
       1.2024451 -0.25709596 0.8068458 0.66399467
0000f0 a4 6d ab ba d0 a3 b6 3a ac 89 e0 ba 52 4f 24 3a
       -0.001307894 0.0013934318 -0.0017130873 0.0006267923
000100 27 01 2d bb 33 bd b4 ba 6c 66 a6 3a fd b4 d7 39
       -0.0026398392 -0.0013789296 0.0012695319 0.00041142842
000110 19 1d 74 ba 7d 9c 89 ba 9c ec de 3e f6 14 09 bf
       -0.0009312197 -0.0010498908 0.43539894 -0.5354761
000120 ab 27 16 3f 60 07 fa be 86 a6 aa 3e 63 dc ad bd
       0.5865428 -0.48833752 0.33330172 -0.08489301
000130 58 e5 9f 3e c3 12 3b 3f 2c cb f9 be 08 ed 46 3f
       0.31229663 0.73075503 -0.4878782 0.7770543
000140 cb 18 61 3e 8c 43 0f bf 3f dc 4b bd 75 cf 9a 3e
       0.21982114 -0.55962443 -0.04977059 0.30236402
000150 c7 46 3f bf 28 15 8c 3c f7 87 8d bc 32 b8 0e 3e
       -0.7471737 0.017099932 -0.017276747 0.13937452
000160 ca 1b 12 bf 00 f8 14 bf ad d4 c9 3e e0 83 3a bf
       -0.5707365 -0.5819092 0.3942007 -0.72857475
000170 24 9c 24 bf 76 7c fc 3d c5 70 20 3f 9d 1b 32 bf
       -0.6430075 0.123284265 0.6267207 -0.69573385
000180 85 af 84 3e 66 b6 04 bf d8 f1 91 3e c5 f3 df be
       0.2591516 -0.5184082 0.28504825 -0.4374067
000190 37 24 8b 3f 1e c1 0a 3e 26 3e f1 bd d0 e5 f4 be
       1.0870427 0.13550231 -0.11779432 -0.47831583
0001a0 5a a9 95 be 4b 90 f4 3e 86 24 fe bd d2 2e 27 3e
       -0.29230767 0.47766337 -0.1240931 0.16326454
0001b0 67 ea 24 3f 2e 94 9a 3e 45 ae 36 3f c4 9e f7 3e
       0.6442017 0.30191177 0.71359664 0.48363316
0001c0 cd ed 29 3f 5e 37 52 3d be 99 ae be 22 b3 a7 3e
       0.6637848 0.051322334 -0.3410167 0.32753855
0001d0 56 cf 1b 3f 0d 1d 41 bf 64 2d 2c be 4e b2 81 be
       0.60863245 -0.7543495 -0.1681419 -0.25331348
0001e0 16 03 f2 bd 61 30 ac 3d 70 fe 1f 3f b3 33 fa 3d
       -0.11816995 0.08407665 0.62497616 0.12216892
0001f0 06 45 f3 3e fb 82 a7 3e e6 91 82 3d 9f 64 e5 3d
       0.47513598 0.32717118 0.06375484 0.112008326
000200 f2 bb 06 3f 6a be 1a bf a2 6e 4e 3e 27 bb 33 3f
       0.5263053 -0.604468 0.2015939 0.70207447
000210 1e c4 07 be 38 62 67 bf ad d0 3d 3f 8b a4 43 3e
       -0.13258407 -0.90384245 0.7414654 0.19105737
000220 d0 65 00 3f 12 88 39 3f 89 d5 e1 bd 76 e0 58 bf
       0.50155354 0.7247325 -0.11027057 -0.847175
000230 a0 77 9e 3e 90 d4 0f be bf a5 1b bd a3 da 0e bf
       0.30950642 -0.1404593 -0.037999865 -0.55802363
000240 ca 70 89 3e 13 7c 86 be 04 8a f3 be 0b f8 ff be
       0.26843864 -0.26266536 -0.47566235 -0.4999393
000250 8a b4 f7 be 47 f5 3d 3b
       -0.48379928 0.0028985308

embedding_X.bias f4 [15]
000000 4b cb 7b bf ec 48 95 3f be dd 8a bf 77 29 7e bf
       -0.98357075 1.1662879 -1.084892 -0.9928202
000010 16 fe 9e 3f ca 15 46 3e d3 81 48 bb a1 76 73 bf
       1.2421291 0.1934425 -0.003059496 -0.9510289
000020 57 94 9f 3f cf 57 63 3f 85 d3 74 bf ec 36 4d bf
       1.2467145 0.8880586 -0.95635253 -0.8016193
000030 66 17 84 bf 9f 5c 02 bf 91 2b 92 3f
       -1.0319641 -0.5092258 1.1419545

embedding_uncern.weight f4 [15, 10]
000000 a7 d1 c4 bf 85 94 d4 3e 44 28 65 3f c1 87 c4 be
       -1.5376481 0.4151956 0.89514565 -0.38384822
000010 fd cb 66 be 36 d4 2a 3f 29 6a 47 bf 34 76 ed 3e
       -0.22538753 0.6673006 -0.7789636 0.46379244
000020 cc 4f 0a bf 49 8b ef 3e bf c6 20 be e6 ee 1d bf
       -0.5402801 0.46785954 -0.15700816 -0.61692655
000030 d8 5d 12 3e 6d 2d 10 bf 7b 9b f7 3e 6e 62 b5 be
       0.14293611 -0.56319314 0.4836081 -0.35426658
000040 52 e5 44 be f2 ab 83 be e7 b7 94 3e a5 d8 2e 3e
       -0.19228104 -0.2571712 0.29046556 0.17074831
000050 5a ae ba 3d db 81 b1 3f ec e2 11 3f 09 2b 2f 3f
       0.09115286 1.3867754 0.5698688 0.6842504
000060 af 48 44 bf 2a 00 5c bf f2 a8 8f 3e 68 f3 50 be
       -0.76673406 -0.8593775 0.28058583 -0.20405352
000070 4f 5c e5 be 6c 42 31 3d 58 e6 16 bf d8 6b 28 3e
       -0.44796988 0.043276235 -0.58945227 0.16447389
000080 28 e2 a8 bf fa 5d 6e bf e5 87 40 bd 70 61 26 3e
       -1.3194017 -0.93112147 -0.0470046 0.16248107
000090 f3 77 5a 3f 35 36 04 3f d7 e4 1c bf ff 55 42 bf
       0.8533928 0.51645213 -0.6128668 -0.7591247
0000a0 c2 1e 42 be 7d 8f fe 3e 4a b4 bf bd 0e 48 7e 3b
       -0.18957046 0.49718848 -0.09360559 0.0038800272
0000b0 78 ca 6a bc 7a 38 80 3d f2 9a 0f 3e 1b 39 d2 be
       -0.014330499 0.06260772 0.1402395 -0.41059193
0000c0 8b 30 3e 3f eb d6 ae bd 9d 98 31 3f 1d 9b 81 be
       0.7429282 -0.08537086 0.69373494 -0.25313655
0000d0 cd 34 9b 3e 28 9a e0 3d 8f 77 d3 be 03 39 98 3f
       0.3031372 0.10966903 -0.41302153 1.1892399
0000e0 d6 ea 11 bf e1 0e f5 be 53 20 8f bf 15 f2 4a bf
       -0.56998956 -0.47862914 -1.118174 -0.7927564
0000f0 3c 8c c9 3e ce 3a 44 bf 07 77 63 3e 21 01 db bd
       0.39364803 -0.7665223 0.22213374 -0.10693575
000100 f5 1e aa bf 69 d3 cb 3e 9e 0f 70 3f 7f 09 83 3e
       -1.3290697 0.3980973 0.9377383 0.25593182
000110 31 ec d1 bd de 60 39 3f 32 0a 27 3f 2c aa de 3d
       -0.10250128 0.7241343 0.6524993 0.108723015
000120 50 04 a2 bc 40 e4 bf be f4 31 4c be 98 84 d5 be
       -0.019777447 -0.37478828 -0.1994093 -0.41702724
000130 d7 b4 e8 be cf 21 57 bf f6 1a 9e 3e 10 80 85 3f
       -0.4545047 -0.8403596 0.30879945 1.0429707
000140 94 83 14 bf 6c e4 80 bf 65 fc b7 be 1a 03 ab 3f
       -0.5801327 -1.0069709 -0.3593475 1.3360322
000150 aa 46 a2 be 86 18 d0 be 0a 1a 1d bf 8e ef 12 3f
       -0.31694537 -0.4064371 -0.6136786 0.5739678
000160 72 2d 91 3e d1 fc 07 bf cb de 4b bf 04 50 33 be
       0.28354985 -0.5312014 -0.7963683 -0.17510992
000170 6e ea b4 bf ab bb 27 3f 71 d9 16 3e 45 97 45 3e
       -1.4134042 0.65520734 0.14731385 0.19295986
000180 e8 fb 05 3e f4 d9 6b bf cd ad 77 bf d2 9d f7 3e
       0.13084376 -0.92129445 -0.96749574 0.48362595
000190 1b dc 54 3e 9e 8e 3d be 73 1f ba bd a2 1d 31 bf
       0.20787089 -0.18511435 -0.0908803 -0.6918584
0001a0 96 fd 19 bf 1d 5e 54 bf 38 a9 45 bf e7 de 60 3e
       -0.60152566 -0.82956105 -0.7721133 0.2196003
0001b0 60 27 30 bf 05 29 4d be ea 51 24 3f a3 88 29 3f
       -0.6881008 -0.20035179 0.6418749 0.66224116
0001c0 52 4f bd bf d0 b8 00 3d 7d f4 bd be 00 a3 26 3f
       -1.4789832 0.03142625 -0.37100592 0.6509247
0001d0 fc 84 56 bf c5 ea 15 3f b6 45 13 3f 5a 71 09 3f
       -0.8379667 0.58561355 0.57528245 0.53688586
0001e0 35 48 3c 3e b3 1c 6d bd 31 8c 2c bf 94 bc bf bd
       0.1838692 -0.057888698 -0.67401415 -0.0936214
0001f0 b8 d7 a2 3d 6a 44 6d bf af b5 81 be d3 70 0e 3f
       0.07951301 -0.92682517 -0.25333926 0.55640906
000200 77 0a 7d bf 7c fc 0c 3d b9 67 a2 bd 47 c4 90 3e
       -0.98844093 0.034420475 -0.0792994 0.28274748
000210 f2 25 c7 bd 30 03 f2 bc 05 46 2f be 12 43 da bd
       -0.09724034 -0.029542536 -0.17116554 -0.10657324
000220 f5 a3 f7 3e c8 4c df 3e 5c 8d dd 3e 36 ee cf be
       0.48367277 0.43613267 0.4327191 -0.40611428
000230 38 a3 56 bf e4 84 a5 3e fa ee d4 be a5 7b 9d be
       -0.838428 0.3232795 -0.41588575 -0.30758396
000240 cc 55 77 bf 23 40 b8 3e 15 d2 3b bd 6b 1f 9d bf
       -0.9661529 0.35986432 -0.045854647 -1.2275213
000250 01 a3 75 3f 46 b7 59 bf
       0.9595185 -0.8504528

embedding_uncern.bias f4 [15]
000000 6d 1f ac 3d 70 0e fd be 0a c7 03 be d8 d7 a9 3e
       0.084044315 -0.49425077 -0.12868896 0.33172488
000010 25 f9 18 3f d0 69 36 3e 02 19 c9 bd 53 fd 7d 3e
       0.59755164 0.17813802 -0.09819223 0.24803667
000020 fc 7b 8a 3e 67 3e 93 3e f4 75 07 3f f6 d0 4c be
       0.27047718 0.28758547 0.5291436 -0.20001587
000030 ca 0c 3e bf 66 ca 0f 3f db 2b 3f bf
       -0.74238265 0.5616821 -0.74676293

fc1.weight f4 [128, 94]
000000 f8 4a 06 3d 7b d2 6b be c9 d2 da bd ce f8 26 bf
       0.03278634 -0.2302951 -0.10684735 -0.65223396
000010 69 30 2f bf 2f c0 27 bd 08 7c ba bf f4 1a f1 3d
       -0.68433243 -0.040954765 -1.4569101 0.11772719
000020 8a 84 a7 be de c1 0d bf 88 df 04 be b7 0f 14 3f
       -0.32718307 -0.5537394 -0.12975895 0.5783648
000030 ab 0d 3d bc 00 f2 cc 3c 0f 9e f5 be 05 e7 6b 3e
       -0.011538903 0.025017738 -0.47972152 0.23037346
000040 2e fa 10 3d 11 44 78 3f 1e 69 b8 bc 5f 06 7a bd
       0.03539484 0.9697886 -0.022511061 -0.061041232
000050 36 d9 ec 3c d3 9b 94 3f 91 41 91 3c dc c9 32 3e
       0.028912168 1.1610054 0.01773146 0.17459816
000060 27 34 65 3e 5a 9d fc 3e 2b ab 38 3c 01 77 f5 3e
       0.22383176 0.493388 0.011271278 0.47942355
000070 1b fe 8c 3b 43 30 f5 bc 80 ca 31 be 36 4c 13 bd
       0.0043027527 -0.02993024 -0.17362404 -0.035961352
000080 ba af 95 3e 28 71 5a 3a c4 bc 01 3d b1 49 12 3f
       0.2923563 0.00083329016 0.03167416 0.57143694
000090 14 9a 56 bc 25 d6 87 bf fd 89 46 3f f4 69 56 3f
       -0.0130982585 -1.0612227 0.77554303 0.8375542
0000a0 3b 37 a4 bf 36 c4 21 bd 71 e5 18 bf 99 38 be 3c
       -1.2829355 -0.039493762 -0.597251 0.023220347
0000b0 73 1f 4f 3c 9c ea 83 bf cc 55 81 be c7 10 01 3d
       0.012641775 -1.0305972 -0.2526077 0.03151014
0000c0 d8 d7 55 bd b8 61 42 3f 82 f4 81 3f 1e 83 2e bd
       -0.052207798 0.75930357 1.0152743 -0.04260551
0000d0 42 cb 10 3c 59 40 69 be 67 95 08 bf 55 0f 9a be
       0.008837523 -0.22778453 -0.5335297 -0.30089822
0000e0 d9 a9 a9 be d0 7b d5 3c ba bf 8a bd 66 2a 3e 3e
       -0.33137396 0.026060015 -0.0677485 0.18570861
0000f0 46 7d ec bc 14 21 c9 bf e0 c8 6b 3e ba 5c 52 be
       -0.028868329 -1.571322 0.23025846 -0.20543185
000100 7e dd b2 3e e8 3e 15 c0 2a 1b a2 3e e9 b4 6d bd
       0.3493461 -2.3319645 0.3166135 -0.058033857
000110 15 f0 83 3e 10 37 04 bf d1 01 59 bb 62 87 38 be
       0.25769106 -0.5164652 -0.0033112655 -0.18020394
000120 83 fa 8e 3e 25 7c 9d bf 45 3e d9 3e ba e1 04 3f
       0.279255 -1.2303511 0.4243032 0.5190693
000130 c6 74 45 3f 04 26 66 bf 00 e4 95 bf ba 22 28 bf
       0.7713131 -0.8990176 -1.1710205 -0.6567799
000140 69 cd 8f 3f 75 02 70 3f a6 68 e6 3e ea 79 87 bf
       1.1234561 0.9375375 0.45001715 -1.058408
000150 fc 82 4e c0 29 07 0c 3f f9 b9 06 be cf f8 b8 bf
       -3.2267447 0.54698426 -0.1315688 -1.445093
000160 c7 fa bb be 09 a8 b1 be d7 d7 d2 be 92 d0 09 40
       -0.36714765 -0.34698513 -0.41180298 2.1533551
000170 f5 05 13 bf c5 8a 87 3e 67 95 24 3f 45 be b9 be
       -0.57430965 0.2647306 0.6429047 -0.36277977
000180 c1 89 8b 3e 09 60 a7 ba 46 96 fd bd 49 aa 92 3d
       0.27253535 -0.001276971 -0.12382178 0.071613856
000190 f9 75 38 3d 72 b7 35 3f 54 15 2a 3f 5b 63 7a 3e
       0.045034382 0.7098304 0.66438794 0.24451964
0001a0 ef b5 10 be 31 28 93 3e 26 62 03 bd d0 91 04 3d
       -0.14131902 0.287416 -0.032076024 0.03236562
0001b0 50 5b 11 3f 3c bd 4f bf 9a 16 90 3c 61 ba 32 bf
       0.56779957 -0.81148124 0.017588902 -0.6981564
0001c0 32 4d 93 3c a5 53 8f 3f 51 7a c0 bc 98 5c 5e bf
       0.017981146 1.1197401 -0.023495825 -0.86860037
0001d0 86 65 ec bf 0e 9d 01 be f4 5c aa be 9d dc 6e be
       -1.8468482 -0.12657568 -0.33274043 -0.23326345
0001e0 38 c9 8b bc 27 7e 9d 3f fc 34 13 3c 20 8f 07 bd
       -0.017063722 1.2304124 0.0089848 -0.03309548
0001f0 e0 47 4f bf 45 c2 78 bd 67 3e ce bd 8d 64 a3 3c
       -0.8096905 -0.060732145 -0.10070496 0.019945407
000200 27 6e da 3c 45 0f b1 be a6 5b 21 bc 7a 21 2a 3e
       0.026663853 -0.34581962 -0.009848511 0.16614333
000210 ca f2 0c 3f 3f 5f 92 3e 1d 05 b3 3e 88 13 18 bd
       0.55057967 0.28588292 0.3496484 -0.037128
000220 2a 1c 1d bc d2 c0 67 bc 94 48 8d 3c 8d 73 b3 3e
       -0.009589234 -0.014145093 0.017246522 0.35049096
000230 a5 f1 9e bd 65 46 15 3d 69 1e 76 3e 93 f4 94 3e
       -0.07760934 0.036444087 0.24035038 0.29092845
000240 87 9f 31 3e 0a ca 04 bd 8f 30 9c 3c 03 c8 1f 3f
       0.17346011 -0.032419242 0.019066123 0.6241457
000250 98 8f 55 3e 86 89 67 3d ed df f6 3e 82 d9 f1 ba
       0.20855558 0.056527637 0.48217717 -0.0018451663
000260 20 43 50 bf 72 cf c7 be 03 bb 05 bb bb e2 8a be
       -0.81352425 -0.39025456 -0.0020405657 -0.27126107
000270 ae 3f ff be 27 89 19 be 04 de 0b bf f7 7f bf 3c
       -0.4985327 -0.14993726 -0.54635644 0.023376448
000280 b7 ec 78 3d 13 41 c4 be ca 06 c1 be 06 7f 8d 3e
       0.060772624 -0.38330898 -0.37700492 0.27635974
000290 76 ef ad 3b f2 10 b7 bf 5e ff c2 bf 93 62 fb bf
       0.005308087 -1.4302046 -1.5234182 -1.9639457
0002a0 9f 81 2e 3f 89 8f ce 3d b1 b7 b6 bd af 7a de 3e
       0.68166536 0.10085971 -0.08921755 0.43452975
0002b0 1f 39 4f bf 03 9f e0 3d 0f 39 05 3f e0 64 14 40
       -0.80946535 0.10967829 0.5204019 2.318657
0002c0 7e c8 70 bb f2 9d 58 be ca 5d 19 3f d0 82 1e c0
       -0.0036740596 -0.21154001 0.59908736 -2.4767342
0002d0 ac 9e 81 be d9 d0 7c bf e2 61 3a bf 03 c7 0c 3f
       -0.2531637 -0.98756176 -0.7280561 0.5499117
0002e0 c2 f8 76 3f 89 a1 4f 3f bb 2d 20 bf 79 b5 dd 3f
       0.96473324 0.8110586 -0.6256978 1.7321006
0002f0 3c 23 43 bd 70 f2 6d 3c 2c aa 2a bd 85 e1 83 3d
       -0.047641024 0.014523134 -0.041666195 0.06439499
000300 d7 a3 e0 3b c9 87 d2 bd 02 3e 80 3d 11 78 1f bc
       0.0068554687 -0.10279805 0.06261827 -0.009733216
000310 e3 77 d0 3d aa e5 7c bd 2a 57 80 bd 25 cf bf bd
       0.101791166 -0.061742462 -0.06266625 -0.093656816
000320 1c 28 67 bd b4 06 ed bb 81 85 a8 bc 3d 5d 33 bc
       -0.056434736 -0.007233465 -0.020571472 -0.010947523
000330 80 5f 18 3d bc 22 f2 3c 22 52 34 3d f3 51 13 bc
       0.03720045 0.029557578 0.04402364 -0.008991706
000340 7b 18 c7 bd fb d0 72 3d 7a e1 dd 3b 9c 02 56 3d
       -0.09721466 0.05928133 0.0067712637 0.052248582
000350 cb 51 46 bd 20 3d 5c 3d 8b 3d 87 bd 88 9c 3a bd
       -0.048417848 0.05376923 -0.06603535 -0.045559436
000360 39 53 7c bd b0 64 b2 3d 55 dc 98 bd f3 d2 b7 bc
       -0.061602805 0.08710611 -0.074639 -0.022439456
000370 fa 59 41 bb b6 4c 8f 3d ef 26 c5 bb f5 f7 b1 bc
       -0.0029503093 0.06997053 -0.006016604 -0.02172468
000380 55 2b c4 bc b1 84 74 3d d4 19 09 3d b8 ab 85 3d
       -0.023946444 0.059696857 0.033471897 0.065268934
000390 d8 6a 76 3d 2d 99 fb 3d 29 cb df 3c 56 c9 5b 3d
       0.060160488 0.12285075 0.027318554 0.053658806
0003a0 4d 2a 08 bd 6c c0 28 3d 99 ee a3 3c 78 87 33 bd
       -0.033243466 0.041199133 0.020011233 -0.043830365
0003b0 4c 15 be 3d d8 3a 15 bd a2 0a b2 bc 83 1b 21 3d
       0.09281406 -0.03643307 -0.021733586 0.039332878
0003c0 87 2c 09 3d b0 b0 0b 3d 54 75 a8 3c fc 3a af 3b
       0.03348973 0.03410405 0.020563759 0.0053476077
0003d0 63 a2 c1 bd 95 19 f7 bd 3b 18 c1 3b 76 af 81 3d
       -0.09454801 -0.12065426 0.005892781 0.06332295
0003e0 cc 04 06 39 93 47 00 bc fe b2 85 3d 34 0e c0 bd
       0.00012781023 -0.007829565 0.06528281 -0.09377709
0003f0 33 be 44 ba 76 4a 0f bc f1 f5 12 be 90 73 aa 3d
       -0.00075051485 -0.00874578 -0.14351632 0.08322823

fc1.bias f4 [128]
000000 a1 79 ac bf 2a 7c 83 bf 57 23 52 bd 5d d9 04 3f
       -1.3474618 -1.0272267 -0.051303234 0.5189417
000010 13 a9 3f bf 11 e0 16 3f 8a 64 6f 3d 8b a9 4a 3f
       -0.7486736 0.5893565 0.05844549 0.7916495
000020 8e 60 1c bf 71 1b a6 bd 44 50 50 bf 14 fa 9b bf
       -0.6108483 -0.08110703 -0.81372476 -1.2185693
000030 bd f1 34 bf 55 f8 f5 be 8d 40 16 bf 2c cf d8 3e
       -0.70681363 -0.48041025 -0.58692247 0.4234556
000040 d9 d3 91 bd 0a 68 35 bf b5 b3 5e bf 2d a5 0a 3f
       -0.07120485 -0.70861876 -0.8699296 0.5415829
000050 f8 55 24 3f 39 c8 d7 be fe c4 3b bf 08 8d a9 bd
       0.6419368 -0.42144945 -0.7334746 -0.08278853
000060 f8 de 7e bf 6a 64 93 bf 99 2a 51 3f 04 65 e8 be
       -0.99558973 -1.1515019 0.81705624 -0.4538957
000070 82 87 a0 bf 01 57 b9 3e 81 3a e7 be 8c 45 00 3f
       -1.2541354 0.3619919 -0.45161822 0.5010612
000080 53 31 98 bf 7a 7a ab 3e 23 9f 09 3f 76 d5 b0 3c
       -1.1890053 0.3349188 0.5375845 0.021586161
000090 24 09 13 be c0 fb a5 bf 8f 13 7e bf 09 b2 71 bf
       -0.14358956 -1.2967453 -0.99248594 -0.94412285
0000a0 1d 99 70 3f aa e5 7f bf fa b7 bf be 36 0e ad be
       0.9398363 -0.99959815 -0.3744505 -0.33799905
0000b0 f8 85 f8 be 74 e2 9d bf 77 c4 4b bf cc f3 7b bf
       -0.4853971 -1.2334733 -0.79596657 -0.9841888
0000c0 8b bf ef bd 35 e9 94 bf c4 e4 22 3f a8 c2 9a be
       -0.11706456 -1.1633669 0.6363032 -0.30226636
0000d0 dc 1c 96 bf 25 a7 cf be a7 4d 85 bf 8c 8e f3 3e
       -1.1727557 -0.4055721 -1.0414323 0.47569692
0000e0 78 70 41 3e c9 99 1a 3f 2c c2 bc 3d 94 4f 09 be
       0.1889056 0.6039091 0.09216723 -0.13409263
0000f0 a2 b3 92 bf 32 d3 6d bf 29 89 4b bf 8e 5b 5d bf
       -1.146107 -0.92900383 -0.79506165 -0.86467826
000100 a2 fe 50 bf 1d 55 2c bf e6 bf 0f bf 55 03 45 bf
       -0.8163854 -0.6731737 -0.5615219 -0.7695821
000110 6b 70 6d 3e 5f 39 83 bf b8 ff 51 bf 0b cd ad 3f
       0.23187415 -1.0251883 -0.8203082 1.3578199
000120 80 83 42 bf 3b d8 37 bf 2f 8f ce be 63 a3 35 3d
       -0.75981903 -0.71814317 -0.40343615 0.04434527
000130 f7 2a 63 bf 5d 3f a6 bf da 17 90 bf 3f eb 2c 3e
       -0.88737434 -1.2988087 -1.1257279 0.16886614
000140 99 93 d8 3e 3e f8 80 bf 48 2e 74 bf 11 57 8a bf
       0.42300108 -1.0075758 -0.9538312 -1.080782
000150 41 95 8f bf af 8c 9e bf 89 04 7c 3f 9d 3c 41 be
       -1.1217424 -1.2386683 0.9844442 -0.18870778
000160 45 7a 29 bd ef f2 b6 3e 5b 9e 0e bf 94 67 70 3f
       -0.04137637 0.3573222 -0.5571038 0.9390805
000170 2c fb 7d 3f ba 83 7a bf 5c e4 5b 3e fd 56 2b bf
       0.9921138 -0.9785725 0.21473831 -0.6692961
000180 3a 97 26 bf 19 c2 03 bf b2 30 38 3f ca 4b 26 3f
       -0.65074503 -0.51468045 0.71949303 0.64959395
000190 f7 7f c4 be fc 37 e6 3e dd b1 80 be 53 9f bb bf
       -0.3837888 0.44964588 -0.251357 -1.4657997
0001a0 58 30 47 bf a8 2a 7f bf 9f 22 8f 3e ef b9 1b 3f
       -0.7780814 -0.99674463 0.279561 0.6083059
0001b0 13 89 66 be 5e 5a 17 bf cd 84 90 bf 31 44 16 bf
       -0.22513227 -0.59122264 -1.1290528 -0.586978
0001c0 8a a3 a7 be de f4 2b bf d4 c9 a4 be 45 f9 98 bf
       -0.32741958 -0.6717051 -0.32185233 -1.1951071
0001d0 0e 27 54 3e ea 72 e9 bd bc f3 5b bf 53 1d 8d bf
       0.20718023 -0.11398871 -0.85918784 -1.1024574
0001e0 20 80 be 3e 0d db 2d be fd 36 da be 4e 91 94 be
       0.37207127 -0.16978092 -0.42620078 -0.2901711
0001f0 01 83 a9 bf 7c 70 46 bf c7 ad 5d bf 95 ee b1 be
       -1.3243104 -0.7751539 -0.8659329 -0.34752336

fc2.weight f4 [64, 128]
000000 68 ee 02 bf 52 47 ec 3c 0d f7 06 3d 7a 08 18 3f
       -0.5114503 0.028842602 0.03295045 0.59387934
000010 ad 9c 75 be 8c 6f d5 3e 2d 9f 02 3f ec 5f b2 3e
       -0.23985548 0.41686666 0.5102413 0.34838808
000020 23 70 01 3e 6b 29 7a 3d c9 fa 1a 3f e6 11 52 3f
       0.12640433 0.061074656 0.6053892 0.8205856
000030 81 63 03 c0 4d 34 6e 3e 88 aa 0e bf c1 83 37 bf
       -2.0529482 0.23262139 -0.5572896 -0.71685416
000040 9e 33 c6 3c 7f 44 1e bf ae fb 8c 3f 51 ee 0f 3f
       0.024194535 -0.61823267 1.1014307 0.56223017
000050 42 66 da bd 6b 02 db 3e e7 90 a2 be 73 74 e1 bc
       -0.106640354 0.42775282 -0.31751177 -0.027521348
000060 9d 27 2a 3f f4 b3 f1 be 7b a4 be bd c6 24 d6 3e
       0.66466695 -0.47207606 -0.09308716 0.4182493
000070 fa 05 9a be 7a 26 ef bd 43 74 d6 be ec 64 21 3e
       -0.30082685 -0.11677261 -0.41885576 0.15761155
000080 c1 79 3c bf 74 ec 4b c0 25 cf 1c bf 44 02 a3 3e
       -0.7362328 -3.186307 -0.6125358 0.31837666
000090 5a 3e e0 bc f2 72 1e be ed ed 6a be 86 68 45 3f
       -0.027373482 -0.15473536 -0.22942324 0.77112615
0000a0 9e f5 1d 3e 99 02 04 bf 40 e9 03 3f 90 f6 91 be
       0.15425727 -0.51566464 0.51527786 -0.28508425
0000b0 2c 0a 4c 3f c6 d5 5a bf b5 6d 52 3f c7 a2 83 3f
       0.7970302 -0.8548244 0.8219865 1.0284051
0000c0 ea c3 6a bd 1d a9 c4 3f 98 c7 8e bd 90 88 e8 3d
       -0.057315744 1.5364109 -0.06971663 0.11354172
0000d0 e6 d1 93 bf 02 60 d3 bd 1e 49 97 3f dd 46 06 bf
       -1.1548431 -0.103210464 1.1819189 -0.5245188
0000e0 63 23 22 3e 5a f5 08 bf aa 35 38 3e 2d f5 c3 3d
       0.15833811 -0.53499377 0.17989221 0.09568248
0000f0 13 13 0c 3f 29 13 0a c0 36 ce 26 bf 2d 14 ed bf
       0.54716605 -2.1574194 -0.651584 -1.8521782
000100 ee 5e 28 3f 73 f4 70 3e 96 79 aa bf eb 8c bc 3f
       0.6576985 0.2353075 -1.3318355 1.4730505
000110 3e d5 54 3f ff c3 e0 bf 35 61 21 3f 2d 28 be be
       0.8313788 -1.7559813 0.6303895 -0.37140027
000120 af 90 38 40 9a 93 6e 3f 3d c7 27 3d 83 c9 56 bf
       2.8838308 0.9319397 0.040961493 -0.8390123
000130 94 5f 4b bf 76 f5 0e bf dd 1a 2d 3f 6a e1 6c bf
       -0.79442716 -0.55843294 0.67619115 -0.92531455
000140 5e c7 41 3f fe ed a6 bf 1d 11 49 3f 14 f1 06 c0
       0.75694835 -1.304138 0.7854174 -2.1084642
000150 47 6c 99 bf c9 60 24 40 c2 db d5 3d ed a9 82 bd
       -1.1986169 2.5684073 0.10442306 -0.06380067
000160 8e 52 00 3d 9a f1 bd bd a7 c1 4c 3e 9e 2d 1b 3d
       0.03132873 -0.092745975 0.19995748 0.0378853
000170 6b 72 c0 be 3f 1b 96 3e f4 c0 7e bf 0d de 78 3f
       -0.37587294 0.29317662 -0.99513173 0.9721382
000180 56 ea 16 be 09 6d ec bf 2d 08 07 bf 46 8d a8 3c
       -0.1473783 -1.8470775 -0.5274685 0.020575177
000190 9b 26 32 bf 4e be 11 bf ee 74 9d 3b a2 93 93 3f
       -0.6959016 -0.56931007 0.004805199 1.1529429
0001a0 3d f8 e8 bd c4 0a d0 be b8 2b 55 3f 2d 2a a1 bf
       -0.11375473 -0.40633214 0.83269835 -1.2590996
0001b0 6e 60 93 bd 79 f1 6d be 59 18 3c be f0 9b ad 3e
       -0.07196127 -0.23236646 -0.18368663 0.33908033
0001c0 58 39 f0 be 2d f5 5e be 1b 78 10 3f 60 e4 dc 3f
       -0.4691875 -0.21773215 0.56433266 1.7257195
0001d0 9c 72 71 3f 02 b6 ef bc ba 30 6d bf ec 7a 67 bf
       0.94315505 -0.029261593 -0.92652476 -0.9042194
0001e0 c5 45 08 bf e6 86 b7 3d 78 a4 4c bf a0 9e 70 be
       -0.5323146 0.08961277 -0.7993846 -0.2349801
0001f0 fb 1f 72 3f 75 97 39 3f 23 16 d4 bf ec 0b 1f 3f
       0.9458005 0.7249673 -1.6569256 0.62127566
000200 77 62 93 bd 9a 41 1c 3d f1 a2 8f bc 5a c8 dd bd
       -0.07196515 0.0381485 -0.017533751 -0.1082923
000210 99 a5 11 bd 0d 30 66 bc 94 71 81 bb f2 c2 56 3d
       -0.035558317 -0.014049542 -0.003950307 0.052432008
000220 ec 64 41 3d 3d cc 9f bc 43 16 05 bd 3a ec 4c bd
       0.047215387 -0.019506568 -0.032491934 -0.05002997
000230 75 7c 30 3b ff 58 ae bc 1f b5 64 bd d3 3a 23 bb
       0.002692965 -0.021282671 -0.055836793 -0.0024906888
000240 82 bb 0a 3d a9 31 d6 bd 81 f2 49 bd 86 6d 2f bc
       0.033870228 -0.10458691 -0.049303535 -0.010707265
000250 f4 e0 86 bd 37 b1 46 bb 62 77 d8 bd 1f ee 6d bd
       -0.06585875 -0.003031803 -0.105696455 -0.058088418
000260 75 5d c7 3c d9 81 3a bd f7 23 10 bd b4 05 9b 3c
       0.024336556 -0.04553399 -0.03519055 0.018923618
000270 f6 a2 a7 bd 6f f1 ca 3c 4c 1c 99 3c 14 26 19 bd
       -0.08185379 0.024773328 0.01869025 -0.03738983
000280 9e a5 3f bd f7 c0 be bd cf fb 25 3d b7 b7 1f 3d
       -0.046788804 -0.09314149 0.040523347 0.038993564
000290 8b a3 9b 3d b1 a9 67 3d 5c 80 d3 bd 59 1d da bc
       0.07599553 0.056558315 -0.10327217 -0.026625322
0002a0 c8 97 06 bd 43 c5 8a bd dd f0 cb bd 80 25 2f 3d
       -0.032859594 -0.06775906 -0.099580504 0.042760372
0002b0 2d ca a2 bd 02 50 8e 3c d1 f1 8d bd 3d 73 26 bd
       -0.07948718 0.017372135 -0.069308884 -0.040637244
0002c0 c2 1a 20 3d af 6f e0 bd a0 84 3b ba d5 37 c2 bd
       0.03908802 -0.10958802 -0.00071532466 -0.09483305
0002d0 39 99 f0 bd 22 b9 3b bd 5c 59 cc bd 68 22 89 3c
       -0.11747975 -0.045830853 -0.099779814 0.016740039
0002e0 b7 4a c2 bd bf de ca bc d4 d6 ef bc eb cd 3e bc
       -0.09486907 -0.024764417 -0.029277243 -0.011645774
0002f0 0d d6 75 bd 07 39 30 bd bb 41 a2 3c 93 e5 26 bc
       -0.060018588 -0.043023136 0.019806733 -0.010186571
000300 2d 26 ae bd c4 e9 91 3d 9a d0 f2 bd 53 65 e6 3c
       -0.08503375 0.071246654 -0.11856194 0.028124487
000310 8e 0c e0 bc 8c 52 75 bd 0e 9f 13 3c b3 65 7c bc
       -0.027349737 -0.059893176 0.00901009 -0.015405106
000320 f0 33 1c 3d fb 38 38 bd 8d 2d 9a bd 94 e3 04 3d
       0.03813547 -0.044976216 -0.07528219 0.032443598
000330 9a d3 bd bd 1a 97 2a 3d 64 38 98 bc e9 d1 98 bd
       -0.092688754 0.041648008 -0.018581577 -0.07461912
000340 c3 21 1a bd 64 45 d1 3c b1 41 be bc c8 3b bf bd
       -0.037629854 0.025545783 -0.023224683 -0.09337574
000350 99 d2 10 3d af 29 76 bc fb 7e e4 bd 87 8d be 3a
       0.03535709 -0.015024587 -0.11157032 0.0014538028
000360 6b 59 8e 3c d4 be 9e bd 34 57 b6 bb 07 a3 02 bd
       0.017376622 -0.07751241 -0.0055645946 -0.031893756
000370 ba 43 e6 bd 2d 55 81 3d 59 7e f5 bb 52 5d d3 3c
       -0.112433866 0.06315074 -0.0074918685 0.025801335
000380 ab b5 0b 3d 9b 64 26 bd 41 29 20 bb 06 85 d7 bd
       0.0341088 -0.04062329 -0.0024438652 -0.10523419
000390 c8 71 b0 bc 2d 5e c7 bc 32 e5 de 3c d0 da 16 bd
       -0.02153863 -0.024336899 0.027208898 -0.03682977
0003a0 f3 a4 54 3d 00 7b f4 3b 78 24 3d bd 40 f3 8b 3c
       0.05191512 0.007460952 -0.046177357 0.017083764
0003b0 dd e0 d3 bd a5 57 12 bd ac 32 55 bb d6 b9 e2 bd
       -0.10345624 -0.035728116 -0.0032531423 -0.11070602
0003c0 48 54 06 bd 13 f1 5a bd 39 0c df bc 0e ad 6b bd
       -0.03279522 -0.053452563 -0.027227508 -0.057538085
0003d0 e9 3b de bd c2 0a 7b 3d ed 47 77 3c 48 e3 c1 bd
       -0.10851271 0.061289556 0.015092832 -0.094671786
0003e0 d5 be 10 ba 23 56 ec bd ce da bd bd 20 5b 18 3d
       -0.00055216 -0.11539867 -0.09270249 0.03719628
0003f0 7b 18 d4 bd 2c ed 4f 3d ed c2 3b 3d d9 fc d2 bd
       -0.10356232 0.050763294 0.045840193 -0.10302133

fc2.bias f4 [64]
000000 bd 2d 55 bf 44 b2 f8 bd 5a 54 62 bd cb b4 0e 40
       -0.83272916 -0.121433765 -0.055256225 2.2297847
000010 e0 28 2c 3f 4b 8f 94 bd 3d a1 00 bd df ae 5d be
       0.6724987 -0.072538935 -0.03140377 -0.2164874
000020 87 02 b6 3f 14 81 89 bd 0e 8c 41 3f 1f 8d e2 be
       1.4219521 -0.06714073 0.7560433 -0.44248292
000030 8c ec 2b bf ec f6 2a be 9e 0f 1e be 9e e2 a9 bf
       -0.67157817 -0.16695756 -0.15435645 -1.3272283
000040 d6 70 66 bd d9 ff df bc 94 f9 ed bd 77 31 c7 be
       -0.056259952 -0.027343677 -0.11619869 -0.38904926
000050 bb 25 c7 bf 25 21 d9 bd d0 e9 a5 3e 67 5b ed bf
       -1.555839 -0.10602025 0.32404947 -1.8543519
000060 2e bb ba 3e 5b 93 9e bd b6 4a 5a 3d 73 5e b6 bc
       0.36470932 -0.077429496 0.053293906 -0.022261834
000070 4f b9 20 bf e4 d0 23 3d ff 46 15 3f fe b1 62 3f
       -0.6278276 0.039994135 0.58311456 0.88552845
000080 f3 e4 23 3f a3 33 1f 3f 61 79 7a 3f 5e 9b 94 3f
       0.64021224 0.62188166 0.9784146 1.1609914
000090 d3 94 e1 3e cb 22 f1 3c 43 37 eb bc 7f d4 1f 3f
       0.44058856 0.029435536 -0.028712874 0.6243362
0000a0 53 6b b3 3e 45 03 f1 3c 5f fa 71 3f 98 a6 95 bf
       0.3504282 0.029420504 0.9452266 -1.1691465
0000b0 e9 2a 31 3f 63 4a 6a 3d 86 bc b7 3e a2 01 32 3d
       0.692061 0.057199847 0.3588602 0.04345859
0000c0 87 7d 3a 3f 2e e8 2c 3e 25 2f d2 3e 36 a3 6b bd
       0.7284779 0.16885445 0.41051593 -0.057528697
0000d0 66 76 14 be b4 75 4f 3e e8 dd 80 bf e1 77 ca 3f
       -0.1449829 0.20259744 -1.006772 1.5817834
0000e0 8c 4f 35 3f d1 14 e3 3a 63 04 b8 bd 64 a3 9e 3d
       0.70824504 0.0017324929 -0.08985212 0.07746008
0000f0 45 2e 89 bf bf 11 c9 3c 86 b2 bd bd 56 3b 93 bd
       -1.0717245 0.024544595 -0.09262566 -0.07189052

fc3.weight f4 [32, 64]
000000 05 33 25 be c8 21 5e bd 20 8d 2f 3d 86 8c 12 bf
       -0.16132744 -0.054231435 0.042859197 -0.5724567
000010 2c 31 fa 3e 69 7a e0 bd aa 7f 87 3d ca bd 80 bd
       0.4886564 -0.10960848 0.06616147 -0.062861994
000020 30 e0 ea bd 27 76 65 3e 91 f7 ac 3e 6c bf 96 3e
       -0.114685416 0.22408353 0.33782628 0.29442918
000030 d8 ca 9f bd 4d bc 52 bf f2 95 25 bd b1 0e b6 be
       -0.07802361 -0.82318574 -0.040426202 -0.35558084
000040 3b 01 c5 bd ff d2 15 3d 82 be 9e bd 37 fb fc be
       -0.09619375 0.036578175 -0.0775118 -0.49410412
000050 fe 1e 85 be 84 ac f5 bd 6e 7e 57 be 65 89 dd 3c
       -0.26000208 -0.11995795 -0.21044323 0.027043054
000060 fe e2 aa be 7c 34 e0 3c f9 20 e7 3c cc c1 1b bc
       -0.33376306 0.027368777 0.028213965 -0.009506654
000070 d5 b4 e8 be 1e 15 26 3d 17 cf 50 be 83 67 19 be
       -0.45450464 0.040547483 -0.20391499 -0.14980893
000080 4d a6 43 3d 20 09 05 be 69 ad d2 3d b3 87 0c bf
       0.04776602 -0.12991762 0.102869816 -0.5489456
000090 07 8a e0 3c c7 2d b6 3d 31 8f 13 be 04 1a 85 3e
       0.027409567 0.0889545 -0.14410092 0.2599641
0000a0 57 b1 7b 3d 4a 7f bb bd ae a7 d2 3e 9b 80 9b be
       0.06144842 -0.09155138 0.41143554 -0.30371556
0000b0 ec d8 01 bf 16 0e f6 bd 43 c9 79 bc ce 88 4e bf
       -0.5072162 -0.120144054 -0.015245738 -0.806775
0000c0 70 11 22 be dd 60 56 bd 54 0c 52 be 34 4d 4a bd
       -0.15826964 -0.05233847 -0.20512515 -0.049390033
0000d0 0d 9c 9e 3d db 5e 0f be 9c e3 a0 3e c0 d5 0b bd
       0.07744608 -0.14001028 0.31423652 -0.034139395
0000e0 e5 d4 4b 3e d8 12 8f bd 13 cc c9 3d 75 5a 83 3d
       0.19905432 -0.06986016 0.09853377 0.06413738
0000f0 d9 83 23 bf 54 39 19 3d e1 52 32 bc 22 a0 95 3d
       -0.6387306 0.037408188 -0.010884018 0.073059335
000100 94 b9 6f bd e0 d1 d9 bd d0 5b cc bc 12 ca 2e bf
       -0.05852659 -0.106357336 -0.024946123 -0.68277085
000110 9f c5 1d be bd 1d 81 bd 20 00 80 bc fa 7e dc bd
       -0.15407418 -0.063045 -0.01562506 -0.10766406
000120 65 73 73 bf a4 4d ed bb 2f 26 c2 3d b1 d7 34 be
       -0.95097953 -0.0072419215 0.09479939 -0.17660405
000130 9c 5e 20 3b b8 1a 16 be d5 7a 35 3d 67 3b 05 be
       0.0024470454 -0.1465863 0.044306595 -0.13010941
000140 3f 70 16 bd 7c d3 1c bd 84 2e 00 bd a7 39 20 be
       -0.03672814 -0.038287625 -0.03129436 -0.15646993
000150 d9 74 b2 3b d6 d4 48 3d 6c 49 f9 bd 63 1d 06 be
       0.005446058 0.0490311 -0.12172207 -0.13097148
000160 4f 05 32 3d d6 38 cb 3d d7 3d bf bd c0 6e 72 3d
       0.043462094 0.0992295 -0.09337967 0.05918765
000170 be 86 94 bd 9a a0 a8 bd ca 9b fe bd cf 3c 34 3d
       -0.072522625 -0.08233757 -0.12432058 0.044003304
000180 93 79 98 bd 6d 48 c5 be 01 3b 21 be 86 48 ba bd
       -0.074450634 -0.3853182 -0.15745164 -0.09095864
000190 4d 2e e9 3b c1 d4 81 3d 3a 41 f1 bd 59 8c f6 be
       0.007116115 0.06339408 -0.11780019 -0.48153952
0001a0 8e 80 9b bd 6d ff d9 bd 06 81 b8 bb 2d f0 51 bf
       -0.07592879 -0.10644422 -0.005630615 -0.82007104
0001b0 c9 42 81 3f 89 c9 9f 3c 17 b1 4e be a8 69 9a 3e
       1.0098506 0.01950528 -0.20184742 0.30158734
0001c0 e3 b1 e8 be 63 45 96 3e 73 38 63 3e 27 a9 08 bd
       -0.45448217 0.29349813 0.22189502 -0.03336444
0001d0 28 f0 89 3d f2 2c 5a be 0e 17 7c 3b 18 56 86 bd
       0.06735259 -0.21306208 0.003846589 -0.0655939
0001e0 f9 27 01 bf ad e8 0a be 62 55 17 c0 1c 02 9e bd
       -0.5045162 -0.13565321 -2.3645864 -0.07715246
0001f0 62 50 c7 bd b8 c4 57 bd e1 9a c0 3d b8 e4 00 be
       -0.09732129 -0.05267784 0.09404541 -0.1258725
000200 6c 78 8f be 47 8f 2b 3d 7d e6 a6 bd 48 68 4c 3d
       -0.28021562 0.041884687 -0.08149431 0.049904138
000210 ad 1e ea 3d 18 b2 a1 bd ce 12 ed 3c bc fb 23 3e
       0.11431632 -0.07895297 0.02893963 0.16013998
000220 32 70 c3 3e 41 87 69 3e 13 da 36 3e e2 a6 c9 bb
       0.38171536 0.22805502 0.17856626 -0.006153927
000230 ef 34 e9 be 66 41 8f bd ee 2d f7 3d fb 50 3f bc
       -0.45548198 -0.06994896 0.12069307 -0.011677022
000240 b5 da 97 bd 62 c9 8f bd d7 3d 86 3d 3d 8e 62 bf
       -0.07414762 -0.070208326 0.06554764 -0.8849829
000250 38 d8 9e bd 3f b2 9f 3d d0 5b 23 bb 51 01 87 be
       -0.07756084 0.077976696 -0.002492655 -0.26368192
000260 9e c2 00 c0 bf e1 6f bd ae a9 79 bd dd 93 8f bd
       -2.0118785 -0.058564898 -0.060952835 -0.070106246
000270 4e 10 b5 3e f4 e7 40 bc d4 38 c6 bc d1 b5 1f 3f
       0.35364002 -0.011774052 -0.02419702 0.62386805
000280 76 29 15 be 5a a4 af 3e 30 96 af be 54 10 1b be
       -0.14566597 0.34305078 -0.3429427 -0.15142947
000290 5d 18 86 bf 18 de aa bb 7e 20 24 3c f4 b0 55 bf
       -1.0476185 -0.005214464 0.010017512 -0.83473134
0002a0 7c 42 2a 3f c1 74 ee 3d 43 89 e8 bf db 13 69 be
       0.665077 0.11643363 -1.8166889 -0.2276148
0002b0 14 fb 94 bf 2e 71 10 3e f7 c6 be be 82 ef 2a 3e
       -1.1639123 0.14105675 -0.37261173 0.16692927
0002c0 69 25 fe be 5b f9 88 3e b0 6e e6 3d 6c 1a 81 bd
       -0.49637917 0.26752743 0.11251581 -0.06303868
0002d0 fd 41 fc bc 80 31 f6 be 43 21 81 bf 04 bf 03 c0
       -0.030793184 -0.4808464 -1.0088276 -2.0585337
0002e0 0c 21 8f be e5 a7 14 3e d4 a1 45 3e 92 9d 67 bc
       -0.279549 0.14517172 0.19300014 -0.014136689
0002f0 48 00 7f c0 42 34 89 bc 40 f6 70 3d 40 33 b2 3d
       -3.9843922 -0.016748551 0.058828592 0.087011814
000300 5c 22 99 be 1e a5 ab 3d 18 43 9b 3c 12 92 bb 3d
       -0.29909027 0.08381103 0.018952891 0.0915872
000310 f9 fb 9a be 70 e2 b8 bd 00 be 97 3b 99 ab 1e 3e
       -0.30270365 -0.090275645 0.004630804 0.15495147
000320 db b7 fd bc ea 95 f3 3e 8d 3a 83 be 1e 10 8a 3e
       -0.030971458 0.47575313 -0.25630608 0.2696542
000330 0e f6 af be a4 ee 68 bd c0 60 83 bc 80 b0 29 3b
       -0.34367412 -0.05686821 -0.016037345 0.0025892556
000340 30 a6 6e 3d b4 30 5b bd 14 a3 4e 3d 4f e3 bc 3d
       0.058263958 -0.053513244 0.050448492 0.09223043
000350 bc e6 92 3d a0 c2 c3 bc 8e df ca 3d 3c b6 ab 3e
       0.07172915 -0.023896515 0.09905921 0.3353747
000360 69 6f 1b be dc 41 94 3d 54 aa 1c bd 54 ce 1a 3d
       -0.15179218 0.07239124 -0.038248375 0.037794426
000370 1c 9c 2e be 70 ec e0 3d 80 80 39 bf 49 48 08 bf
       -0.17051739 0.10982597 -0.724617 -0.532353
000380 77 64 5f bf c7 7e c2 bd 57 34 5a be 93 5a 8f bf
       -0.8726267 -0.09496837 -0.21309029 -1.1199516
000390 2c e4 60 3d 16 ee c7 bd d0 84 18 3d 6e 95 83 be
       0.0549051 -0.09762208 0.037236035 -0.25699943
0003a0 1f d0 c6 bd 80 86 b2 ba 64 87 cc be 59 ee d8 bd
       -0.09707665 -0.0013620406 -0.39947045 -0.10592336
0003b0 2d c1 22 bf 1c b1 16 bd 5f 75 33 bf 07 b5 a5 be
       -0.6357601 -0.03679 -0.7010097 -0.32364675
0003c0 5e 1a f4 bc 38 2a c0 bf 69 cb b5 3d 78 ad bf bc
       -0.02979773 -1.5012884 0.08876688 -0.023398146
0003d0 7e 0e ea 3d d6 5a be bc 91 4a 33 3e 1c 46 4f be
       0.114285454 -0.023236673 0.17508914 -0.20241588
0003e0 f8 91 1c 3d b0 80 36 bc 36 da a1 be e6 f0 90 bd
       0.038225144 -0.01113908 -0.31611794 -0.07077198
0003f0 5d 20 9d 3e 5e 0c aa 3d 8a ed e3 bd c6 40 b2 bd
       0.30688754 0.0830314 -0.11129291 -0.08703761

fc3.bias f4 [32]
000000 60 de 66 3f 9a c5 39 3f 1b 9d c6 bf 89 b0 d6 3d
       0.9018307 0.7256714 -1.5516695 0.1048289
000010 62 f7 c3 bf b7 f7 a4 be 9d e4 b3 3f fc 55 15 bf
       -1.530987 -0.3222024 1.4054142 -0.58334327
000020 e7 5a 99 3f 4b de 15 be 09 da 28 3f bf 13 50 3f
       1.1980866 -0.1463558 0.65957695 0.8128013
000030 dc 9a bd 3f 4b 6d dc bd 91 bf 58 3e 9f ec d3 bd
       1.4812884 -0.107630335 0.21166827 -0.10347866
000040 49 1f 1f be 5e f3 ad bf 17 51 ff 3f e7 6f 9a 3f
       -0.15539278 -1.3589895 1.9946622 1.20654
000050 3a 6f c0 bc db 9b 27 40 00 4d 2e 3f 1e fa af 3f
       -0.023490537 2.6188877 0.6808624 1.3748205
000060 69 77 c6 3f 40 d0 a7 3f c1 dc d6 be 5a 49 29 3f
       1.5505191 1.3110428 -0.41965297 0.6612755
000070 f0 61 ce 3f 0b 90 b0 3e 09 02 01 3d 9d 47 1d 3f
       1.6123638 0.34484896 0.03149608 0.614374
